src/experiments/kernel_ABC/vonMises_mean_estimation/results/saved_results/errs_SphereKernel_EuclideanOptimization_seed6.npy (npy, 240128 bytes, 1 tensors)

array f8 [100, 50, 6]
-0.2188335423939691 -0.07727755940976297 0.32395523853155767 0.5963065449613701 -0.624168492100906 0.30986769588447616 0.3900995921465267 0.12251963147929812
0.311495089721439 0.678381230443194 -0.2151189270198037 0.47885078008388027 0.3685628869087726 0.31524744840501934 0.09686068450553476 0.683070960179442
0.1547225183008992 0.5146433442829175 0.12507445336148504 0.8059188496418882 0.03412325360422952 0.5324313457830143 0.20371681636125774 -0.09319629261845791
0.21638929805366147 0.7144670914578524 0.5754730162632217 0.2892915196827506 0.09372311968311947 0.1380087381383816 0.5536955476200138 0.08959654204941811
0.42867726184287847 -0.18709524948321551 -0.6050734707439974 0.31702544342137307 0.0776365074669284 0.42383609487991636 -0.09186867841035312 0.3393588911834742
0.6430622136415605 0.5264706143322649 0.7185525315013875 0.04315631910278149 -0.09063312028696663 0.12056525213288014 0.6492642859359488 0.1937141404585637
0.07138366855015432 0.6424590461558252 0.4052750152888992 0.2379251820914709 0.5642427590903584 0.20708718155448308 0.14960234813730316 -0.3560943501910863
0.5927902151174622 -0.04138494086750116 0.43808660317702497 0.5529678831095539 -0.3868315673135313 0.31569203898448217 0.2923519793239724 -0.0562610053537389
0.5598527185961162 0.5904039548845212 0.541031991139769 0.14949673482926185 0.28916000457808994 0.5849601853536565 -0.4760049763574227 -0.18044569267580565
-0.49911814682729744 0.5832468578950628 0.1628034539753107 -0.10091990147114016 0.5947113486085 0.14243212655277782 -0.07744545453360566 -0.5806697005921022
-0.19824677954848285 0.3458602630953238 0.48776414106723454 0.5098873092299081 0.007547184396981099 0.8176171783845259 0.4095594790524333 -0.08286441604962619
-0.002283356679573967 0.39599282110370554 0.1801697884511554 0.36583489975964345 0.2720344833416567 0.22923095902038215 0.8395298416906045 0.04817284211080913
0.07969194813344438 0.3483170400322063 0.772772195090107 -0.05005990460423759 0.5161956833890714 -0.07850769410007025 0.6138487764913289 -0.09351648743386508
-0.2857582437915036 0.26773074320000184 0.32523225972722003 0.5960962103616618 0.45539859903129215 0.5239793211391883 0.5203852664536316 -0.2504686711080308
0.4211605993723514 0.08451005139708212 0.34715806223800494 -0.2952297867329842 0.4410665753146108 0.5864513672545713 0.49069764396862725 0.11429940299783382
-0.003952890657315078 0.3978430426382351 0.19186977193913507 0.3976797111619302 0.47740240276330587 0.6471341742169808 0.646056166912969 0.29179756676801016
-0.0008883358110933076 0.17181366721139604 0.059203010086885666 0.6814976922434911 0.4752476492225247 0.004790845987291237 0.7180115665737737 0.40427817782205555
0.3079915364201432 0.0164454661452475 0.3824763337473975 0.17711373477954595 0.6093074673462449 -0.10484173727758 0.602394756971339 0.2778583549630481
0.5945835182959496 0.5020488044259532 0.21753415193561026 0.5286547306979948 -0.25538023209997973 -0.04900401662282691 0.280478103821514 -0.04852928807175072
0.0004030567945214336 0.1379604921547011 -0.1504851647798335 0.9366406021916313 0.6557592464059191 0.4331401212258822 -0.01608321795055584 0.14644116185774175
0.4970791527860198 0.33701035349029984 -0.5455333161172743 0.2481175812376179 0.14761434449932348 0.7471372622301904 0.18399405984599243 -0.1641151422444308
0.5740375664269219 0.6339770359029601 -0.1591912502730056 0.45659115462069366 0.1848537515154698 0.023765394984766597 0.3869424850859715 -0.03111684707090359
0.6981788720297193 0.027968398192752278 -0.3095494531117331 0.5150235159576663 -0.055002958575558036 0.4754383579228397 -0.23800750909343793 0.7609618876320693
0.3597287481606782 0.07611779131127877 0.6660828884725403 0.0690602779994336 0.15555556336630044 0.4985214927504795 -0.525155443274226 -0.05520758121939212
0.6616762698382822 0.5589604284490984 0.3739272021722868 0.3128773263130082 -0.020327874972543986 0.10779290149407911 0.8280254275355033 0.019673123479729507
0.13143564569870764 0.16096810239353254 0.5202276644383443 -0.012744504655241157 -0.04158569386870431 -0.09090742736197815 0.9495679331579868 0.14233030950006811
-0.08088456481295914 0.24801475873217982 0.7095240349920092 0.17762564948342868 -0.12502325774839387 0.6123401674353918 -0.09411054779595057 0.25607870716725456
0.3001233518361465 -0.2033202197604723 0.692121383684595 -0.14176245039612848 0.30652313065962555 0.5248771305305161 0.5918029945791006 0.016659639367813922
0.6025245051065944 0.20001912628379007 0.4852386152988863 0.10482661868576927 0.5802083564785989 -0.3038139135199112 0.028198172926730422 -0.11809213788762625
0.7173497387246025 0.20426148701768226 -0.07318861716012337 0.0017422139878017218 0.7356729242851514 -0.11222627436815119 0.3897068893101511 0.5375230370927931
0.034376271244917045 0.29474984619466316 0.4246007654625728 0.6272285829795023 0.5686410170372725 0.12184326942073193 0.8796748860085237 0.009317899614582015
-0.0875510199576349 0.3793990504619622 0.1890179824242623 0.19683779473664278 0.5450744489763079 0.16797704353363144 -0.4363724612322249 0.08188744609192528
00000000: 67ca eccd bc02 ccbf 5e2f 614e 76c8 b3bf
00000010: 4d19 b7c0 aebb d43f adfe 9f76 f114 e33f
00000020: 798b 9833 30f9 e3bf e448 fa50 dfd4 d33f
00000030: 00f2 9c47 64f7 d83f 9851 5252 725d bf3f
00000040: 70f6 cd19 89ef d33f 0629 df8d 4cb5 e53f
00000050: 477c 265a 0489 cbbf 6af5 07be 7da5 de3f
00000060: bab8 72ca 8896 d73f 2302 43a2 032d d43f
00000070: 982d 38a0 dccb b83f 3c2d 5aa1 b7db e53f
00000080: d34f 078e f2cd c33f 0a93 9951 f577 e03f
00000090: 0457 608f 7002 c03f a523 ce53 16ca e93f
000000a0: a0cc 8664 9a78 a13f 261b 3076 ad09 e13f
000000b0: 015b f583 6413 ca3f ec9b e754 b6db b7bf
000000c0: c824 2cff a4b2 cb3f a426 fc16 eadc e63f
000000d0: a997 1263 466a e23f 200b 0394 c083 d23f
000000e0: 1408 eb05 3dfe b73f feeb 6e34 45aa c13f
000000f0: 2a00 9fb9 dfb7 e13f 46db ef89 ccef b63f
00000100: 00db 09c1 726f db3f 3b39 e2b4 bcf2 c7bf
00000110: cfb9 100a c35c e3bf 18a9 df15 254a d43f
00000120: 58ce 8b74 fcdf b33f f6e8 976d 2120 db3f
00000130: e498 4ca9 b484 b7bf 9c59 cf5a 0eb8 d53f
00000140: a448 1c35 f793 e43f 6196 dbe6 d8d8 e03f
00000150: ff34 e8e0 61fe e63f 1e0a 53c6 9518 a63f
00000160: 0424 916f bb33 b7bf ced8 f146 5ddd be3f
00000170: 3cc8 51e5 c5c6 e43f 7b69 05fd 9fcb c83f
00000180: e033 e439 3346 b23f a546 0846 068f e43f
00000190: 6a4f 239e 06f0 d93f ae25 fd15 5574 ce3f
000001a0: 5d88 a9d4 460e e23f c241 1930 d581 ca3f
000001b0: 6ec7 5374 2b26 c33f 0d1c 17f5 3fca d6bf
000001c0: 8e2f 6a2f 23f8 e23f 8847 252f 6830 a5bf
000001d0: e081 5d64 9c09 dc3f 4e34 b6b3 e9b1 e13f
000001e0: b202 ab30 d9c1 d8bf 28f0 c261 4c34 d43f
000001f0: 5482 8713 e5b5 d23f 809b 1114 3ece acbf
00000200: e84d 9e3f 50ea e13f fa0e b5d5 96e4 e23f
00000210: 4a1f 8152 2250 e13f cca8 7981 b522 c33f
00000220: c357 bef6 9881 d23f 2fcb 316c feb7 e23f
00000230: 7b0e 8c93 dd76 debf 4b92 5f2e d818 c7bf
00000240: d5a7 5d3d 8df1 dfbf 03ee 8450 f5a9 e23f
00000250: 78f9 3f5b bed6 c43f e086 55fc e2d5 b9bf
00000260: 8bac 1a18 e007 e33f 2cd2 b846 373b c23f
00000270: d218 721e 77d3 b3bf 3247 ba9f d894 e2bf
00000280: e259 5985 2660 c9bf 68be be15 9322 d63f
00000290: 3ee6 8216 8737 df3f 6e36 b930 ff50 e03f
000002a0: 8034 97e2 cbe9 7e3f 16e6 3980 eb29 ea3f
000002b0: 0402 13f6 3836 da3f a46e ef34 9a36 b5bf
000002c0: 80a6 71c8 8bb4 62bf 1fd6 0546 f257 d93f
000002d0: 64fe 8fba cd0f c73f b4ff 8cc8 d669 d73f
000002e0: 0a8c 5552 0369 d13f b493 1ca8 7057 cd3f
000002f0: 7478 c2af 6ddd ea3f 38b4 d75a 1caa a83f
00000300: 10d8 fc06 b166 b43f 7afb e48d d34a d63f
00000310: cc71 25c1 8cba e83f e06e 3baa 73a1 a9bf
00000320: 01c2 4fcf ac84 e03f 94e8 a48a 1419 b4bf
00000330: 2f09 7730 a6a4 e33f 874d 2a4f b2f0 b7bf
00000340: dc66 e9f1 dc49 d2bf c960 8b20 8022 d13f
00000350: 527c c8f7 9ad0 d43f 62bb 185c 3813 e33f
00000360: 95f3 5e2a 4025 dd3f cc56 0248 70c4 e03f
00000370: 8fa2 9700 ffa6 e03f 7b38 c5bf ad07 d0bf
00000380: a2c0 2a96 4bf4 da3f 080a ef62 73a2 b53f
00000390: bab7 f672 d637 d63f abaf b479 0be5 d2bf
000003a0: 3870 154d 6f3a dc3f 1ab1 61a8 35c4 e23f
000003b0: c872 4417 9767 df3f 29f9 d3c5 b942 bd3f
000003c0: 80b8 9001 e830 70bf 70a1 44aa 4276 d93f
000003d0: 76e7 c84d 308f c83f 2d49 6e9a 9573 d93f
000003e0: 2f9d b9ce c28d de3f 4959 4cba 52b5 e43f
000003f0: 74a6 88fb 7dac e43f f08a 94b3 cfac d23f
00000400: 805d d5a0 e61b 4dbf 0de2 d680 fdfd c53f
00000410: c0bd 4b60 db4f ae3f 4f87 8f3f d4ce e53f
00000420: 0a58 ba1d 756a de3f 4092 5eed 909f 733f
00000430: d3b0 9264 f3f9 e63f 62dc 0e94 b1df d93f
00000440: bea2 1722 22b6 d33f b095 0b8d 14d7 903f
00000450: 7319 3c04 7e7a d83f 0079 46b1 a9ab c63f
00000460: 22be ae5f 727f e33f 8cef dc78 e8d6 babf
00000470: 1e29 8f5e d146 e33f 4a25 df68 6ec8 d13f
00000480: 8a4b ba03 d406 e33f fc2b 80a7 c810 e03f
00000490: 1acc 29ba 28d8 cb3f 8727 6753 bdea e03f
000004a0: ee83 3a54 2658 d0bf 9c0d 89f1 0d17 a9bf
000004b0: 6714 ca6e 5af3 d13f 8029 55b2 d4d8 a8bf
000004c0: 00fe 3ac0 2b6a 3a3f 91e5 f87c b0a8 c13f
000004d0: 6f9b a10e 1943 c3bf 079a 50b6 f5f8 ed3f
000004e0: ed9d abd0 fafb e43f 7a0a d057 91b8 db3f
000004f0: 70c4 727c 1e78 90bf a2ce 7b80 95be c23f
00000500: 6251 2f14 25d0 df3f 06df a9df 9391 d53f
00000510: 9744 f348 0275 e1bf 6635 7d20 51c2 cf3f
00000520: eac4 05df 06e5 c23f 44da 5c67 8ce8 e73f
00000530: e230 d90a 1e8d c73f 94ee 5b98 b901 c5bf
00000540: 7054 cf07 845e e23f 8dc8 7335 8a49 e43f
00000550: 3baf ddfe 6060 c4bf d247 2f1b ca38 dd3f
00000560: 20a3 a6a8 49a9 c73f e0c2 f1a8 f455 983f
00000570: 4c24 b869 aac3 d83f 88be 1842 18dd 9fbf
00000580: aa06 c437 7b57 e63f 34cd 3c6e bfa3 9c3f
00000590: 5803 6782 a8cf d3bf 09b1 b698 127b e03f
000005a0: c0d0 8708 5929 acbf f6b8 a201 956d de3f
000005b0: 581e e1b1 0777 cebf b13a 9cbe cc59 e83f
000005c0: 15fe 31ba cb05 d73f c460 53a0 747c b33f
000005d0: d845 cd0f 8d50 e53f 00d2 7533 efad b13f
000005e0: 323f afa4 3ee9 c33f acd9 edb0 c6e7 df3f
000005f0: e0bb c5c9 12ce e0bf 1838 a807 2b44 acbf
00000600: 87d4 6fb6 732c e53f 094e fefa 00e3 e13f
00000610: 4c8b 1a5c 6cee d73f 9327 0b9f 2e06 d43f
00000620: c827 d198 d4d0 94bf f473 a8ca 5098 bb3f
00000630: 59af 702e 2f7f ea3f e48a d2f7 3025 943f
00000640: e2fc e61b e2d2 c03f 085d bd4f 9a9a c43f
00000650: be96 a77c b4a5 e03f d076 9575 ca19 8abf
00000660: 088c 4b56 b84a a5bf 74b2 7b8b b545 b7bf
00000670: c3cd 474a dc62 ee3f 1124 442c e137 c23f
00000680: 3873 9fd0 d9b4 b4bf a40b d796 f2be cf3f
00000690: 4f88 c0bf 6bb4 e63f 9e25 bbf1 6fbc c63f
000006a0: c165 a219 c300 c0bf 8330 2568 4a98 e33f
000006b0: 4404 fefc a017 b8bf 780f 1ff2 9763 d03f
000006c0: d7bc 3993 3835 d33f 334e 3e9f 6506 cabf
000006d0: 0c34 79be db25 e63f e547 20a0 4525 c2bf
000006e0: dea3 6931 139e d33f 1f80 c11f cbcb e03f
000006f0: 1a8c 6cd5 0cf0 e23f 68dd fd78 390f 913f
00000700: c615 8f78 e147 e33f c94f fb0a 3a9a c93f
00000710: 3fc3 dd43 260e df3f b971 01d3 ead5 ba3f
00000720: b420 7e1d 1191 e23f 91d1 a8e9 af71 d3bf
00000730: fce9 1b5a fbdf 9c3f 2d5f 244e 493b bebf
00000740: d5b8 7370 87f4 e63f 0a61 498b 3d25 ca3f
00000750: d866 243d 7dbc b2bf 005e 6a06 608b 5c3f
00000760: e66f cbf1 a18a e73f 0cc3 2972 dcba bcbf
00000770: 3e3b 272a f5f0 d83f e11f 2583 6333 e13f
00000780: 70bc 8241 c499 a13f 100e 7a75 2edd d23f
00000790: 192c 61b0 a82c db3f a66d 60ad 4112 e43f
000007a0: 41db 6aa5 4e32 e23f b456 66d9 1e31 bf3f
000007b0: c69c 50f2 4b26 ec3f a075 e550 4315 833f
000007c0: 7611 735f be69 b6bf 7486 77f4 1248 d83f
000007d0: 351e 6fc2 bd31 c83f b55c 8119 fb31 c93f
000007e0: 7da1 87f8 3f71 e13f e154 3a92 4580 c53f
000007f0: 0984 77c2 86ed dbbf c4f3 ea5e 93f6 b43f
