src/experiments/kernel_ABC/vonMises_mean_estimation/results/saved_results/errs_EuclideanKernel_SphereOptimization_seed8.npy (npy, 240128 bytes, 1 tensors)

array f8 [100, 50, 6]
0.29105316504707046 0.2476153601814134 0.7078403986290401 0.18421391468430093 0.09070443227841174 0.5574542641331321 0.6707631629171883 0.23016410961298678
0.4223806480777251 0.27963567938460926 -0.3897057166133989 0.29770638106888236 -0.22880942490291178 0.7162572324549825 0.338377016336602 0.2427022689261732
0.46794477740357726 -0.20544840969826617 0.3746448531819103 0.22128797408157233 0.27299920171409964 0.5706625533895522 0.4311074087595056 0.47393445073798357
0.49337045540275937 0.31104572152287374 0.5627963568786456 0.41556081216755036 0.1258687107815678 -0.39314341696133664 0.4590874303627733 0.3914835999945767
0.07688190092784696 0.7388826984350182 0.26777415086026096 -0.11141265765519007 0.8721077378402456 -0.23938196821891472 0.05949770519923811 0.3295288123866269
0.1750120367717564 0.1983940338565592 0.5447277208051703 0.005713388841655495 0.3909900720914802 -0.4113137621533153 0.5958326041932784 0.16177260116919853
0.11250886492908818 0.4541670727560239 0.6004125194591868 0.39501075280904935 0.5011344170646108 -0.11567489746818754 0.40532622309010075 0.7568317160506494
0.14932863335342583 -0.16371944546626693 0.3751075576749333 0.270371827063624 0.6666721096908722 0.03609202538339083 0.32890600545414594 0.09435134366986891
-0.15309729758363416 0.6432150377854516 0.32440293579054635 0.2997852319612304 0.6006902672758545 0.2231903995522305 0.6276427826565834 -0.01722715573271849
-0.012902531480413981 0.6126724359980598 0.7638401703482081 0.19918322608810599 -0.035352742724689135 0.00806603710882653 -0.012464794447901495 0.5609990641118413
0.7605282471057957 0.09971126817528608 0.28806875955508904 -0.11733987274037216 0.5674647530725176 0.3181923558200278 -0.044085343767617496 -0.14183971091831754
0.5623745889699815 0.48827125003665667 0.7375058420923324 0.18607941380571014 0.17614874735909802 0.02569389463522556 0.4792754426338486 -0.4000778793282408
0.6508918609446094 -0.023576415538782064 0.29471600164308864 0.4533800671301362 0.04778636962905254 0.5301773915979885 -0.5898911209584249 0.03953452649656464
-0.04518619275953584 0.659410023497989 0.3602729746424381 0.2894082618091588 0.19058767737033333 0.8201416036028715 0.3968132376046521 -0.3262386347030797
0.15496232754986378 0.05595749457707047 -0.2236425053236919 -0.3806211175153986 0.602484539077427 0.3870583680777477 -0.1690255458495039 0.5135398796830896
-0.0514863993921344 -0.06214040229940321 0.2993767790807913 0.5049675168388822 0.8049502990525006 -0.0299628596957055 0.20479423264178145 0.5097573241800984
-0.45040195946614137 -0.6993557223176335 -0.008112591900930749 0.0785677234167014 0.5283324097541103 0.26748840913756655 0.7088360599431727 0.3549475185668439
0.06267023122488083 -0.13018588264712244 0.09171422856173028 -0.03201746443071113 0.22020522564252745 0.04828261250456006 0.41422836917192624 0.8764340098026036
0.11429062323711883 0.26779329294361987 0.21862576334596828 -0.3308748040430514 0.8285639019804487 -0.2672598048967814 0.220719983437889 0.6133449319121873
0.5963221603072808 0.2780173883825341 -0.2872484642658665 0.2442787906509284 0.2830444614905169 0.0674714907068828 0.4464292967354096 0.49927746231508374
0.6779234186092049 0.0845982732697288 0.045041066724412826 0.48157312090158433 0.6068560135664802 -0.2508564561899834 -0.46604858596204946 0.34300122604059835
-0.04226322273550531 0.7536411915854728 -0.12391977529103548 -0.3605398100607687 0.38188298964672623 0.37288998257354167 0.06737218036328874 -0.08725148119891346
0.6611346895976022 0.010411190173662321 0.7357216798763309 0.09662471999789668 0.5051825277310202 -0.3548647083081809 -0.16992409041881235 0.5369884854339313
0.53227244997041 0.13533956945532882 -0.1418335129236895 -0.23365777732460868 0.648689900346758 0.36945493674070484 0.33881652720214306 0.5031504208017834
0.20964959610152306 -0.08560565869198655 0.6334285746960535 0.186059043618645 0.6970544540480879 -0.16423910664998131 -0.05186988019132299 0.05291211641234439
0.6659622225043094 0.5497636262174438 0.3171033441040473 0.3849236872775714 0.40009048294807237 -0.11511717149407236 0.513212037471279 -0.298159067200095
-0.14971315902152504 0.6722917731375375 -0.3566304973480575 0.2768165069520743 0.3959146271982273 0.3980696570766047 0.5536826795309362 0.4175490061426317
0.46275672106708227 0.0990993654052438 0.7675465186855185 -0.3209757207396958 0.28573540325625824 -0.0473035838719043 -0.14079642800848036 0.7827185028577394
-0.1665491983906003 -0.009162503159421687 -0.5061195929822041 0.28904118206926266 -0.10537383567971836 0.8231502530241541 0.028394811084370752 0.3868754953927483
0.30738072331440186 -0.25755900485488703 0.339398027642692 -0.030720236257819555 0.20831642259437083 0.5187134457655231 0.4482070685416334 0.6086869367699569
0.3001563913032806 0.2004106256322228 -0.5300617696374943 -0.2740516325924415 0.6427494226216012 0.31708837315288285 0.5450885052977205 0.168463137964463
0.6148854494825193 -0.2474798030961058 0.48160420338581567 -0.05679303158439923 0.32740648499344627 0.46731870157192756 0.47164310130972126 0.6038478430477187
00000000: b890 5174 9da0 d23f 04b4 fb30 dcb1 cf3f
00000010: 51c7 5ce8 a0a6 e63f 30c3 8451 5294 c73f
00000020: 38ef 3cda 6738 b73f 28f6 2e53 aad6 e13f
00000030: 31e8 024f e476 e53f 2a18 c07d 0476 cd3f
00000040: 5d41 7dd7 4808 db3f d71a 700c 8de5 d13f
00000050: 7ecd fa3e f0f0 d8bf 5616 a010 9f0d d33f
00000060: d8be 7c92 a049 cdbf 245d 9d49 94eb e63f
00000070: 948f b812 f8a7 d53f fcf8 d931 de10 cf3f
00000080: 4112 d2a6 cef2 dd3f 64aa 552c 224c cabf
00000090: 56fc 0168 2efa d73f 69d7 d611 2a53 cc3f
000000a0: f88d cca4 d178 d13f f684 7b1d de42 e23f
000000b0: 46dd 6b87 4397 db3f de82 9729 f154 de3f
000000c0: 5c1e b1ac 6193 df3f 0518 6050 2ce8 d33f
000000d0: 5a41 6381 6d02 e23f a290 7060 8c98 da3f
000000e0: 0cc1 3246 771c c03f fd24 9f01 4329 d9bf
000000f0: 216b da3e b061 dd3f 5069 b93a 110e d93f
00000100: afb0 2342 88ae b33f ed79 2b54 eda4 e73f
00000110: e92c 2a31 3623 d13f ea4e fd38 8a85 bcbf
00000120: c198 937c 4ee8 eb3f 024d 607e 11a4 cebf
00000130: 0c1a 09b4 7b76 ae3f fc93 1204 0017 d53f
00000140: 4da7 2b5f cb66 c63f 0d56 91c7 f964 c93f
00000150: 81a6 42d4 686e e13f 707e 9623 ec66 773f
00000160: c663 2c39 fb05 d93f 2ef7 35f5 f652 dabf
00000170: 12d2 9c89 0f11 e33f 338d b4ef f6b4 c43f
00000180: 7069 6187 61cd bc3f 290f 1ac5 1211 dd3f
00000190: 1df5 e550 9436 e33f 7786 382e db47 d93f
000001a0: 3029 860b 4b09 e03f 9c11 98bd de9c bdbf
000001b0: 1186 1866 ddf0 d93f 4b6b a025 f737 e83f
000001c0: d0fe 4d5e 331d c33f 8099 ff3f c2f4 c4bf
000001d0: ba8f 2c21 c301 d83f c5df bfa2 c54d d13f
000001e0: 45e2 88bf 6055 e53f ae0c 5669 a77a a23f
000001f0: 288c 38c6 cb0c d53f 744f 65df 6827 b83f
00000200: e624 1d37 b198 c3bf 77af f2b3 3795 e43f
00000210: 1e98 fc87 04c3 d43f 7c39 c665 ae2f d33f
00000220: 9c35 9fcb da38 e33f 0bd3 6dc5 8091 cc3f
00000230: 2493 2251 a615 e43f 2087 e6d9 fea3 91bf
00000240: 40b0 f375 a46c 8abf d8b6 7839 039b e33f
00000250: 2c88 e0f0 6071 e83f 7be7 fa00 d67e c93f
00000260: 6023 a733 c119 a2bf e0d1 b92c ed84 803f
00000270: 8071 0a64 2487 89bf 8b4d 2e4f b4f3 e13f
00000280: 7c1d a055 3f56 e83f a004 db7b ad86 b93f
00000290: 1075 52f3 b76f d23f 98cb ef63 fc09 bebf
000002a0: a288 82d7 ab28 e23f c663 8578 435d d43f
000002b0: ccfe 6dab 5a92 a6bf ce89 d5bb cd27 c2bf
000002c0: c947 77fe f8fe e13f b501 9f0e d63f df3f
000002d0: 00a8 0cda a599 e73f 648f 6042 73d1 c73f
000002e0: acc0 91ca 0a8c c63f a820 a914 804f 9a3f
000002f0: f8d9 f8e7 72ac de3f 4e57 e43f e09a d9bf
00000300: 6fab ff2a 1bd4 e43f b8ad c876 6a24 98bf
00000310: 828e 2a81 a0dc d23f afdc 3ed4 2d04 dd3f
00000320: bab0 807d 7477 a83f 05be bf93 36f7 e03f
00000330: 6df3 1658 63e0 e2bf b02e bb94 de3d a43f
00000340: 2013 4408 a522 a7bf b382 b20c e319 e53f
00000350: c233 ee60 b60e d73f 1a67 ea3a aa85 d23f
00000360: 4cc0 a950 2d65 c83f ca06 b29a 993e ea3f
00000370: 5d70 8859 6365 d93f 6473 af02 18e1 d4bf
00000380: 7a27 7838 ced5 c33f 2467 59f2 75a6 ac3f
00000390: 782d 2e4f 51a0 ccbf ac51 f9ac 185c d8bf
000003a0: a3dc f5a7 8d47 e33f 235f 2276 90c5 d83f
000003b0: 845b ce0b a1a2 c5bf d7c7 8d2f eb6e e03f
000003c0: 20f1 27e3 6c5c aabf a0be 45e7 ddd0 afbf
000003d0: 3c5d d538 fd28 d33f c5b0 4ba3 b128 e03f
000003e0: c6bf 2a21 27c2 e93f 7065 f379 95ae 9ebf
000003f0: 0d8d cd89 b236 ca3f f1ff 8797 ee4f e03f
00000400: 7e87 7dbd 62d3 dcbf 7dfd 7340 1f61 e6bf
00000410: 50cc 33a7 559d 80bf 4a8d 98aa 031d b43f
00000420: dff1 a95e 19e8 e03f be83 53b4 871e d13f
00000430: 36ce f5f5 c8ae e63f e29e 02cc 75b7 d63f
00000440: c22a 8b01 280b b03f 7e65 2f56 eea9 c0bf
00000450: d020 406c 957a b73f 58f1 42d5 9764 a0bf
00000460: 957f 4551 af2f cc3f 5855 58a3 7fb8 a83f
00000470: 3dce aab4 b782 da3f d689 2656 bf0b ec3f
00000480: 62fa 0a79 2642 bd3f d2fb d17a 8623 d13f
00000490: e825 d1d3 edfb cb3f 31dc 9b83 0d2d d5bf
000004a0: a2de b471 9883 ea3f 014a 64de c81a d1bf
000004b0: 183e 386b 8d40 cc3f ba5d f78c 85a0 e33f
000004c0: 7ecb 0c36 1215 e33f cca0 b471 09cb d13f
000004d0: 9e47 f661 4762 d2bf a4e0 7904 8744 cf3f
000004e0: da9a 5a84 661d d23f 1499 ffc5 cf45 b13f
000004f0: 7d1c 5d2f 4c92 dc3f 687b 1175 29f4 df3f
00000500: 48cf 0374 8cb1 e53f a0d6 fd80 3ba8 b53f
00000510: 68da 1d69 9f0f a73f d8ea 3911 18d2 de3f
00000520: 52c4 744d 5d6b e33f 52e4 d43c 080e d0bf
00000530: 8275 c372 bdd3 ddbf f843 156a bbf3 d53f
00000540: 40f3 f16e 86a3 a5bf 00e6 d821 d41d e83f
00000550: f0e1 33d6 34b9 bfbf cd7d 4791 1513 d7bf
00000560: fd9b db59 c570 d83f 2433 0af2 6ddd d73f
00000570: d00e 529f 4d3f b13f 68e2 46f2 1c56 b6bf
00000580: 7c54 c2ef 0328 e53f 806e 774a 7652 853f
00000590: 5edd 4031 088b e73f a049 60cc 65bc b83f
000005a0: e8b0 638c 742a e03f bd0b 2c77 1ab6 d6bf
000005b0: 4e5f 9395 12c0 c5bf c88d e879 022f e13f
000005c0: 1fe9 a53b 6008 e13f 722a 5598 ce52 c13f
000005d0: 04f5 bdbd 9927 c2bf f059 0880 7fe8 cdbf
000005e0: af83 6752 11c2 e43f b269 a951 26a5 d73f
000005f0: 245c eb83 2baf d53f 58fe 49e9 ce19 e03f
00000600: 5215 7047 ccd5 ca3f 4843 6fa0 40ea b5bf
00000610: 767c 9500 0c45 e43f 84ca bb61 c8d0 c73f
00000620: 925d 7524 454e e63f 3899 e47b c905 c5bf
00000630: 506a 235e b08e aabf 5038 1b03 4c17 ab3f
00000640: 26e1 c001 904f e53f 194c 64e3 a997 e13f
00000650: 7643 18d3 6b4b d43f 9006 14f6 96a2 d83f
00000660: f2fa ec1c 159b d93f 9c6a c6a6 5178 bdbf
00000670: 1249 9ba6 3b6c e03f 6a56 a8c4 0915 d3bf
00000680: 409f e300 cd29 c3bf c0db 5f09 6a83 e53f
00000690: 8a6e b7b8 08d3 d6bf 1189 1695 5cb7 d13f
000006a0: 45c3 f44d aa56 d93f 0822 ab27 f979 d93f
000006b0: fc4d 1ebd c4b7 e13f b408 7777 1fb9 da3f
000006c0: 2130 bf5d ce9d dd3f ca49 7875 935e b93f
000006d0: ed36 7db7 bd8f e83f fac4 d8bf dd8a d4bf
000006e0: 4ce1 1225 7d49 d23f a745 6de3 2c38 a8bf
000006f0: 4853 d80a 9e05 c2bf 37f0 77ac 070c e93f
00000700: 539e 21f0 7b51 c5bf 408c 5a5b cac3 82bf
00000710: 1326 77b7 2132 e0bf 8cd1 0b96 a67f d23f
00000720: 3835 199a c7f9 babf 0cda 0d33 3f57 ea3f
00000730: f012 ef83 8713 9d3f 557b 1570 91c2 d83f
00000740: 7798 8332 20ac d33f 4417 a9c3 d87b d0bf
00000750: 5458 4381 b2b8 d53f 70fe 3528 2075 9fbf
00000760: da9a 21cf 1caa ca3f 58de b1f0 4c99 e03f
00000770: ea3a 4eb3 6caf dc3f 85bd dd06 5d7a e33f
00000780: 5d4f 1527 c335 d33f f53e 6e2d 0ea7 c93f
00000790: 5a7e ae19 44f6 e0bf ae98 d9db 0f8a d1bf
000007a0: 59d8 b53c 6791 e43f e08a 2808 2d4b d43f
000007b0: 45bc f572 5d71 e13f a0c7 113a 3390 c53f
000007c0: ac09 0a40 24ad e33f 0ef1 5b0e 6bad cfbf
000007d0: 2020 ca6f 9ad2 de3f a664 97ea f913 adbf
000007e0: 02e4 6254 3af4 d43f 14e1 03b3 8ce8 dd3f
000007f0: d797 e08b 662f de3f 8fcd 34b6 b852 e33f
