src/experiments/kernel_ABC/vonMises_mean_estimation/results/saved_results/errs_SphereKernel_EuclideanOptimization_seed7.npy (npy, 240128 bytes, 1 tensors)

array f8 [100, 50, 6]
00000000: 07d0 5289 8d5c d0bf ccfc f89b 7a4f b7bf
00000010: f229 c4dc 39d7 c03f 02e6 f8fc 5b24 eb3f
00000020: 34fa a0e1 b98d db3f 0cd9 7bc3 0aab b0bf
00000030: 4cfc 22d7 1f61 de3f 7efe c02d 9ba0 d23f
00000040: b3ef 37e0 5fda dc3f 2010 1593 7c1b 9b3f
00000050: 1aac 69e8 eb78 e53f 183c b25d 4a34 c83f
00000060: 4e8a 4f2c 9a9f c43f 9c8c 240a 4bc1 e23f
00000070: 4a9f f003 bbc2 df3f 6413 afb7 0f9b c0bf
00000080: 1d18 1580 1c6a e13f 7704 a6a7 a515 d1bf
00000090: c64d 5a40 7a42 d33f af9f cd7f e6ee d03f
000000a0: 0783 69ab 02ba e53f feb3 6051 86da de3f
000000b0: a270 88b2 47f8 ccbf 5b06 c192 d8b4 d33f
000000c0: f642 74df d10b cebf b8d3 61a9 1fb1 b9bf
000000d0: f3a6 8b3a 0157 df3f a40f 85a3 d870 ea3f
000000e0: 5c1b 4770 ebb8 ba3f 38b8 1702 0703 a33f
000000f0: fcdb 3e90 f2f6 d33f a06d 09a9 5355 e13f
00000100: 9ea6 8099 e26d c63f 8a73 5812 177d c93f
00000110: f42f 090b 3d9e e63f c931 a98b b361 c93f
00000120: 3384 4aaa 0341 e63f 6871 74d7 c98f e23f
00000130: 384b 5fcb aeb2 90bf 78f1 11eb a4f3 bf3f
00000140: 54e8 a14f 5608 ca3f e3dc 25c1 146b d63f
00000150: ed6f 2535 acc9 d23f 1027 a805 ad03 e43f
00000160: f803 a6f4 1f91 c3bf 0ebd 4b8f a2e5 e33f
00000170: 52b8 ffbe 2d37 c53f a342 2592 87ad d23f
00000180: 7a8b 56c2 429d d0bf 5cb7 dc8b 65cf c5bf
00000190: 70dd 4b84 e38c eb3f e2de 5eb1 5a15 d13f
000001a0: 9839 1c96 0975 be3f cc3d 6ec6 a0bf d13f
000001b0: 0693 262e 4984 e43f 1e4a 8017 5aa5 c4bf
000001c0: 7945 4e9f 802d e13f 1f7e 9172 1401 c33f
000001d0: 0c64 9dc2 5539 b73f e7bb 7c53 0da5 df3f
000001e0: da51 bb3a 4d3e ed3f 60a5 d259 3c93 d63f
000001f0: 647b 28f8 c73c a7bf f00c 49e6 b999 8dbf
00000200: 23dd 6a86 4f63 c83f 5037 2615 391f a6bf
00000210: 3f40 d1f9 e4a4 db3f aec8 1410 a505 df3f
00000220: f1d7 708a 76c7 d33f 5494 3ad4 889d c03f
00000230: 5da5 98cb 13a7 e0bf 3e28 333a 9548 dc3f
00000240: 029f b50a cadc d53f 28a8 a7a2 19cd e03f
00000250: ca05 e071 7b83 d4bf 5cf5 cac0 43ba cbbf
00000260: 3aee 5fd1 143a e03f f1b5 8e61 8cae dc3f
00000270: 44e9 ecd6 635d db3f 60b8 5f37 b0ac 97bf
00000280: 2502 001b 5450 e43f 281f 8db0 a2ba b93f
00000290: 09ae 0424 9b1f c5bf a7a3 be25 6fa1 e33f
000002a0: b0f0 a4f0 5e48 c13f e65b c405 41e1 c93f
000002b0: dcd8 6f20 bb55 e03f c74c fa20 6543 e43f
000002c0: 8485 a889 f094 d73f c00e 7968 3c3f d83f
000002d0: c595 2bc1 335d dc3f 6b88 d668 3bb2 d13f
000002e0: fd47 3118 f5d3 dc3f 2824 41a6 6dd4 e33f
000002f0: 9981 4cdc 1506 c5bf 36f5 f5c1 8d89 d53f
00000300: 00cb 9ea3 7e3a 763f d630 445b acb3 d23f
00000310: dcc1 47ce 14a3 c0bf da87 37f6 43b6 d23f
00000320: 275d 26ad 1faf d83f b8f8 8dff 6d10 ea3f
00000330: b029 ee85 8977 bb3f 58dd a0f8 aa6f ce3f
00000340: 16bd 3555 da99 e43f 4bc6 251d 3f1d dc3f
00000350: 72ad f93d e9cf dc3f 6e1c 1f60 4356 d63f
00000360: e2d3 6407 c4bc e53f 9e2a b7d8 c807 da3f
00000370: a2d7 e6bc 1824 e03f 28b0 0acf cb96 c6bf
00000380: 0bea 3a79 fbed d23f 4672 ed3e 2cac 823f
00000390: a40a 4240 e112 c73f 00cc 612e 7f0e 423f
000003a0: a030 4df7 84f7 91bf b8be 64ee 9a84 e13f
000003b0: f63d 0f47 543a e63f f938 ce5e df86 db3f
000003c0: 98b1 271b 6edb e2bf 7502 c778 b73b e43f
000003d0: b3d0 3a14 e7a8 d2bf 607b 9c5d a54d 9b3f
000003e0: cef2 76a7 504a c73f 0170 f117 a26f d73f
000003f0: 79b5 5064 1e72 d13f 36aa 884a a9ae e73f
00000400: 724c aced 4f24 b73f a88d ad44 5f0d ba3f
00000410: f906 a32f 42b2 e13f e3c0 6c83 b6a4 cdbf
00000420: 2372 6e5f bdf2 db3f 4538 31e6 4aa8 cb3f
00000430: 1068 e2f3 2623 e53f 2c1f 5f5a 9712 ba3f
00000440: b159 f7e8 e129 e13f 9247 3155 a081 c53f
00000450: d0ff 6868 9416 bd3f 6146 60ab 1ee2 cb3f
00000460: e8a3 0564 8e5b d63f 3040 1371 0025 97bf
00000470: 54a4 864d 9c80 ec3f 1968 085a cfb6 c33f
00000480: 206d 6dca ce5b b1bf 94e8 9fef eed9 bebf
00000490: 94b2 5695 0a4f b23f c065 3a0d 58a3 e93f
000004a0: faec 343c c3c9 c23f b6ea cb55 ece1 e13f
000004b0: 44ea 194e 751a d33f 0370 2894 e4cd e03f
000004c0: 0ed2 21b5 55dd e73f 3f11 b997 3726 d13f
000004d0: 5811 7c30 d745 b3bf c84b 01f7 dfbe a33f
000004e0: 5c60 ad25 c877 c63f 8184 1389 bf19 ce3f
000004f0: e33b 6718 1255 cf3f 8c40 7aec 0138 b73f
00000500: 06ad 0b8d 1f8a ec3f e8bf 721c 91b5 cc3f
00000510: e0fb 049a 4129 b5bf a4ef 8fa8 1a4f b43f
00000520: b8af d931 f88e ba3f d6bf 2221 9621 e43f
00000530: 40e8 4f21 8f56 dd3f 292b 46a4 1b78 e33f
00000540: b207 d24a f588 c83f 798d 28eb 1b4f e03f
00000550: c783 d6fe d7f5 debf ce09 f442 cd6c d93f
00000560: 9a84 d1df 1dda da3f 4069 fc09 d991 d73f
00000570: 3c9f bcff 40fe c63f 860f 4274 7d63 c33f
00000580: b673 708e 5c8d db3f 00a2 e7f6 de66 e53f
00000590: 80f4 ef17 d205 b63f 685c 4cff 1faa e13f
000005a0: 5479 af70 2f93 e13f 1fbb 4fa3 44af d53f
000005b0: 2b3b 1563 1964 d6bf 7c86 7522 228d a03f
000005c0: 1037 9669 0a69 d53f 0a2d dce7 f6e1 e23f
000005d0: e6e9 b5e9 f06a e03f 7060 f598 aa82 be3f
000005e0: f2e7 4b29 f947 e33f 6831 f709 c31f c93f
000005f0: 308f a692 f472 b2bf d406 9f9b 8ffb e13f
00000600: f6b3 694f cb2b e63f 8aac f0de 0706 e23f
00000610: 0f77 4470 0eea cf3f f15c 0a5d 72ab cf3f
00000620: eac1 12e8 1164 d1bf 1a59 9582 0800 b33f
00000630: e0fa fb9f 7692 b9bf 1ad4 92b6 5511 da3f
00000640: d0b5 4afd 7ef2 e03f 9a97 382b 2297 cc3f
00000650: 22bb 79eb dc63 c03f e738 926b a91b e63f
00000660: 6598 8ca9 0772 df3f 00f4 4245 34f7 d93f
00000670: 1231 70c2 84c6 d6bf a79a 9df3 7a56 e43f
00000680: ec06 505b 1bff b63f 27b9 255b b71c ce3f
00000690: 00fe bd67 11f7 cd3f 259b 7a0b c2d7 e03f
000006a0: f5e2 9557 7410 dbbf f089 4c22 c28a c23f
000006b0: 41c2 b017 779b cc3f 2099 0fb0 e2b2 e43f
000006c0: 8bc0 d8fa 0c72 d0bf f8b3 1130 3a45 a83f
000006d0: a1c1 6010 7f20 d7bf 728a 37b4 603f da3f
000006e0: 37cb 6161 367e de3f faa5 0951 3b63 e43f
000006f0: ea3e 7f07 a8bb d63f f0b4 2c77 3c99 80bf
00000700: a05f 61b5 0689 d0bf c3b8 2e08 0509 e73f
00000710: 8df5 fbcf 6125 e13f cc5e 0f54 3c4b a5bf
00000720: d2d1 ad1d aed6 dc3f c097 d9ba 49f6 d93f
00000730: 8c91 247c 3014 cabf d2d4 ab37 5206 d03f
00000740: 201b 4840 e350 e13f 88c6 c025 bf0c df3f
00000750: 2013 583f e852 bfbf 4576 c4af 60a7 db3f
00000760: 5ca9 44cd da03 dc3f 27cf 2939 9a30 d33f
00000770: 0bd5 becf 7d18 e23f fa5b c509 7b67 dc3f
00000780: 9a92 c363 7c45 c33f d6b5 d7be 6e16 de3f
00000790: 9973 c54b 22c7 df3f 5ee1 5251 d11e e0bf
000007a0: fdd8 6ebd 654f d13f 71c9 1306 ec5d dbbf
000007b0: 4095 6626 625e b43f 9081 3090 c647 df3f
000007c0: 1359 f126 206e e43f f17e e356 f2a3 e13f
000007d0: 2ee8 4399 b079 c23f 885b 2b54 522b c3bf
000007e0: 9005 1a5c 301c a2bf fc48 4d64 6101 c83f
000007f0: d7f3 31c6 1f7e e23f e07b 6c6a 0902 98bf
-0.25564897928711655 -0.09105650241780266 0.13156817702868256 0.8481883946289488 0.4305252746015953 -0.06510989449074972 0.4746780014938323 0.2910526224913851
0.4508285226472665 0.026472040631475235 0.6710109271347193 0.18909577918063358 0.16112067378624534 0.5860953519917476 0.49626040825613826 -0.12973209828319476
0.5442030431374892 -0.26694623348163965 0.3009324673123185 0.26458132248671523 0.6789563510793365 0.48208768794103196 -0.2263269063704501 0.30791296321340206
-0.23473571215483674 -0.10035894284540248 0.48968535153709 0.8262751764054781 0.10438415042072563 0.037132472043467535 0.3119474800727742 0.5416658689022604
0.17522842879525496 0.19912994762207986 0.7068162169975936 0.19829410857563648 0.6954363180158282 0.5800523002722402 -0.016306620753151452 0.1248114656354512
0.20337942970565115 0.35028570997333314 0.2935591238981477 0.625448714302566 -0.15286635823943562 0.6217816160914553 0.16574642015570135 0.2918414046480768
-0.25959843614889844 -0.17039174393851908 0.8609483322060623 0.2669283611426022 0.11897334971238249 0.2773210466193319 0.6411481763248907 -0.16129614017025146
0.536804495948828 0.14847045511395238 0.09071861268365938 0.49444897797633164 0.9138551852325307 0.3527365567375309 -0.045385598223439044 -0.014453365650416633
0.19053072036124616 -0.04320696242494526 0.4319393577216068 0.48471952982357436 0.3090492584191216 0.12980757105575214 -0.5203951813211166 0.44193010982110426
0.34160090490193806 0.5250366379598335 -0.32052503700841994 -0.2166218463297963 0.507090004858987 0.4481535866460425 0.4275750731354899 -0.023119691257243224
0.634805729612769 0.10050408182462134 -0.16502703913407427 0.6134563195420143 0.13502108335695118 0.20218670636742714 0.5104652055295236 0.6332269329162948
0.3684655517882549 0.3788596172564489 0.4431886087826025 0.27650342214668083 0.45043685305165565 0.6196811911733038 -0.16424821144847782 0.3365206140659497
0.005426878627917686 0.2922163859627863 -0.1299768454769169 0.29237460178967256 0.3856887045780745 0.8145055762577362 0.10729274291785518 0.23778283252770893
0.6437808670288259 0.4392850670475112 0.45018988659167924 0.3490150870024483 0.6792926926051417 0.4067251316416022 0.5044063271986838 -0.17647693261585684
0.29577528799896474 0.009117456121822031 0.18026366841885022 0.0005510445596556002 -0.01754577407273017 0.5474371582149251 0.6946202648049951 0.4301069665751949
-0.5892859011051312 0.6322896346028545 -0.2915589997821925 0.026663383329942447 0.18195541550621502 0.36618854845232823 0.2725902537957477 0.7400709586848453
0.09039783051075448 0.10176654268939578 0.5530100756079427 -0.23158914010264828 0.43669065780139443 0.21607338180405314 0.660541035019607 0.10184617954575675
0.536362605106481 0.16801838073530156 0.11362578915668498 0.2178381287381397 0.349338147809759 -0.022602087880670918 0.890699531000005 0.15401641746649444
-0.06780712549282386 -0.12051289892397882 0.07151857515300214 0.8011894472467063 0.1467823070505359 0.5588285136903639 0.2984898817736943 0.5251334089002743
0.745768407605796 0.2679575902623305 -0.07528443273264906 0.03856563463400381 0.17553045119962263 0.23516077225852786 0.24478365127148924 0.09069835685136435
0.8918607477948235 0.22429098023485428 -0.08266077051392484 0.07933203330315891 0.10374404160546546 0.6290999076063553 0.4584081483186573 0.6084116180876197
0.19167963174191766 0.5096568673074408 -0.4837551106120909 0.3972657350388119 0.41956278664845004 0.36827684378808456 0.17963421332501095 0.15147369553244178
0.4305030241974309 0.6688074896201783 0.08602631649405801 0.5520172106070165 0.5492169571769332 0.33882251690276805 -0.3498595683676508 0.032326761919432706
0.33453617392739066 0.5900835541264382 0.5130543293628846 0.11918131098116347 0.6025358015606328 0.19628179537393042 -0.072066579631209 0.5619581260181925
0.6928459692986724 0.5632361749934642 0.24933033448990513 0.2474196390437338 -0.27173278487592134 0.07421925724097314 -0.0998911038004553 0.40730803327034126
0.5296015688997446 0.22336222753909568 0.12804757592990607 0.6908766842841744 0.4913348346475515 0.405713145864695 -0.35586661327467184 0.6355566747777929
0.08983012179671918 0.23525134993128313 0.23410241666350373 0.5263376449773643 -0.42287930062552387 0.14485956835512992 0.22349442154656354 0.6468366087617916
-0.2569611024546325 0.04740316235334058 -0.3613584194127047 0.41011827086746344 0.476453394984833 0.637113245274292 0.35520363552221446 -0.008104774844094526
-0.25836341584135347 0.7198510322393975 0.5358132421676359 -0.04158962751506365 0.4506030359109704 0.4056572270113712 -0.20374113141691585 0.25038581310884667
0.5411239867688415 0.4851529949838569 -0.12235881372914692 0.43209092297351887 0.43773527188991124 0.29984145719866934 0.5654896791008083 0.44381595567887155
0.15055804129874134 0.47011917721723984 0.4965291728929571 -0.5037619198183554 0.2704710340434671 -0.42760754197583767 0.07956517636792615 0.48875583725932703
0.6384430657006156 0.5512630173725183 0.14433867915778492 -0.1497595702155332 -0.03537131428039253 0.18754212758592093 0.5778960104940961 -0.02344526969966043
