src/experiments/kernel_ABC/vonMises_mean_estimation/results/saved_results/errs_SphereKernel_SphereOptimization_seed4.npy (npy, 240128 bytes, 1 tensors)

array f8 [100, 50, 6]
-0.16235932067122794 0.9235555929773593 0.19006460848743184 0.11179036834557271 0.21002267505824873 0.16708795365499163 0.2438755545044341 0.18038283264169236
-0.3800150574337786 -0.18455335620883087 0.4425605795823966 0.7305159028908162 -0.16639896637961304 0.6927448602497741 -0.2531652503358034 0.3226245902556781
-0.1340692196986497 0.5533905385112582 0.544712705814211 0.3188122815947187 0.6456219724255787 0.26782866662257626 0.22194439201803323 0.25262391950782404
0.220077266952177 0.07688665815677592 0.17009521428171492 0.37516472255141153 -0.3007466892976395 -0.8279601053143946 0.10697985523682674 0.8583918827986874
0.10412699283045679 0.40742888970299385 0.2701181614480936 0.043473148185833976 -0.3569131962576747 0.48820826251379934 0.07840000383385604 0.6586065264519705
-0.049090462966186243 0.43806355212670617 0.043195910970502016 0.7928214378547693 -0.11663584768707064 -0.03451249238983223 0.5760631725427637 0.15134997843378512
0.37466879099971134 0.6605299722186257 0.3279559565985447 0.39237425593264985 -0.36385910317472775 -0.1715121522967198 0.5173449331362279 0.7130138552143152
0.3774304393220473 0.08109331553167656 -0.15999354510189917 0.22211534396637955 0.6596823787056451 -0.31105717526365995 0.44887925648732324 0.10692750508358524
0.3435653199082079 0.3702693735380218 0.568632646977943 0.29689888033171874 0.35420497899271275 0.5096644380226946 0.4506094369218261 -0.015294482837030499
0.47350501490592156 -0.6622504866677794 0.2968589189917107 0.3954771276169613 -0.1421258060892919 -0.26921828003207887 0.007642291228788678 0.026544297687712937
0.4933287856914848 0.48424528598401023 0.1254823888993209 0.7110483439109003 -0.1475307319542547 0.326224256533004 0.09802283623793195 -0.08085587310280307
0.5355388406626647 0.7542076100942334 0.2205146710426201 -0.17091063200246445 0.2959203858214921 0.33189506552845854 -0.6458769381075887 0.5543308072880428
0.10786391000655526 0.47808502264105285 0.40771205363671376 0.4092592392468939 0.503429224395621 0.4154431389581027 0.3138730437910776 -0.41511080998347827
0.35930850465628533 0.5885651590095562 -0.5036196582065692 0.004526762759464231 0.513467726412686 0.04777968867959784 -0.6109329352408278 -0.014720515261273437
-0.11037253034326763 0.5902734724656021 0.4630358009205977 -0.5782464715102645 0.5896421987129377 0.1908134699578696 0.25465966019124664 0.047847497661622086
-0.5165884330278272 0.06023088464162096 0.4852463040145757 0.5041014196557256 0.4296347840088454 0.23511164840154342 0.4008722236914294 -0.13405580318032467
0.1248934314639467 -0.5224122309468058 0.5419485103522904 0.48898804682716657 0.05618361191405141 0.48718231129215717 0.5813690217979819 0.5230689510171705
0.08934515740140653 -0.37404223300695055 0.2909214540771138 0.24530357767956312 0.5059582245309343 0.3266465182119358 0.5560000392025903 0.42817669182042817
0.4073079520059165 -0.012850968780081684 0.30996460164188194 -0.7805995630269398 -0.2944194936719384 -0.2044820282125963 0.35619607682401583 -0.3521789775611947
0.260681541629455 0.037058126048177015 0.32643707533513067 0.7571012085334266 0.4926484329790024 0.04899407297383193 0.2672951686244308 0.5874188190964102
0.09410506334948124 0.5740436537086334 0.5286619153544391 -0.040892002849339894 0.7909113191982914 -0.254010661798992 0.14738157550091352 -0.0840271221330629
-0.01856899051630756 0.6972427976265076 0.31125209238021434 0.37608248522208726 0.03690394917920248 0.5232490863422753 0.9520921586430505 -0.09041309087872892
0.04245971428078693 0.25436890012061064 0.11639591672739957 0.07267495877399072 0.46685938469268656 0.39374041602783616 0.526080793695044 0.4500039538055044
0.280660824233681 -0.26262238161739493 0.5226541807012252 0.10553847657852228 0.5148515009139601 0.3838837797276081 0.5289275982549104 0.15323861483081555
0.20638082749679132 0.18892079553271857 0.7003263801555257 0.4417183400831933 0.2971492941521477 -0.3844956101901848 0.014482554055952557 -0.15243124131224228
0.49973693670883795 -0.054209181714255816 0.7366129976378754 0.42574565926916436 0.02079067148027075 0.2618720057007821 0.6478989012851275 -0.19502206135152017
-0.15825620982705169 0.6694208677665028 -0.3380160360101526 -0.2084538106706375 0.5338752557766271 0.6407976963262496 -0.2811199772500048 0.2599962054252645
0.3260914131143089 0.52578437714541 -0.3853148059486063 -0.49866403753830546 0.004117862127149763 0.46910929230922954 -0.11304239588576775 -0.3057025187490312
0.8153513821139031 0.1946873330478808 0.43608387393432935 0.02964424115670805 -0.41362904039299886 0.6109262679470512 0.48062660694325166 0.4205156059119224
0.148382202085232 0.16052044974638968 0.06988232134371408 0.32005560538194217 0.5850117952540205 0.6360966657473227 0.3487466511749671 0.1554340311849185
-0.15211553396384214 0.2675115243708655 0.0036813907310572214 -0.22188007961092432 0.8839478958962779 0.27325682520018707 -0.2513184448880461 0.6449629655583555
0.6722587118036181 -0.052372741096252284 -0.22526393926313049 0.1241735144635524 -0.03673956203307194 0.5210492108115188 0.08692019788835387 0.4246188384051963
00000000: e8e9 3db2 30c8 c4bf 4a05 7c75 c48d ed3f
00000010: ea4f ca7e 0954 c83f bc51 0d28 4b9e bc3f
00000020: 1e95 65e4 05e2 ca3f f87a 4058 2363 c53f
00000030: f4f8 716d 5037 cf3f 425b 7adf c816 c73f
00000040: dc99 eaac 2a52 d8bf 0959 a4c2 719f c7bf
00000050: 6088 f39b e952 dc3f 8bf7 03e3 6260 e73f
00000060: 6825 58b3 8f4c c5bf fad5 e744 f72a e63f
00000070: 6a42 ab05 dc33 d0bf 7b25 029c e1a5 d43f
00000080: a0c2 0021 2e29 c1bf 394b 1a13 60b5 e13f
00000090: af01 2657 496e e13f 23cc c0a0 6b67 d43f
000000a0: 32b3 2469 efa8 e43f edd0 04d9 1a24 d13f
000000b0: 4ec0 9f80 ac68 cc3f da4c 1e84 fd2a d03f
000000c0: 6c8a 13ec 7d2b cc3f ac36 4812 d8ae b33f
000000d0: e0e5 4513 aec5 c53f 9228 7ee5 b202 d83f
000000e0: fe78 ba0a 6f3f d3bf 30fa d630 a67e eabf
000000f0: 28af 9223 0863 bb3f 16b6 f840 f277 eb3f
00000100: 786f d60c 11a8 ba3f a813 2e9f 5013 da3f
00000110: d769 5eaf 9d49 d13f 08b5 6ccb 1c42 a63f
00000120: b200 5c72 aad7 d6bf 608f 48de cd3e df3f
00000130: f801 79cc 0512 b43f 4e63 81fe 4d13 e53f
00000140: 3075 f899 6222 a9bf f70a 7db5 3b09 dc3f
00000150: 40e3 e041 c61d a63f 00ed 6410 cb5e e93f
00000160: d471 5bcf d8db bdbf 704d 3c14 9fab a1bf
00000170: a109 d008 1c6f e23f facb cfa3 6f5f c33f
00000180: 593d 0bcf 92fa d73f fe9d 96c0 0f23 e53f
00000190: 12a0 07fb 3afd d43f e679 41e9 a81c d93f
000001a0: ab30 1fb1 7749 d7bf d890 7d36 1cf4 c5bf
000001b0: f448 12f6 168e e03f 0db1 b76e 02d1 e63f
000001c0: 7bcc 5900 d227 d83f 8afc 2112 88c2 b43f
000001d0: 2e52 e421 ab7a c4bf 0440 238d 466e cc3f
000001e0: 3339 4938 1e1c e53f 4863 bc5a 5ce8 d3bf
000001f0: 79d0 9d0f 70ba dc3f b57a 60d9 995f bb3f
00000200: f9e9 4265 f9fc d53f f898 8350 7eb2 d73f
00000210: 66a9 c617 3d32 e23f 9899 4f29 6400 d33f
00000220: 0ea9 365c 4bab d63f f1bb a7cb 2b4f e03f
00000230: 3449 b6f6 c8d6 dc3f 8015 c1bc b652 8fbf
00000240: c6d3 60fa e74d de3f 3af1 bfee 2731 e5bf
00000250: 9219 268d bcff d23f 5493 5b4c 7f4f d93f
00000260: 531b 89ac 2d31 c2bf 1148 0e4f df3a d1bf
00000270: 8075 4eee 854d 7f3f e026 dba9 6d2e 9b3f
00000280: b919 2ee6 b292 df3f 8fc8 a2f0 dffd de3f
00000290: eaf4 4592 ce0f c03f e61c df74 e8c0 e63f
000002a0: f000 737a 49e2 c2bf 9827 3eb4 dbe0 d43f
000002b0: 5830 e74b 0618 b93f 4083 aa72 f8b2 b4bf
000002c0: e848 cc59 2223 e13f 3cf8 77ff 7722 e83f
000002d0: bb47 3522 d339 cc3f 97a0 7e4b 66e0 c5bf
000002e0: 35ac d40e 5cf0 d23f 2181 09cd c43d d53f
000002f0: eb34 cd1c 06ab e4bf 20f5 0ef6 13bd e13f
00000300: 7097 e51d f89c bb3f f3d8 3cec f198 de3f
00000310: ef7f 234c f417 da3f 10ae 09aa 4d31 da3f
00000320: a127 d49a 171c e03f 720c cbd1 9e96 da3f
00000330: 126f 8bf6 7e16 d43f 4616 46ee 2c91 dabf
00000340: 2319 2b19 e9fe d63f cc5a b099 86d5 e23f
00000350: 53d6 33f9 a61d e0bf c06d 23a0 a78a 723f
00000360: 89ce 8fde 536e e03f 6478 9550 9476 a83f
00000370: 9713 1d3a c38c e3bf 60fe 041d ca25 8ebf
00000380: 6e7b 33c8 5f41 bcbf adf4 7d31 85e3 e23f
00000390: 4c31 75e9 60a2 dd3f 573f 85be fe80 e2bf
000003a0: 0409 fa50 59de e23f 677b 8d66 936c c83f
000003b0: ae70 0808 584c d03f 7de0 4d9b 777f a83f
000003c0: be15 2b77 e487 e0bf f064 7d1f 95d6 ae3f
000003d0: a6d6 8f83 460e df3f 803b e94c 9921 e03f
000003e0: 5fb0 a2e4 227f db3f 308a 6574 2318 ce3f
000003f0: 7e49 a8f8 e3a7 d93f 16cf 3f95 bd28 c1bf
00000400: 4f74 9f13 04f9 bf3f 404d deda 99b7 e0bf
00000410: 3587 0267 a457 e13f 787c 5085 944b df3f
00000420: 50e8 7b2f 19c4 ac3f e020 8cb7 fe2d df3f
00000430: 7af4 f034 939a e23f 2b7f c518 fbbc e03f
00000440: cc52 1801 53df b63f 4b9c 85d5 4ef0 d7bf
00000450: 72d2 bd04 759e d23f d0dd dc8d 1b66 cf3f
00000460: 3315 704d cf30 e03f 60a4 44cc c6e7 d43f
00000470: 1e65 1e98 c0ca e13f 30ce 1136 3f67 db3f
00000480: 9608 515f 5511 da3f e016 0fd5 9b51 8abf
00000490: 1f0d bec4 75d6 d33f 841f 4fef abfa e8bf
000004a0: 000e 28dc c4d7 d2bf 207c e593 772c cabf
000004b0: b90c 3ba1 eacb d63f fbb2 bdb1 198a d6bf
000004c0: 300a fea1 01af d03f 5c1e db5e 48f9 a23f
000004d0: a40a b154 58e4 d43f 7838 4d50 2c3a e83f
000004e0: 7882 044b 8d87 df3f 0cab 3d4a c015 a93f
000004f0: 22ba e731 5d1b d13f 645e 228d 22cc e23f
00000500: 0a5a 79f9 4417 b83f 2ff5 e4cb 905e e23f
00000510: 31d1 a264 ccea e03f 0dcc cfed cbef a4bf
00000520: a9c5 3f41 254f e93f 66c4 50ef b541 d0bf
00000530: b699 6743 66dd c23f 54db 892d cd82 b5bf
00000540: 40f8 f2db bf03 93bf 3cad a520 d04f e63f
00000550: f269 65e5 8deb d33f 2925 a845 bc11 d83f
00000560: 80c6 a20d 13e5 a23f ff0f 30de 74be e03f
00000570: 5bcc 84f9 8977 ee3f a654 74f4 4f25 b7bf
00000580: 388b 7798 47bd a53f 04cd c87e 9447 d03f
00000590: 406c bb6f 1fcc bd3f ec24 2c7b d39a b23f
000005a0: 497d 452f 06e1 dd3f ccfd 7c00 0b33 d93f
000005b0: 7e2a 7f63 a7d5 e03f de94 2a62 ddcc dc3f
000005c0: 3888 56d1 58f6 d13f 50a3 0f1b cece d0bf
000005d0: 8b57 a742 95b9 e03f acd9 5fd1 9104 bb3f
000005e0: 671a d7da a979 e03f c646 d945 8d91 d83f
000005f0: 049d 0e92 f9ec e03f 7f62 97ab 529d c33f
00000600: a060 4fdc af6a ca3f 4875 2c7f 8e2e c83f
00000610: d468 69de 1269 e63f 9dd8 2c00 1d45 dc3f
00000620: e96d 1a79 7e04 d33f ef3b ce79 939b d8bf
00000630: 8050 4380 07a9 8d3f e491 29ee dd82 c3bf
00000640: af21 f1a1 b0fb df3f c017 364d 4ec1 abbf
00000650: ef38 d56b 5592 e73f bb66 beb8 6a3f db3f
00000660: 7050 4758 264a 953f 1b42 0ecd 82c2 d03f
00000670: 5c49 047a 96bb e43f a26b c09f 7bf6 c8bf
00000680: 084d cc4e bd41 c4bf 7025 ca4f e56b e53f
00000690: 7efa 0b03 0ea2 d5bf 984a c74d 9dae cabf
000006a0: 3489 768f 8115 e13f 2459 a22b 6a81 e43f
000006b0: 50a0 22a5 defd d1bf d1ad d81f c7a3 d03f
000006c0: c045 b584 aede d43f e2ca 12c2 39d3 e03f
000006d0: b9af 8d6e ffa8 d8bf 0ec6 3a91 1cea dfbf
000006e0: c012 a632 e4dd 703f 2df1 2dfb e205 de3f
000006f0: 3c0f 64b1 58f0 bcbf 1c3e 154c a190 d3bf
00000700: 02af 1dc8 5b17 ea3f fd6b 31b8 83eb c83f
00000710: 8019 3756 cce8 db3f e095 2159 0f5b 9e3f
00000720: 967b 4af0 e578 dabf 8732 a33e b58c e33f
00000730: 5828 9a19 96c2 de3f 705b b649 bae9 da3f
00000740: 44dc a120 30fe c23f 88fe ff20 ef8b c43f
00000750: 8064 bdcc cee3 b13f 4515 8181 ca7b d43f
00000760: 0f7d 0ca8 6ab8 e23f 3357 0f65 e75a e43f
00000770: 49b4 5879 dd51 d63f 28f5 4f28 43e5 c33f
00000780: bc4c cb95 8578 c3bf 5d76 1ea8 e81e d13f
00000790: 00e5 6599 6f28 6e3f b609 c802 9166 ccbf
000007a0: c6c2 0719 4d49 ec3f 9d30 e931 0a7d d13f
000007b0: 443f 6bf5 9915 d0bf b889 865f 89a3 e43f
000007c0: 60b9 b4b3 2483 e53f a8a9 6b94 99d0 aabf
000007d0: 2438 0de2 72d5 ccbf b87c a6df d5c9 bf3f
000007e0: 4085 cd22 87cf a2bf be58 0165 6fac e03f
000007f0: 04d6 4aef 6640 b63f 1cd0 0d7e f42c db3f
