src/experiments/kernel_ABC/vonMises_mean_estimation/results/saved_results/errs_EuclideanKernel_EuclideanOptimization_seed4.npy (npy, 240128 bytes, 1 tensors)

array f8 [100, 50, 6]
0	0x3fd1b0b253320604	0.2764097034888382
1	0x3fcd1c2b69ff4c73	0.22742216754577135
2	0x3fc0713b366d255c	0.1284555450204533
3	0x3fe33193646d0028	0.5998017274323546
4	0x3fd8a528e598ff79	0.3850805513538869
5	0x3fe2dbbdbf77f9c5	0.5893238772985617
6	0x3f9c0a9f2c5028f0	0.027384268836649406
7	0xbfd2160bd34ff6a4	-0.28259559284183866
8	0x3fb15d524ec34678	0.06783022330207611
9	0x3fe344dfb5dec478	0.6021574546958979
10	0x3fe27f28caa4dc00	0.5780223806276581
11	0xbfdde33a94b8f133	-0.4669939472548947
12	0x3fbdbd7e967db7f4	0.11617270635699112
13	0xbfb8adf215a2fdec	-0.09640419986953191
14	0x3f9cde38e0df5430	0.028191460347290753
15	0x3fedb52586c72f48	0.9283626205810629
16	0x3fc5a83a7f063d78	0.16919642641412813
17	0x3fd2c2695ada1ef8	0.29311593887585685
18	0x3fb75f1163a2d838	0.09129437143823871
19	0xbfce476072c72142	-0.23655324558627383
20	0x3fd3469dd6f07e43	0.3011850928323591
21	0x3fd6da67ecc50737	0.3570804416850594
22	0x3fe9c7f2e304dbe5	0.8056578096355876
23	0x3fd0bc8441eddcfc	0.2615061420287501
24	0xbfc7f556ef4404f4	-0.1871746700563005
25	0xbfcff264772888d5	-0.2495847303226301
26	0x3fcc9e0aca249a5c	0.22357306356680595
27	0x3fe14f65734b32ea	0.5409419299918146
28	0x3fdf57c125118872	0.4897311079022365
29	0xbfe21bbf4860785f	-0.5658871091470806
30	0xbfbf58141f2e59f0	-0.12243772279030174
31	0x3fe1d3df0ec9d32a	0.5571131981692805
32	0x3fd5e3e8b2871f26	0.34203545984608963
33	0x3fe59483651707d5	0.6743790602124543
34	0x3fc42d2a71c0417a	0.1576283507752228
35	0x3fd1deb1cb5f3e1a	0.2792171941809741
36	0xbfd17b4ca5374bc2	-0.27315059790015195
37	0x3fe6562ff73d540e	0.6980209187410098
38	0x3f7ee7f69197b580	0.007545436057154631
39	0x3fe32cf26d015707	0.5992366913803558
40	0x3fb89eeccc94debc	0.09617500300088982
41	0x3fd0e621b89512a8	0.26404612565628804
42	0x3fe522c4b057b4a6	0.6604941791716967
43	0xbfb001b4e344a37a	-0.0625260405401046
44	0x3fd5bd445aba02d9	0.33967694149036515
45	0xbfe31f6b9038cff5	-0.5975854698976933
46	0x3fa727e6a32dc468	0.045226294917377896
47	0x3fd2b0fb8b52159b	0.29205216031581366
48	0x3fdb4593c535809f	0.4261216569775658
49	0x3fe58829ed56308d	0.672871554897499
50	0x3fce9c1f854b1c58	0.23913949974505289
51	0x3fe00feb96863c12	0.5019433917931357
52	0x3fcbed7384592ddd	0.2181839367134292
53	0x3fb82af4f84dc20c	0.0944054704866703
54	0x3fe363a011721e9a	0.605911287378109
55	0x3fe01c2afa77fa4c	0.5034384624448847
56	0xbfaf680e27cc2c4c	-0.061340753896808126
57	0x3fdca664b59799ac	0.44765584691631477
58	0x3fbe7e5b528cb134	0.11911555066462115
59	0xbfd9af8bc6841ed4	-0.4013394774087662
60	0x3fcaecab7708f404	0.21034758865599212
61	0xbfc8bd3e954f7c58	-0.19327528276969264
62	0xbfddae4fe21ce993	-0.4637641628393336
63	0xbfbb824f6bb464d8	-0.10745712642200844
64	0x3fe516046fc7f368	0.658937662432078
65	0xbfe03d86566c55b8	-0.5075103462174217
66	0x3fb976a2c0e34e88	0.09946648797204649
67	0xbf98d68fd0e5c350	-0.024255988240329984
68	0x3fb038ce1efa3864	0.06336677795681706
69	0x3fc71b2d4447ae60	0.18051687082275958
70	0x3feb3b4e4f2f4e79	0.850989489229007
71	0x3fde9b7901b64d0e	0.478239299461351
72	0x3fb75ed801f16ff4	0.09129095122756309
73	0xbfc79d094e4c87ec	-0.18447986911002034
74	0x3fd1f6d83d54cc72	0.28069120396975855
75	0xbfa8801920144c70	-0.04785231129258072
76	0x3fdb85ba95e9eaef	0.4300371612550142
77	0x3fea9cb7becb243c	0.8316305853305788
78	0xbfcb36fb179156dc	-0.2126153817250075
79	0x3fe1f1165c6499c7	0.5606796078253006
80	0x3fe9033c871d75ac	0.7816450728384345
81	0x3fc43b2fc194534c	0.15805623008841463
82	0xbf97ad71d63f0ac0	-0.023122576428941555
83	0x3fb0032316d93d78	0.06254786784960753
84	0x3fce95a6a21e49d0	0.23894198337491313
85	0x3fd65e194ea3fe83	0.34949333839174573
86	0xbfdbf3b3fde6aaa4	-0.43674945635818063
87	0x3fd15f213aaa554f	0.2714312622932384
88	0x3fe3187fc294bb3f	0.5967406082544143
89	0x3fdca3564466b512	0.4474692981701348
90	0x3fd85fc940ca24e4	0.38084632231819016
91	0xbf5b054dfe060d40	-0.0016492139476163709
92	0xbfd2105aadc8377f	-0.28224818201930896
93	0x3fea2a67b1f32c79	0.817676398809808
94	0x3fd4e213a85fb19d	0.3262986320758275
95	0x3f8e903e8f1b7540	0.014923561804091379
96	0x3fe05c82f3de7b1e	0.5112929118220995
97	0x3fe38003883a2ca2	0.609376684254489
98	0x3fd4238bd12b52f2	0.314669565455275
99	0x3fe01c3461aa9973	0.5034429462000801
100	0xbfacc5b968f1140c	-0.056196016369121166
101	0x3fbb93bbaaf1c460	0.1077229778618558
102	0x3fd5a55ca6414b33	0.338217890127612
103	0x3fe65c2e34824631	0.6987525010646946
104	0x3fd960f65263be73	0.39654310270177645
105	0xbfc14f647e1a71f2	-0.13523536832225563
106	0x3fbd1d8826c7cbf0	0.11373187014378039
107	0x3fdd3fe84d52e916	0.4570255999675664
108	0xbfb6d2734903a668	-0.08914871723723083
109	0x3fdca5f1c00dab87	0.4476284385224791
110	0x3fd9e11be202e047	0.40436455794725074
111	0xbfc01a793c4b3934	-0.12580790943179354
112	0x3fcbcb7a4645ee60	0.21714714461619433
113	0x3fe80e7c7a05cd94	0.7517683394675481
114	0x3fa1695bd8f67c50	0.03400694869491672
115	0x3fdf8aecabe612f2	0.4928542784403326
116	0x3fe26d7356deab82	0.5758606621433133
117	0x3fe44ad5a67cb326	0.6341350795461025
118	0xbf9d87ac94e20360	-0.02883786829670798
119	0x3fc2b1d652c0ef7c	0.14605216065126203
120	0x3fd7887d9733ab8a	0.3677057243900711
121	0x3fe8f7d117e4377c	0.7802510706548982
122	0xbfc01fcbb59e278d	-0.12597032898002816
123	0x3fa083c3ca2d8a78	0.03225528567306396
124	0xbfdcaa075fdff17d	-0.44787773478289933
125	0xbfc91d2059ad1bf8	-0.1962013662216291
126	0xbfb2096725473290	-0.07045597705946194
127	0xbfc034749b82ebd4	-0.1266008147557317
128	0x3fb5cff6f0a582f2	0.08520453810843856
129	0xbfc4458da9d03ba4	-0.15837260047598278
130	0x3facaa539215d300	0.05598698766963217
131	0x3fef154ef8b23ff9	0.9713511330937755
132	0x3f6bd2aaee154fc0	0.0033963526226816476
133	0xbfe05bfa9d2ebb89	-0.5112279005023633
134	0x3fea5179be4a3654	0.8224457470511859
135	0x3fb56b97116484e0	0.08367294478059106
136	0xbfbd4e3c037518f6	-0.11447501263055301
137	0x3fca442ee727ff1f	0.20520578658033004
138	0xbfc44e7b6961ade4	-0.15864508290847745
139	0x3fc396ea2718a744	0.15304304989813933
140	0x3fe8f453a46c3f2d	0.7798250399955343
141	0xbfa014f8ff9df000	-0.031410008624305874
142	0x3fde459e9637fd53	0.472999235818823
143	0x3fd608ac5e654c0d	0.3442793771584441
144	0x3fe41d27370f1d34	0.6285587382671225
145	0xbfe027b333108570	-0.5048461911539288
146	0x3fce1ba421ca37aa	0.23521854066751519
147	0xbfd4793c740bd699	-0.31989966709748213
148	0x3fd6b512168c0709	0.3548016758141875
149	0x3fd080a9c7857c3f	0.25785297855867734
150	0x3fc94b4361f1bf54	0.19760935099065569
151	0x3fe7e15c80368334	0.7462599281462645
152	0x3fda359363b522fb	0.4095200036722841
153	0x3fdd7b50fd98d690	0.4606516338857114
154	0xbfb0d85a982bf434	-0.06580129828576348
155	0xbfc2028880a01862	-0.14070230751548524
156	0xbfc06741562dc900	-0.12815109928084922
157	0x3fd6e99a64b1ec30	0.3580080016469678
158	0x3fc2fb6f5b590938	0.14829818687764784
159	0x3fb3f1e1d4f0d948	0.07790957878828408
160	0x3fdbf1094a17eb8b	0.4365866874283532
161	0x3fe988a9150660a4	0.7979321871416869
162	0xbfd1da0db21c9249	-0.27893392938338885
163	0x3fe6f90566fb4aa5	0.7178980838164831
164	0xbfa35d0916d33318	-0.03781917956948727
165	0xbfd038d84cfbb2f7	-0.25346953885927753
166	0x3fde4f94f30d2394	0.473607289652642
167	0xbfd5e00f5d181fdf	-0.34180053797945037
168	0xbfc8f841333a2b46	-0.19507613183335532
169	0x3fb40252eb2b8635	0.07816045991378291
170	0xbfc38fa4366696e3	-0.15282108932767988
171	0x3fa9373b604e2a20	0.04924951124765564
172	0x3fea779790b13258	0.8270986391085655
173	0xbfdfbd8cc0d08d58	-0.49594420270496675
174	0xbfd5cb14e98ac945	-0.3405201225933932
175	0xbfb45047faaf6457	-0.07934999342195802
176	0x3fb0d13cc5a73d3f	0.06569270921248903
177	0x3fccd06d83c1f52e	0.22511071141699673
178	0xbfec86990fca29c8	-0.8914304073708132
179	0x3fc575ff6651bb09	0.16766350265557886
180	0x3fc0dee513355ef8	0.13180221021570282
181	0x3fdc055fcc036b5f	0.43782801554850964
182	0x3fd70de5acf656fe	0.3602232159695261
183	0x3fcb5ed619bb2786	0.2138316751136779
184	0x3fcc8e9f723d66f2	0.22310250356786515
185	0x3fe8112295427ed8	0.7520916857938245
186	0x3fd210e78669da46	0.2822817623740871
187	0x3fc0a7b79f5fe64c	0.13011832506144783
188	0x3fe0c5d5f580d5fe	0.5241498751626634
189	0xbfc6dd663da46612	-0.17863157281753722
190	0x3fd13b68234cf710	0.26925090262726403
191	0x3fe72b594f8e8b21	0.7240416101306871
192	0x3fe5a7bf669e59a3	0.676727009226671
193	0x3fd563554979d508	0.33418781447774437
194	0x3fb11373a9204730	0.06670306090407219
195	0x3fcfb807eb23e938	0.24780367833575112
196	0x3fd00124fe6c33ca	0.2500698551746693
197	0x3fe1959ee121ee51	0.5495142361755346
198	0xbfc1fd45c4bccd28	-0.14054176431964405
199	0x3fc9af3b51c01738	0.2006601475879337
200	0x3fa71d15a06bdca8	0.045143771965677815
201	0x3fdeb2a1bdb32a5c	0.4796528198755021
202	0xbfb22036d1d30684	-0.07080404875434892
203	0x3fead3c99684650a	0.8383529605663693
204	0xbfdb58fa043bbc60	-0.4273057023373834
205	0x3fe516271ab548eb	0.6589541932719646
206	0xbfc396294521b262	-0.15302005649154454
207	0x3fe02e91de00b24a	0.5056847892752299
208	0x3fd25948200aa211	0.2866993248849506
209	0xbfc2e9412f711ada	-0.1477433663987629
210	0x3fbe8fa55d65236c	0.11937936334756011
211	0x3fd9be43cbd28508	0.4022378435566485
212	0x3fe37d687a6ac21f	0.6090586081464301
213	0xbfd269d78c77e9a7	-0.28771008222215716
214	0xbfe371b30911e21b	-0.6076293160577423
215	0xbfa0462653dfbf36	-0.03178519986965826
216	0x3fd8eca77afe1120	0.38944422732335404
217	0x3fde89174ae527a8	0.47711736978510055
218	0x3fd52fc9edb12367	0.33104179584602494
219	0x3fd4b6d469ef155a	0.3236590418349202
220	0xbfc6658cd28fc910	-0.17497406274157656
221	0x3fe39d61c1dff05c	0.6129616533867295
222	0x3f83d75916825c80	0.009688087462832451
223	0x3fe193b9482417fd	0.5492826851848346
224	0xbf7726dd3eb2e000	-0.005652298200566008
225	0x3fcdd6dad7688606	0.23311934965117603
226	0x3fe6e8af7018d224	0.7159039677995378
227	0x3fd72ffeec457be4	0.36230443070775054
228	0x3fedd35e91100f26	0.9320519288307636
229	0x3fd181e04ce50dff	0.27355201253178046
230	0x3fbfa0fdb96a28f4	0.12355027939534918
231	0x3f989c361cb83590	0.024033399107840803
232	0x3fc82d7b06153a52	0.18888795659082064
233	0x3fb1f63bd27d7d4c	0.0701634777919839
234	0xbfc10c17b809bdd0	-0.13318153845055614
235	0x3fd88d16fd4927f1	0.38361143813074167
236	0x3fbf1595f8eb7b40	0.12142312361855279
237	0x3fde26a82369b698	0.47110942323966176
238	0x3fdc68bff5d21dae	0.4438934231370365
239	0x3fe445a419328a7e	0.6335010997903081
240	0x3fd710c19a8cdc0b	0.3603977212218871
241	0x3fe540ea59663db6	0.6641742464143394
242	0x3fda6f53ed32b2f4	0.41304491199370763
243	0x3fbba103e3580dcc	0.10792564678563749
244	0x3fddf53d22f05e71	0.46809318935399974
245	0xbfc544edad56d1b0	-0.16616602863144925
246	0x3fa2e351af63bcb0	0.03689055696474364
247	0x3fe0a6d346ab3c9f	0.520364416146453
248	0x3f6f91ff6ec00800	0.003853796855765701
249	0x3fd18bcd2182ebdc	0.2741577937373998
250	0x3fc6f33afdd43232	0.17929780382145705
251	0x3fe93502f657b8eb	0.7877211390857871
252	0x3fe118f1b63c14dd	0.5342949446936945
253	0x3fcc197df4cdf095	0.21952795461027522
254	0x3fe332625f449a35	0.599900423116941
255	0x3fcee933a30d9ceb	0.24149175130444375
