src/experiments/kernel_ABC/vonMises_mean_estimation/results/saved_results/errs_SphereKernel_SphereOptimization_seed9.npy (npy, 240128 bytes, 1 tensors)

array f8 [100, 50, 6]
000000 38 3d 50 f4 de 1b c9 3f a4 03 7c 7f 5b 3e bd 3f
       0.19616305283896351 0.11423274862683158
000010 fc 6d 42 f1 ce a4 e0 3f 4c ce 36 0e 53 39 dc 3f
       0.52011820908541 0.440998805886214
000020 1e be e4 2b 03 e8 db 3f f4 99 1f 78 9e 54 e1 3f
       0.4360359123847689 0.5415794702683443
000030 47 ee 73 1b 60 9c d6 3f 40 55 2e e0 c8 77 a6 3f
       0.35329439812605695 0.04388263451179819
000040 4b 86 cf 46 4d a8 d0 3f 72 ff 3d b4 35 7b e8 3f
       0.2602723304281411 0.7650402565341052
000050 2d 9c 46 15 46 f0 dd 3f 78 11 99 ee 57 16 a3 3f
       0.4677901466151891 0.0372798422581892
000060 6e fd b0 d4 5b bc d0 3f 22 a1 51 b7 ee 06 e1 3f
       0.2614965035499698 0.5320962505766469
000070 54 84 b4 d5 9a 1d e6 3f 74 56 82 91 ee 39 af 3f
       0.6911138700417134 0.060988860380501914
000080 ba 2e 41 d9 12 0b d3 bf 65 44 73 1a 17 f1 d1 3f
       -0.29755088058730517 0.2803399809172958
000090 17 b4 a2 d7 50 b0 e4 bf 18 36 5d 9d 20 b0 d3 3f
       -0.6465229236251869 0.3076249634512762
0000a0 2a 0d 03 7b 85 d4 d4 bf e8 6a f8 96 65 a5 c2 3f
       -0.3254712773597982 0.1456725108299317
0000b0 b9 53 0a 81 e2 3c e2 3f 38 d6 6a f8 4a 12 c8 3f
       0.5699322243041173 0.188058253572011
0000c0 55 a2 8c ec 33 5c e5 3f 4c 9e af cb e2 d9 b9 3f
       0.6675052280525714 0.10098092530062636
0000d0 c9 8f 70 e7 fe ed cf 3f 8b 49 d3 e0 61 3b c0 bf
       0.24945055294767673 -0.1268122051029191
0000e0 d0 d9 33 b4 27 61 e1 3f ea 3e 54 5f 6c 76 da 3f
       0.5431097526150612 0.41347798642617184
0000f0 22 37 a4 93 ad c8 d1 bf d0 b8 b5 2c dc 9f d1 bf
       -0.27787341516601505 -0.27538208357044613
000100 b2 3b 76 2e 28 61 d9 3f a0 66 83 a4 ce 4e 9b 3f
       0.3965549901703823 0.026667813101858173
000110 10 eb d8 38 07 d1 e9 3f d9 8f ec ca 02 fb c8 3f
       0.8067661390590235 0.19516024502183774
000120 3a 54 6b 0a 2a 0c d0 3f f4 a1 bd da a7 a2 dd 3f
       0.2507424451590087 0.4630527149334107
000130 7c f6 10 9c e3 87 b2 bf 4e d1 9e c8 bf 9e e5 3f
       -0.07238600311480953 0.6756285589567967
000140 87 f6 30 df e8 bb d9 3f b8 ae 9c a6 cf 2a d4 3f
       0.40209409519216205 0.315112984377929
000150 46 3b 75 08 d0 dd cb 3f ae 47 6c f6 54 a6 d7 3f
       0.21770668423638478 0.3695270925974182
000160 56 9a 61 37 ce 5b d6 3f 45 bc 3e 55 51 61 d1 bf
       0.3493533650238637 -0.2715648014518062
000170 78 19 17 6e 73 24 e5 3f 2c 95 d7 af da 6e db bf
       0.6606995725822307 -0.42864100620348
000180 9c 02 81 f3 4c b7 e3 3f 4a 08 cf 93 b7 0e d9 3f
       0.6161255603729674 0.39152326044507346
000190 00 c7 3c 6d 6d d0 d8 3f 96 6d fe 5e 73 44 d0 3f
       0.3877214018603894 0.2541778972315226
0001a0 a3 63 a5 48 ba d5 c8 3f 84 66 87 f8 57 a4 dd 3f
       0.19402245089693534 0.4631557395019643
0001b0 82 0b ca f5 54 ae d7 3f 65 80 4c b0 e2 63 e9 3f
       0.37001537325721057 0.7934430545174221
0001c0 3e 6f fd 94 90 2e c5 bf 61 34 34 c1 62 fe d3 bf
       -0.16548354411031058 -0.3124014746434281
0001d0 8d 95 4a df 75 a3 b3 3f 03 b4 87 79 d7 81 d4 3f
       0.07671295834969367 0.3204249083344736
0001e0 b0 68 5f 22 0f 95 ae bf 74 25 4f bf 8f 2c d8 3f
       -0.05973098082149997 0.37771981890235584
0001f0 7a 5a 7e 57 a7 86 e8 3f 98 84 f5 ac bf 56 da 3f
       0.7664372166498901 0.4115447224667803
000200 3e 0c 8a a5 70 8f d1 3f a4 9e b6 22 f5 d3 c2 3f
       0.27437988439504923 0.147093431424982
000210 52 f4 a2 8a 49 b1 d6 bf 40 8f 85 b4 c7 1b e1 3f
       -0.3545707563278643 0.5346411252798831
000220 74 e2 69 c7 ee b2 dd 3f 68 28 08 5f f8 1b b9 3f
       0.4640461871527244 0.09808304138292245
000230 63 d1 92 fc 43 b4 e2 3f 34 aa fa 9c 7f e3 c2 3f
       0.5845050747944182 0.14756770291326549
000240 d0 06 60 2d cf 06 a6 bf f9 e6 48 2d f7 bb c7 3f
       -0.04302070073027908 0.18542375289126037
000250 a2 2b 12 66 6a e0 d3 bf f0 1b b8 96 03 76 9b bf
       -0.31057224243039105 -0.02681737525383804
000260 fe e9 b3 70 a5 9b db 3f 49 fb fd ab c0 65 ea 3f
       0.43137489324695355 0.8249209746571547
000270 70 47 8d d0 48 08 b4 3f 30 ba 48 f3 48 31 ea 3f
       0.07825141040419026 0.8185162307398226
000280 a4 39 c3 c2 14 a5 b2 bf 34 6b 99 31 34 c9 c8 3f
       -0.07283143763490912 0.19364025518265182
000290 6b 1c f7 28 fb d4 dd 3f 59 90 c7 34 b7 2a d0 3f
       0.4661243343402421 0.25260715631725855
0002a0 82 e2 ec 10 ef 41 dc 3f 89 94 b0 6e 10 0c d0 3f
       0.44152428295959834 0.2507363396601439
0002b0 8b 73 97 53 a1 06 ca 3f b8 a5 6e ab 6b 84 df 3f
       0.2033273370897429 0.4924573110716568
0002c0 41 17 12 9f 41 64 d6 3f 3a 78 cb cc e0 8b e2 3f
       0.34986916097874504 0.5795749664209844
0002d0 0c 3e 73 77 d7 c9 ca 3f b5 78 1e 46 f8 8c d4 3f
       0.20928471882369626 0.3211041149860521
0002e0 ef 55 86 81 93 5c df 3f 40 5e db 8a f5 01 c1 bf
       0.4900254025354504 -0.13287228851435096
0002f0 a8 69 8f 29 f3 f1 e0 3f 58 dc f3 6b e4 f4 e1 3f
       0.5295348941538593 0.5611440761994215
000300 5c 4b c5 49 36 2a d9 3f d2 48 1e 77 60 de e6 3f
       0.3932014198700722 0.7146456076173087
000310 60 bb 2d a4 4b 81 d1 3f a4 d4 bd c3 d1 22 d3 3f
       0.27351656945295666 0.2990002070940341
000320 a1 d1 9c 0f ef 73 d8 3f 01 43 7c 60 2c 05 c4 3f
       0.3820760395494976 0.1564078780288796
000330 47 a8 d7 26 cc 08 e7 3f 1c eb 94 48 8e 1f d0 3f
       0.7198239096299027 0.25192601287896976
000340 77 73 67 0a 06 b3 d9 3f 56 22 80 e8 57 c5 cb 3f
       0.401551733169803 0.2169599423653092
000350 0f 29 44 4a 5f 4f d2 3f 08 6d d1 a5 c4 ea d6 bf
       0.2860944962746012 -0.3580791110341157
000360 40 ce 41 89 f3 53 7d bf fe a7 9d 5b 7d b4 e5 3f
       -0.00716014033615725 0.6782824315425839
000370 93 ab ff 79 2d 03 cf bf 01 b0 0b 57 65 09 c7 3f
       -0.24228447396248196 0.1799742388751611
000380 4c ec e4 74 90 16 da bf 3c 4b b8 0f 0f 03 e1 3f
       -0.40762721457912643 0.5316233927754648
000390 fc 9d 43 6c 0b 44 bf 3f a8 0b f8 b6 14 c7 d3 3f
       0.12213202851454946 0.309025934868425
0003a0 fa 2e 01 56 13 e3 d8 bf f9 4c ba 56 ec 37 dc 3f
       -0.3888595905197999 0.4409132811499173
0003b0 85 b2 97 51 0d 2a c7 bf 11 94 e3 75 38 e1 e6 3f
       -0.1809708259965143 0.7149927427786925
0003c0 cf c1 29 90 a0 13 e3 3f 19 cd 77 5d 4f 16 e4 3f
       0.5961458984075366 0.6277233911081651
0003d0 0b 8e ae 3e 80 73 b4 3f bd d9 e0 14 0e 2b c9 3f
       0.07988740473097537 0.1966264345116552
0003e0 f7 74 a7 ec 81 3a db 3f bb 56 06 f2 37 0b c4 3f
       0.42544601546053634 0.15659236257186201
0003f0 57 d5 5f 3e 11 75 dc 3f c8 98 ef f0 61 95 e1 3f
       0.4446452244877341 0.5494851785449777
000400 b8 86 0e d6 6d 78 d3 3f ee f6 b7 61 29 72 e2 3f
       0.3042254057309992 0.5764357479635842
000410 9f 6c 87 46 fe ca c2 3f 9c 3c 00 ce 70 bb cd 3f
       0.14681986278342138 0.23228273447646053
000420 02 b6 91 7c 63 57 d4 3f 00 0c 19 5c 35 3e e8 3f
       0.3178337780471737 0.7575938032899785
000430 80 01 3d 95 ab be 89 3f 18 36 f3 7e 6b 28 d4 3f
       0.01257070588292275 0.31496703526940584
000440 6b 44 fb b6 c1 55 d6 3f fc 8b bf 0b 38 a0 d4 3f
       0.34898417348183014 0.32227898738182126
000450 f6 95 57 8e 61 1b d2 3f 98 71 a4 2d 4f 61 d0 3f
       0.2829212083873637 0.25593928773175767
000460 f4 16 32 40 00 fb b3 3f 9a bd 18 2c 63 f4 e7 3f
       0.07804872100140497 0.7485824452650605
000470 f9 39 0c f2 90 8b e0 3f 1e e9 53 84 68 63 c2 3f
       0.5170368888373665 0.14365869962041072
000480 27 a3 42 f2 27 01 d5 bf e3 6a 34 1a 56 73 de 3f
       -0.32819555910332315 0.4757895713716335
000490 60 44 d7 24 44 cb d9 3f 06 34 e0 85 1b ab c9 bf
       0.4030313834928787 -0.20053428685096736
0004a0 7c ee ec 1a f1 88 b7 bf 1f fb f2 9b 79 94 e5 3f
       -0.09193331630097562 0.6743743940240597
0004b0 5a fa 11 6d fe 81 e7 3f a3 fa 54 cb 32 39 b1 bf
       0.7346183901098116 -0.06727902855070993
0004c0 56 4d df 15 0e d3 d4 3f 62 30 4a 17 06 f2 ce bf
       0.3253817761989998 -0.2417609800071459
0004d0 0c d6 c4 0a e8 01 c0 bf 44 38 98 98 81 ce e0 3f
       -0.12505817914795647 0.5252082805980156
0004e0 e0 02 8c 30 ec 7a 9c 3f 00 d6 9e 83 74 a6 a1 3f
       0.02781266256625059 0.034473076884221854
0004f0 3c c0 6e 32 ef c2 ed 3f e3 f3 a9 e6 c1 75 c6 3f
       0.930045698643887 0.1754686714447465
000500 a5 b2 39 dd 5d 4c d4 3f 48 77 f0 13 11 d1 a4 bf
       0.3171610508350489 -0.040657552417754206
000510 9b c7 5e 53 cc c0 da 3f 87 24 db 28 db dd d4 3f
       0.418017465034717 0.32604102125021267
000520 c0 20 d6 30 97 57 e8 3f 3c 7c a4 a7 6c 5c 98 3f
       0.7606922105633416 0.023790071231925433
000530 a4 5a 1e ad d9 1f 86 bf 32 1d 42 91 13 ea d7 bf
       -0.010802937122020247 -0.37366189179779774
000540 ec cb a5 11 d6 35 e2 3f d8 bc b7 e9 7a 31 df 3f
       0.5690718025856518 0.48739502738949403
000550 8a a6 17 e3 b3 a6 dd 3f 33 7c 36 db 48 bc ca bf
       0.4632997243594238 -0.2088709898352775
000560 ab 50 bd ba 24 b6 cc bf f9 c2 87 71 ae 13 d7 3f
       -0.22430857771053545 0.36057625853486247
000570 94 34 40 a4 f2 05 e8 3f f1 4f 7b d0 bc ff d0 3f
       0.7507260520957453 0.26560898170032404
000580 a3 03 40 27 28 27 d5 bf 09 fa dd b5 03 b0 da 3f
       -0.3305149443913768 0.41699307213266984
000590 1d 00 a5 fb d2 0f b9 3f 6e cd ac c1 5d 4f d1 3f
       0.09789770740189892 0.27046913064551503
0005a0 a0 c2 b5 73 14 fb c0 3f 24 5e e9 22 ee c9 e5 3f
       0.13266235017683403 0.6808996850840612
0005b0 b0 52 2f 08 63 3f e2 3f 60 aa 26 eb 11 a9 a3 bf
       0.5702376518116434 -0.038399276690445516
0005c0 f1 84 b6 ba 1a bd d9 3f c8 5b 1a 8b 1c 4e c6 3f
       0.4021670173043069 0.17425877372872223
0005d0 2a 57 81 37 16 a2 e5 3f 14 ff 79 89 13 48 c1 bf
       0.6760359844290396 -0.13501209461900798
0005e0 15 da 62 ea 2d 35 c3 3f b6 8e 36 f4 99 54 dd 3f
       0.15006040520320654 0.45828865860878965
0005f0 08 f8 11 11 78 f7 e0 3f 34 5e cd fe 27 f2 ba 3f
       0.5302086194421927 0.10525751086003582
000600 18 99 cb d6 49 75 c0 bf ef 6d 18 c6 3f a4 ca bf
       -0.12857935894062034 -0.20813748524311346
000610 a5 a7 d3 6a 0e 8e eb bf 4e e0 3a 4d 21 ae da 3f
       -0.8610908590755925 0.41687805692663893
000620 14 5a 59 ef 33 52 b1 3f ad 33 71 18 09 3d c2 3f
       0.06766056626779743 0.14248765653101483
000630 5c 33 a6 42 ab 65 c3 3f e1 57 fe 16 a8 b6 d7 3f
       0.15154019121510032 0.37052347417318116
000640 1e 31 d0 84 6f 7b e4 3f 9c d3 87 50 fc 5b df 3f
       0.6400678247460154 0.48998935570062385
000650 d8 c5 ec 75 b9 9b d5 bf 3a 67 6e de a3 a3 d1 3f
       -0.33762966648199955 0.2756127998523997
000660 d0 79 55 29 19 69 c7 bf f4 1c 30 79 88 3c ce bf
       -0.18289484518295618 -0.2362223235834119
000670 22 c6 b4 4a ac 44 b5 3f c0 63 ab 0e 40 96 81 bf
       0.08307911704903195 -0.008587360809018452
000680 ac 1e 5f ec 76 09 b6 3f d1 04 ee d1 d5 4b ee 3f
       0.08608191748418886 0.9467572307768483
000690 e0 2b 18 9b a6 40 ae bf ee 85 2f cc ac a4 d7 bf
       -0.059086996490883115 -0.36942596378329895
0006a0 33 4c 08 e8 49 3f e5 3f c6 ad e9 0c 12 f9 b1 3f
       0.6639756709940968 0.07020676436666581
0006b0 25 af 9e b8 2b 6e e2 3f e8 ab b6 9e 76 62 d2 bf
       0.5759485822540894 -0.28725972651835585
0006c0 40 1b 31 16 50 6c e1 3f 54 61 d9 23 9d 31 db 3f
       0.544471782058146 0.4249031877602836
0006d0 f6 97 9a b4 de da c4 bf c4 da 70 8f 46 f7 d0 3f
       -0.1629293805937661 0.26509250648397775
0006e0 1b 4d 07 98 71 58 df 3f 06 b8 13 63 d8 9f db 3f
       0.4897731766370314 0.43163118052950755
0006f0 a7 a5 34 85 5e 19 d3 bf fa 1e c3 f4 3c b0 ec 3f
       -0.29842341431011693 0.8965134411346007
000700 f0 23 bf 5c 5a aa cc bf dc 0a 5a cd 7e fb bb 3f
       -0.22394876030583033 0.10930626405210425
000710 f8 89 33 cb da d7 c1 3f e6 be eb 36 ff 7f c4 3f
       0.13939986154498718 0.1601561563652389
000720 38 a4 69 61 e9 2a e1 3f 8d 75 b0 77 8b cd e3 3f
       0.5364882376280837 0.6188409173661725
000730 9e a6 0f 34 d9 80 c1 3f 17 ed 73 86 78 e5 d9 3f
       0.1367446426586882 0.404630786229704
000740 e0 ed 35 ce 49 01 d5 3f ba 1a 93 51 8c 4c c9 3f
       0.32820363176116807 0.19764856322418273
000750 30 61 be d2 62 17 cb 3f 94 f8 43 ab 15 4f e4 3f
       0.21165118494241986 0.634653887274697
000760 88 56 5a 61 78 46 af 3f 50 cf a7 f8 52 36 e4 3f
       0.06108452022924121 0.6316313606789468
000770 8d 28 c1 2a f8 af d4 3f 2d 14 ff 8e 0f 38 cb 3f
       0.3232403199696215 0.21264833910223171
000780 59 02 bf 20 84 8c e5 3f 7f eb 53 0c 83 a3 bc 3f
       0.6734028472493022 0.11186999369594551
000790 4c aa 06 48 b2 ef d9 3f 04 f7 e5 0a 65 43 cb 3f
       0.4052549079303034 0.21299422294753623
0007a0 6f 99 fc 3c 61 36 e2 3f bc e6 bc 20 de d0 96 bf
       0.5691381636759568 -0.022281141994631368
0007b0 62 8c 5d 98 76 2f dc 3f 8c b0 cc ae af be dd 3f
       0.4403969276374423 0.4647635657336273
0007c0 81 a0 fa 68 2a 71 d1 3f 8f 7c e6 69 f8 e3 d3 3f
       0.2725320840058956 0.31078920690374273
0007d0 68 d2 a0 f7 48 c0 be bf 5a dc ae e8 b4 5b e4 3f
       -0.12012153668985948 0.6361946625319306
0007e0 ab 36 0c 52 98 28 dc 3f 3c 27 ce 02 62 d6 c0 3f
       0.4399777222869072 0.13154244553543915
0007f0 16 16 24 0f 78 cf d1 3f d8 4c 17 2c d6 d3 c8 3f
       0.2782879016743619 0.19396474030381827
