src/experiments/kernel_ABC/vonMises_mean_estimation/results/saved_results/errs_SphereKernel_EuclideanOptimization_seed4.npy (npy, 240128 bytes, 1 tensors)

array f8 [100, 50, 6]
00000000: 4e55 464c c261 d23f 1540 5fd0 9c0b dc3f
00000010: f741 e5fe f5f4 d0bf b568 7d17 94d5 d73f
00000020: a9a9 b774 41fc dc3f 1197 6d00 dbdb e13f
00000030: 70fb d7aa 573d e23f 94e4 d7f4 28b3 bc3f
00000040: ab10 8095 cfcc e13f b538 8bfa 3923 df3f
00000050: 7aef 00d0 45ae 9e3f b03e 9764 c2c0 d5bf
00000060: a8ad 9019 29e7 c93f c5fc 4621 9085 cd3f
00000070: 0835 3a51 0609 b33f b8b9 be13 9457 e73f
00000080: 13da 9bf5 7dcd d63f bad7 7cb0 b46f df3f
00000090: 2ca4 97bd 4d4c b43f 80aa 0713 840e c63f
000000a0: 0068 e10e a252 e93f 99ce 6b01 a49c d73f
000000b0: 2281 3f00 2ddc b03f 8c99 7ff1 636e dcbf
000000c0: ce45 672e 56c6 e63f c91e 577f f43e d43f
000000d0: 3b1d b999 fb6f ad3f fafa 5935 a7eb 9abf
000000e0: e50e f876 db1e de3f 323a f8e9 7a39 da3f
000000f0: bd37 3763 da33 da3f 806d fdcf 5be3 b3bf
00000100: cad9 7af6 81d7 e23f 074b 1c8d d0f5 d43f
00000110: a587 2d97 d05d dd3f 9942 f577 12bf d93f
00000120: 1e56 c1cc a8fa c83f 6fcd 7aed 0a77 d7bf
00000130: 40e5 d0e8 5d5a d03f 69d7 2a5b 72be ce3f
00000140: 4f64 b7ee cef1 e03f cc05 5c16 f5d6 e43f
00000150: 4574 50e1 d846 dc3f 5006 63e0 cd24 a43f
00000160: 4d81 7b3f e693 de3f ba7d aded 1ddc e43f
00000170: 8b44 1166 6f56 d53f 0016 b68b 703c c93f
00000180: e0fb b808 f364 9abf 1cb8 7951 6d34 e13f
00000190: 942a 7d2b d761 df3f a073 51ce 926e a4bf
000001a0: 2c3c 351c 330d e33f f8a2 8e7c 9795 d53f
000001b0: b812 d668 04dd e43f e871 6f8c 0365 d0bf
000001c0: cbc3 f53e e5a7 d53f 5af0 3c16 1125 d23f
000001d0: 3bd6 b972 9cfa d83f ab9d a01b 4ec4 d9bf
000001e0: 60ee b7e4 fa63 c3bf 8704 ad5d 14d8 d23f
000001f0: 9dae 9b31 8a86 dd3f 5baf 1ff6 5d7e d33f
00000200: 99ba d0bc 8828 e83f b052 7e4b 4519 bf3f
00000210: 0271 ef91 59b9 e33f fef4 09c6 8e68 c63f
00000220: 9750 24c0 83fb d43f 48a4 3d44 23d2 d83f
00000230: a176 8189 68c4 e13f 947e f3b6 3385 c33f
00000240: 2033 9e3f 14d3 b5bf e5e4 4199 1353 db3f
00000250: b380 84cc 1eb2 db3f c03a 65cd 9839 96bf
00000260: b0f4 9e35 4802 e13f 643f bec6 b5a9 e23f
00000270: 181c fb70 173a c13f 4c8b 2688 d8d7 db3f
00000280: c9ac a0ef 6da8 d03f 0eae 9cd0 76ad d13f
00000290: 2e4b 52a5 2fa2 e83f 10e0 f688 6947 ce3f
000002a0: f4c5 7362 da8a ca3f c099 5432 bca9 7b3f
000002b0: cfd7 4218 ba1b df3f 9db6 e232 34cb e53f
000002c0: cb5c 904a 4cb7 d33f 269d c31e fdc0 d93f
000002d0: aa11 272c 15ac d03f 9c9e 2ef7 d045 bcbf
000002e0: 3887 3d9f f8a0 c43f 7413 6bf2 1e37 d93f
000002f0: 0059 76f5 04a1 99bf 9ecf 266a ff7d eb3f
00000300: ec57 db9a 0a11 b4bf 8a49 bdb2 23c2 e73f
00000310: 5bca a6d8 56ff c43f aeeb 896f f5da dcbf
00000320: 645c 2840 a77e dd3f 8020 d5bc 5f97 79bf
00000330: c04e e038 5ddc d33f a3e8 1efe b7ff d2bf
00000340: 2827 e659 468f de3f 709e aa51 08d2 e63f
00000350: 4b6f cfff fbfc d13f 80d5 57c6 8f11 583f
00000360: 403a 2e40 3b4f a6bf d088 b713 b38f e43f
00000370: b164 d464 8cfd de3f 5c1d 28df 44f2 d53f
00000380: d90e 13e7 81e6 de3f 8084 edf3 a99f 73bf
00000390: cad1 7122 537f da3f 4e7b 13ff 5662 c13f
000003a0: 35b0 f6fb ead2 b53f d253 a7dc ea25 ec3f
000003b0: 288d 364e 522d b0bf f879 7c6d d84a c4bf
000003c0: 1ceb 351d 799a e13f df98 0009 5bf3 b0bf
000003d0: 1dca 5f91 7593 ea3f 187b 14ee d9b2 59bf
000003e0: ae4d f0a7 cb4b ac3f a55f caf3 c6bd 8d3f
000003f0: 2eee 07e1 981f ec3f 1d7b 7c94 7ed0 d73f
00000400: 1d98 68fc f7c6 c1bf a94d a39d 3979 ccbf
00000410: de5c 267c 6269 bebf e8bd a7e9 8d3c b43f
00000420: 7c37 23a6 2f99 d43f 1f75 c38b 14e6 e53f
00000430: 30fc c103 28fa a53f 7310 000a 9a76 e13f
00000440: 5882 9e4d 4323 d63f e4f3 5322 c6f9 b73f
00000450: 205f e2b1 9105 c03f a8c5 e3ae 0f00 b4bf
00000460: 14c7 acdb f20a ba3f 0bd5 7ea3 db56 d93f
00000470: c29b 5444 13fd e03f ce13 fc70 a747 e73f
00000480: 5491 3aa1 fbeb d53f 9774 57b2 1471 ca3f
00000490: ea4f b179 ab0e d83f ecab 74b9 c06d e93f
000004a0: b7d2 7281 43c1 c23f 47fe 6bab 1e61 cb3f
000004b0: 7c4c c9e1 e387 df3f 1efa bc32 8b06 a7bf
000004c0: e4f0 2543 45f2 bebf 9c16 f9e9 c414 dc3f
000004d0: 536d 0693 bc25 d1bf 8b6e 3036 e615 e63f
000004e0: 2eb9 a65e cb18 d43f 106c cfdc 105e 9d3f
000004f0: 342a c330 01b2 dbbf 8c4d 8072 82da e43f
00000500: 64c1 3d4a 484a df3f d851 374e 8b81 cc3f
00000510: 5862 6f39 88c9 adbf b11c 8136 d07b c4bf
00000520: 36c9 4ce6 dbce d1bf e371 6c94 677c e73f
00000530: 3807 6edd 6a92 dcbf f0e7 3ca1 253f d93f
00000540: 64f0 12f9 e8bc de3f 6247 4052 5b27 aebf
00000550: 59eb 09f3 69dc e23f d34c 84b3 156d d63f
00000560: 9017 dc47 1558 e1bf de4a 786e 1d5f a6bf
00000570: 78b3 53d5 725a c73f 1416 dab4 52e1 b43f
00000580: 4c10 90c3 90a6 d43f 00ea 3f8e 3518 5ebf
00000590: ca13 30e5 cb18 e63f 9009 3bcf ddb3 e33f
000005a0: d8ee 95c9 99fd babf a5e2 7136 e23b e83f
000005b0: 0468 2ff5 ea94 d53f 3c14 6c28 db09 de3f
000005c0: fe21 3ed0 0b16 d2bf 48f2 5404 10b0 a33f
000005d0: 6085 aec5 27a8 823f 495f 8832 1a11 d5bf
000005e0: a6f2 e9d2 9fe8 cf3f b392 3863 a84f c23f
000005f0: 167e 5831 480e d0bf 04cf b762 9ba3 eb3f
00000600: 808e e3a8 1a65 853f 52a5 716b 605a c73f
00000610: f2fe fd7d 7c08 e13f 4ef8 454e 4108 cd3f
00000620: 2ea0 91b5 0c52 e93f e443 8939 a854 b3bf
00000630: 9412 b218 8b8d c53f 50f5 b4d5 5cf3 d83f
00000640: af49 6ad3 cb0a d53f 361c 1101 0f11 c73f
00000650: bca9 54ae 9c82 db3f e501 a921 6d7f e63f
00000660: a0ea 0ea4 40d7 a63f b6dd b53d bcb6 c13f
00000670: 48ab 0e92 4052 e73f 89b2 a39a 791f db3f
00000680: 0cac 35cc f0e2 d53f 8832 ba01 65e1 d83f
00000690: 4870 3b20 4956 a9bf 5829 8c05 664d c53f
000006a0: 32b9 a103 ba2e c1bf fce9 43d2 9f41 b8bf
000006b0: d062 096f 7828 cabf 0046 0270 4e60 ee3f
000006c0: bca9 c5c1 0b30 c4bf 3c9f 7519 5b80 de3f
000006d0: 48d1 59ed c6d8 b73f 4a29 75c2 a667 d63f
000006e0: 3e83 b920 07b2 e63f 0591 ba9e a794 d53f
000006f0: a929 0330 fd49 e63f fce7 4e40 1510 d13f
00000700: 944e 717d 684a bbbf 28fd 2794 fa21 c63f
00000710: 2d78 208a 8494 d93f cf58 af96 5288 df3f
00000720: 8955 3061 6fbc d73f b4f2 e6d9 bdb3 e93f
00000730: 5b96 d917 002d d43f e449 f47a bb2b d1bf
00000740: 1d51 63b3 e0bd ca3f a6e9 daa0 ceab a83f
00000750: 7c8f 559e 5494 d33f 9667 d830 abc8 d53f
00000760: 905b d5b7 6d00 db3f 86c4 852f a16d e2bf
00000770: 5623 504f 0e58 d9bf 6096 7b22 a58b d63f
00000780: 3aa6 ce59 81cd d13f 5a70 9072 a2b9 e23f
00000790: aea9 d851 a6c5 e43f d897 91b9 444d a9bf
000007a0: 3eed 449c e207 d93f b057 c445 2bf3 ad3f
000007b0: c0d9 5be9 d844 a5bf c75e a571 b681 d23f
000007c0: 8f20 0be4 43ec e13f 2263 7b94 f6e5 c73f
000007d0: b838 b2c9 00f5 e73f a0a7 678d f01a b33f
000007e0: e048 d932 987d 9dbf 163f 2f79 44af c93f
000007f0: 1e5b 6706 6625 e23f 221b 8768 f3c1 e23f
0.28721673439698214 0.438208774078704 -0.2649512280668484 0.3724107961076116 0.4528964652842214 0.5580878265725194 0.5699880921164162 0.112108764435009
0.5562513275076716 0.48652505366488735 0.029961672611747293 -0.3398900968868288 0.20236696003244714 0.2306385195242681 0.07435645564165239 0.7294407258648823
0.3562922380946542 0.49119298205493644 0.07928930166930631 0.17231799058147956 0.7913370409617073 0.3689355863454949 0.06585961586052183 -0.4442376955397769
0.7117110163036899 0.3163424724157094 0.057494986071612485 -0.026289570456806445 0.47063337915481745 0.409758308874106 0.40941486062080995 -0.07768796756629648
0.5888070882854717 0.32750333576511576 0.45885100139104856 0.4022871180978114 0.195149517038474 -0.366640788949744 0.2555155538171512 0.24018697215586407
0.5295176184109865 0.6512399136265059 0.4418241691908558 0.03934329380127777 0.47777706336457443 0.6518697397368023 0.3334005829575026 0.19715697118606101
-0.02577571621645436 0.5376497832601248 0.49034671065297997 -0.03990610855610233 0.5953612852989685 0.3372553554896025 0.6519796416838153 -0.2561653968275821
0.3383725275844511 0.2835123746078857 0.3902960892076838 -0.40260651300419664 -0.15148864906210502 0.29443844936401614 0.4613366589025903 0.3045878318359791
0.7549480140495063 0.12147935002424037 0.6163757181452925 0.17506584806316278 0.3278512359986591 0.3878257910169549 0.5552256284388087 0.1525025027576602
-0.08525206139729535 0.42694559065382826 0.4327466008417204 -0.0217040896762295 0.5315285727771393 0.5832165605261079 0.1345853139557398 0.4350491838069288
0.26028011704574944 0.27621240970867766 0.7697981099066504 0.23655432880127636 0.20736245925176855 0.006753668921453515 0.4860673176693781 0.6810551637515406
0.30806262284881986 0.402404098551829 0.2605030947854866 -0.11044031176299501 0.16116245055587242 0.3939893119207263 -0.025028302652196466 0.8591305802606148
-0.07838503151592108 0.7424486628536198 0.1640423353070045 -0.45086418049293797 0.46085530534168684 -0.006247877097230625 0.310324960272947 -0.29685783211210487
0.4774948003692878 0.7131387324379386 0.2810659406802542 0.0014690307665408964 -0.04357323797659207 0.6425414452644649 0.4842253670372641 0.3429119281067494
0.48281905713905143 -0.0047909392149857455 0.41402128566485585 0.13581359343421656 0.08524960185485571 0.8796285924569196 -0.06319155129908849 -0.1585341009712946
0.5501065798301599 -0.06621331186088096 0.8305003966655168 -0.001568520376458776 0.05526577401192455 0.01452212745179777 0.8788570780884066 0.37210049152956676
-0.13888454270016917 -0.22244949528849858 -0.11879554301264103 0.0790489860007636 0.3218497393071329 0.6843359689479803 0.04292416616316819 0.5457277484242823
0.345902276802041 0.09365499818882445 0.12516995607142523 -0.07812593478936114 0.10172956336171196 0.39592638937331576 0.5308929762439833 0.7274968344432808
0.342528254938107 0.20657595356070566 0.3758953750996158 0.794647562235125 0.14652293987969298 0.21390136118133027 0.492669077391106 -0.04497179979670228
-0.12088425530777475 0.4387676510708418 -0.267928260401921 0.6901732500441126 0.3140133308724157 0.028679145314395582 -0.4327395416445683 0.65167353023064
0.4889088368427308 0.22270337409157892 -0.05817819310295097 -0.16002848302216457 -0.2782506703398612 0.7339361094378173 -0.446436611404454 0.39447918649568603
0.4802801544535724 -0.05889401797334305 0.5894059893465552 0.35040800600945693 -0.5420023349295082 -0.04369441960820607 0.1824477712283643 0.08156315722779822
0.3226663503448932 -0.0018368266109961562 0.6905269123386628 0.6157063529465621 -0.10543214007878576 0.7573100150467168 0.3372142214190037 0.4693515677211655
-0.2825955899830034 0.038452625778948646 0.00910979339625112 -0.3291688436015546 0.24928663061645756 0.14305596203589274 -0.2508717042819354 0.8637215545736301
0.010446747092323294 0.1824455761555251 0.5322859249863241 0.2268144256776758 0.7912658258692369 -0.07551051525776092 0.16838206010665557 0.389853676508058
0.3287839474297937 0.18020808746425282 0.4298469259689701 0.7030549676347247 0.04461099627174758 0.1383891393013365 0.7287905552560483 0.42379608251102546
0.3419763559565474 0.388756992041444 -0.049486432251541645 0.1664245154464179 -0.1342384832127635 -0.09475134738378438 -0.204360059945222 0.949256151931138
-0.15771624528436046 0.476584219801669 0.09315150541971662 0.3500763796806906 0.7092319144395345 0.33719816685540166 0.6965318620435045 0.26660662918186495
-0.10660412848056416 0.1729119513911226 0.3996898030180798 0.49269547190978086 0.3708761643514085 0.8031911140347661 0.3152466042432473 -0.268294210503113
0.2089196086805111 0.04818578446925707 0.30592837774587855 0.3403728463177854 0.4219011588333439 -0.5758825233625806 -0.3959995054761313 0.35227325789887765
0.2781680466674491 0.585160468824607 0.6491271589814482 -0.049417636539871246 0.39110627422970257 0.05849585749289987 -0.04154088829629954 0.2891670331787108
0.5600909666036545 0.1867054200181651 0.7486576022509075 0.07462981655376533 -0.02879941759449245 0.20066123883452097 0.567065250880521 0.5861756364400643
