src/experiments/kernel_ABC/vonMises_mean_estimation/results/saved_results/errs_SphereKernel_SphereOptimization_seed7.npy (npy, 240128 bytes, 1 tensors)

array f8 [100, 50, 6]
000000 40 da 8e 52 73 88 98 3f ff b4 2a b7 a9 15 e7 3f
       0.023958017267171394 0.7213944032170331
000010 20 34 36 92 9b 1c 90 3f 91 f6 38 19 93 c6 e2 3f
       0.015734129714065515 0.586740063917846
000020 ac 69 88 f7 88 bf b4 3f f4 0c 99 d9 8a e3 d6 3f
       0.08104759257586264 0.35763808488645954
000030 74 08 1a b3 3a 25 cb 3f 80 5a 86 15 57 25 63 3f
       0.21207364793014316 0.002337141119095165
000040 5a 57 dd e5 e3 3a e6 3f 79 7f 18 4a f4 51 c8 3f
       0.6946887483161206 0.19000104539827214
000050 c0 5f ae c1 62 42 9e bf 5f 35 3e 0e b7 1d e5 3f
       -0.029550116607054866 0.6598773267921095
000060 10 4b 04 c6 e3 3d ac 3f e7 5d c6 84 71 cc e3 3f
       0.055159681245774306 0.6187064736613451
000070 56 91 dc 49 9a 60 e0 3f 54 41 a2 8b 85 80 c6 3f
       0.5117923205003005 0.17579716985756966
000080 3a 92 da 42 f3 a0 de 3f ab 29 d3 f8 3c 70 d3 3f
       0.478573622977169 0.30372547435095026
000090 3a 54 17 a2 e6 d9 d8 3f 22 49 2e 22 76 ae a1 bf
       0.3882996161385709 -0.03453416030164848
0000a0 22 29 0f ba 5f be d5 3f 02 42 a3 e0 5b 24 d4 bf
       0.33974450273366774 -0.31471917092588353
0000b0 53 5f 2a 29 b0 47 c8 3f 43 f5 dd 9e a6 bc e8 3f
       0.1896877480510236 0.7730286696311527
0000c0 90 2d bf b5 87 10 a1 3f 3c 37 a1 a0 f7 0f ea 3f
       0.03332923978413327 0.8144491326617991
0000d0 0c c3 a4 3d 5c c6 ba 3f da 49 0a 1b 6f f5 d9 3f
       0.10458923821421368 0.40560510292666907
0000e0 b0 fd 2f 35 37 77 bd bf d0 1d 01 4b 2f 86 d8 3f
       -0.11510033653757179 0.3831899864639725
0000f0 00 f6 4c 1a a4 0c 5f bf ac 7d 42 03 63 62 e9 3f
       -0.0018951036992825854 0.7932601035753826
000100 be 94 4c 60 28 95 c1 3f b5 8d 8b a1 46 79 cf 3f
       0.13736443235499068 0.24588854682870723
000110 07 ee c9 07 fe 07 db 3f cd 00 e3 c4 80 83 d5 bf
       0.42236281166671613 -0.3361513064119322
000120 03 9d ed 7b ff 12 d4 3f 68 98 55 13 9d fa d5 bf
       0.3136595449672798 -0.3434212387859419
000130 d4 f4 8e a5 c0 fd dc 3f d2 41 43 11 36 cc ba bf
       0.4529878250867345 -0.1046785156388588
000140 99 ca 08 92 20 02 e5 3f 2f 00 72 54 90 a5 d7 3f
       0.6565096714242201 0.3694802117024691
000150 64 d5 63 84 f7 14 df 3f a2 f3 25 a4 3f 1c da 3f
       0.4856547158118103 0.4079741576204531
000160 58 d4 64 87 a4 ef d7 3f b0 9b 09 18 43 a7 96 bf
       0.3740016290860857 -0.022122429220327866
000170 12 7e 4b 80 a5 15 db 3f c2 71 d3 7a 08 e1 e0 3f
       0.4231961968307313 0.5274698637909341
000180 ca a5 ac a4 7f f0 c7 3f 0c d1 5a 88 6f fd c5 bf
       0.18702693501226825 -0.17179674299189462
000190 0a 7a df ef 87 52 cc 3f af f3 2f b8 23 f2 d5 3f
       0.2212686463598888 0.34290402400057024
0001a0 bc 48 44 4b f9 2e b4 bf 5f 45 13 67 7a f2 eb 3f
       -0.07884176337782639 0.873349381750966
0001b0 65 6d e0 2d e6 24 e2 3f 8c ce 06 5a b5 e7 e9 3f
       0.5670042892483421 0.8095347174007244
0001c0 83 b2 80 2e e3 6c c2 3f 1c c1 02 5f 9a 5f a7 3f
       0.1439479806007463 0.045651268098824554
0001d0 34 d5 70 f2 ff 6c 8a bf 10 8e c8 8c fd 11 8c bf
       -0.012903213106350543 -0.013706189020985554
0001e0 d6 7f 78 a9 33 c8 d1 3f 80 a1 0f 1b 7a c3 a1 3f
       0.2778443484294234 0.03469449596724683
0001f0 0b 19 e7 f6 9c f1 dd bf e8 1c f2 af 2f 6b e0 bf
       -0.4678718959006722 -0.51308426250844
000200 f4 6a 44 f2 57 5b b2 3f 85 3e 2b 18 9b 16 e5 3f
       0.07170629181602434 0.6590095016526482
000210 fe 9f e6 a1 58 75 e0 3f 9d 66 ed 2a f2 d7 cd 3f
       0.5143244897963084 0.23315264793454996
000220 a0 68 07 11 d4 29 87 bf 9e 82 c2 a8 1c be e7 3f
       -0.011310250062639249 0.7419570251550629
000230 9e af 79 44 2c 5f d6 3f df c3 f4 61 9b 4d b7 3f
       0.34955889403385665 0.0910279382849377
000240 78 a1 51 0d 9a d3 c4 bf c8 dd 5c d6 7e c0 df 3f
       -0.162707573417048 0.4961239903818435
000250 8d b6 78 35 da 37 e4 3f 32 a8 2f b9 17 d4 de 3f
       0.6318179172864845 0.48169510922037084
000260 be 43 48 13 21 f3 cd 3f 2c 4b 53 99 9d 09 ca bf
       0.2339822143699432 -0.20341844545927168
000270 d2 a6 e3 40 63 e1 e6 3f 9e 80 2b 6a fb 00 d2 3f
       0.7150131480568354 0.28130994194180825
000280 45 72 47 48 a1 7b d1 3f a5 1f b1 1d 4c 75 d8 3f
       0.2731707769251311 0.3821592607459883
000290 6a 72 f3 65 56 97 b0 bf c2 c9 c2 a0 4c 82 db 3f
       -0.06480922688519689 0.4298278398447587
0002a0 e0 58 83 58 c6 18 ea 3f f1 f8 64 33 b3 eb d1 3f
       0.8155242661257738 0.28001098650919604
0002b0 4e d6 74 62 dd 95 ca bf 77 d7 d9 93 37 35 d2 bf
       -0.20769851024094738 -0.2844981140000224
0002c0 87 20 4a 35 49 b1 d0 3f a9 cb 7c 35 6e 3d d0 bf
       0.26082067684229354 -0.2537494203890512
0002d0 24 a0 ee 38 12 c8 df 3f 91 d9 38 25 93 60 d1 3f
       0.4965863758066027 0.2715194571968818
0002e0 e5 7d 82 98 40 34 d1 3f d9 a9 90 e9 5e 10 dd bf
       0.26881422894982016 -0.45412419137087806
0002f0 bc 99 d9 96 e4 d8 e2 bf 2a 33 fc 7e c1 d2 cd 3f
       -0.5889761873520949 0.23299425793120437
000300 08 b2 53 7c 43 5f cf bf fe 79 f1 06 17 6c d4 3f
       -0.24509471483851564 0.3190972869687413
000310 1d 55 64 2c 39 04 d9 3f 12 53 74 60 96 08 e2 3f
       0.3908827718272095 0.5635482677340369
000320 b4 b1 eb fe 21 e4 dd 3f 66 04 98 70 90 bf d8 3f
       0.46704912085149464 0.38669215198030427
000330 70 62 84 0b f1 ca ce 3f 88 69 d8 7b b7 84 b6 bf
       0.24056828558311194 -0.08796259664123884
000340 32 22 c0 3f a6 cb e5 3f 30 98 84 de 99 a9 e3 3f
       0.6811095471503619 0.61445325336968
000350 ff 6b 8b be 14 03 d3 3f 78 24 e4 b4 79 7d b1 bf
       0.297063051298835 -0.06832085291184053
000360 c2 e3 a7 2a ce 6f db 3f f8 ea ac fb 97 1b ea 3f
       0.42869905629737215 0.815868369630464
000370 e3 91 48 9f 68 a4 b4 3f 46 52 35 91 f1 59 d0 3f
       0.0806336773753809 0.25548972301956885
000380 87 f1 31 5f 4c f0 c4 bf b3 74 5f 8a d6 32 cd 3f
       -0.1635833229846748 0.2281139541291047
000390 a7 94 3f d4 6f 4d e5 3f 80 40 9c c1 b8 83 a6 bf
       0.6657027383304425 -0.04397370685012536
0003a0 bc 60 65 5a e8 9c e4 bf 1a 24 b2 8f a3 c9 c5 3f
       -0.6441537633463876 0.1702160312309225
0003b0 d1 a8 2a 62 65 17 d3 3f 2a ce 17 4e c5 fb c2 bf
       0.2983029802950457 -0.14830843270429855
0003c0 da 8d 2b 66 73 d1 e1 bf 64 3f 0e a8 b4 01 e8 3f
       -0.5568177218923964 0.7502082140290267
0003d0 c2 d8 55 6c 66 2f c6 3f 63 f4 21 14 af dd d0 3f
       0.17332153596698247 0.2635305115325705
0003e0 8c ff 2a 17 73 f2 c0 3f 50 f1 38 ed 14 b4 b9 bf
       0.13239897376297127 -0.10040407935679707
0003f0 33 72 d8 47 c3 60 e0 3f 4a 0a fb 3c 70 0f d0 3f
       0.5118118670685078 0.25094228701724275
000400 04 72 9e 95 55 aa e0 3f 5c 4d fd bd ed 72 d0 3f
       0.5207927629704163 0.25701468995722165
000410 ea 29 06 a6 cc 7e dc bf 48 4a 1d 79 8f e8 d7 bf
       -0.4452392216996076 -0.37356936290340004
000420 29 a3 38 03 7f f3 e2 bf 4e 3d 83 d2 5a 95 de 3f
       -0.5922236502566182 0.4778658920085562
000430 5a 61 91 1a 15 ab da bf 74 09 2a d9 a5 d5 cd bf
       -0.41669204325218845 -0.23308251479836495
000440 1d 01 57 54 ea 6d d3 3f b9 14 34 c4 1b 51 d4 3f
       0.303583700526376 0.31745046768657975
000450 4a d7 93 79 6f 45 de 3f c6 26 55 43 51 d0 e4 bf
       0.47298800347140413 -0.6504293742265979
000460 3e 09 ed 8a 9c a2 b4 bf ed e5 22 d7 db 64 d6 bf
       -0.08060625449892186 -0.3499059296551355
000470 5b 2b 46 d7 4a 3f d2 3f 99 cf c0 70 74 33 d8 3f
       0.2851130583082317 0.3781405545334962
000480 f4 4a 19 c0 ad a6 d1 3f fa 5a 58 fc 6a 6a c3 bf
       0.2757982612576335 -0.15168511697330428
000490 47 12 96 74 e1 90 b3 3f 70 a2 1a f9 3f a7 c2 3f
       0.07642945381491827 0.14572906173022515
0004a0 2d c5 34 74 03 02 e0 bf e1 e0 8d e5 19 45 e9 3f
       -0.5002457875872658 0.7896852000694957
0004b0 08 c2 18 e2 89 6e c9 3f ac 5e 22 da 30 43 e1 3f
       0.1986858705509038 0.5394520054278096
0004c0 8c 3b 07 65 68 8b de 3f 3f 50 a4 49 f1 04 e1 3f
       0.47725877634086866 0.5318533361737606
0004d0 fe d2 f0 22 a6 0f cc 3f 10 8d 44 6c 1c 4d d5 3f
       0.21922756868448084 0.3328314835836901
0004e0 78 21 53 8b f7 d3 cc 3f 97 5b 3b 6f 23 bc d6 bf
       0.2252187185570269 -0.35523305761801666
0004f0 d0 87 5c 1c 94 b2 e0 3f 7d 52 fd a1 d2 ab e1 3f
       0.5217991403517264 0.5522244609697534
000500 70 e4 96 8b 49 d9 dc bf 55 c6 4e 55 08 71 ca 3f
       -0.4507621634653054 0.20657447972694123
000510 00 5e 3d 7d 97 06 77 bf 5e 25 28 22 21 ae db 3f
       -0.0056215207622112295 0.43250301681162806
000520 1f 13 5b 5d 1f a9 d2 3f f7 fe 3a b9 8d bd e0 3f
       0.2915724193265294 0.5231388681204113
000530 77 33 ac a1 46 6c e1 3f 18 2b b9 e4 79 6b d9 bf
       0.5444672734898707 -0.3971848233820068
000540 96 b1 60 d5 cd f3 be 3f cd be 27 c8 5f 34 d5 3f
       0.12090765437523596 0.3313216642991222
000550 cd df fd 03 2f 20 e3 bf 01 de 65 01 97 b6 e6 3f
       -0.5976786687815491 0.7097888018897153
000560 0b 29 b3 31 6b 5b be bf 2a 30 51 9e 97 78 97 bf
       -0.11858243907332537 -0.02292096046248574
000570 08 47 df 16 ed 8e c5 3f ce 6c ee 61 94 7b c5 3f
       0.1684242593460612 0.16783385068706597
000580 20 b8 bb 18 fd 60 e8 3f 43 f3 49 14 41 8a d7 3f
       0.7618394358703462 0.3678133676656225
000590 a4 17 1a 29 58 ad d0 3f 49 d9 9d 15 e8 96 d9 bf
       0.2605801011453599 -0.3998356066798761
0005a0 96 1e 1e 1c 2d 0d e7 3f a8 ec 7a 9d 57 aa 86 bf
       0.7203584241078314 -0.01106708955136633
0005b0 cc 7c cd 68 0f 50 cd bf b2 a3 e0 71 2b a6 b3 3f
       -0.2290057431918967 0.07675429849827145
0005c0 86 53 3e fb be 07 d4 3f 8c c6 4b bb cf 3b e2 3f
       0.31297277961248715 0.5698012025952308
0005d0 1c 66 8c c1 a0 8a dc 3f 36 8b c0 c7 50 35 d4 3f
       0.44596117879118125 0.3157541228012407
0005e0 1d f4 03 1f 6f f5 db 3f e2 16 31 d2 8d 1d e4 3f
       0.4368551066289131 0.6286076646144603
0005f0 32 a7 c9 8c ad 17 b6 3f 07 72 aa 57 c8 07 d5 bf
       0.08629879653167619 -0.3286000114547111
000600 84 4b fa 36 5c 97 be 3f 47 70 05 55 39 51 e4 3f
       0.11949707357625355 0.6349150333949262
000610 1a a0 c6 d9 eb 48 e2 3f 47 0f 36 5a 36 5e d8 bf
       0.5714015248713651 -0.38075026330647116
000620 88 6f f5 6e 64 3e ca bf b0 d8 96 c6 8d d2 d0 3f
       -0.20502906244189156 0.26285118478279923
000630 c2 64 35 d3 63 77 d4 bf 11 e1 14 6a f5 5a ea bf
       -0.31978698373638903 -0.8236033508210615
000640 1d 88 77 33 b8 c1 da 3f 15 4b b3 6f 25 a2 c1 3f
       0.41807370210710976 0.13776081041449886
000650 ff 33 af cb dd 97 b8 3f 76 9b 91 a6 05 67 c0 bf
       0.09606729719889982 -0.12814398415795453
000660 c8 8d 56 ac 69 e0 b8 bf a8 cc 24 ee 85 8a c8 3f
       -0.09717426736329238 0.19172739151108442
000670 30 9e 5e ab e7 0b d7 3f 74 dc 76 de e0 d0 e3 3f
       0.3601016210109007 0.6192478508954893
000680 1a cd 6a f9 76 f3 d9 3f e6 0e f2 e5 2d d1 e0 3f
       0.4054849086489455 0.5255345812915635
000690 a9 3e b1 28 28 a4 d3 3f 63 40 a4 b2 3d 93 d8 bf
       0.30689434026587975 -0.383986877875037
0006a0 53 e5 58 dd 07 e9 cf 3f ac af 8a 1b 29 93 e9 3f
       0.24929903324099686 0.7992139375614804
0006b0 7a 4d e2 44 e6 64 bd 3f 3c e3 90 2c 54 f0 ca bf
       0.11482085401285316 -0.21045925308296798
0006c0 2c a8 b6 36 5c 9f c9 3f bf 34 a4 4b 8b 55 e4 3f
       0.2001757876544742 0.6354423978206326
0006d0 e4 bd 1a c7 29 88 e0 3f 94 2f 6b 2f 4c 73 da 3f
       0.5166214836844429 0.4132872069428626
0006e0 26 8d f3 52 81 b4 cd bf a9 f3 ff 40 16 43 d0 3f
       -0.23207108068809496 0.2540946612132822
0006f0 11 9d 4b e0 99 88 db 3f c0 19 7d 8a 5e 70 8b bf
       0.4302124681839397 -0.013397921182002004
000700 85 aa 60 e6 14 01 dc bf dc 27 15 8c 3d ee c9 3f
       -0.4375660180836934 0.20258302059147482
000710 a4 22 8a e8 ac 23 da bf 24 71 7d 26 c2 9f e4 bf
       -0.40842745503372613 -0.6445017577894174
000720 28 a5 d8 dd dc f0 c3 bf b0 e8 1f 94 15 16 cc 3f
       -0.15578804809892088 0.2194239590897431
000730 c2 fa 30 dc bf b0 e1 3f fc df da f1 59 fc dc 3f
       0.5528258610355226 0.4529023038735429
000740 20 32 a4 bc 89 fe c9 bf 14 67 6e ac 5b 9c e3 3f
       -0.2030803843594109 0.6128366821096471
000750 a4 1f 50 ad 60 ec ba 3f ca f2 3d c6 10 35 e1 bf
       0.10516933661722178 -0.5377277252115047
000760 20 07 08 f9 4b 88 d4 3f 44 ee 88 a9 e7 76 cd bf
       0.3208188945719588 -0.23019119051046932
000770 7a 1c ae bb 93 ef e6 3f 00 e1 34 d8 d8 39 c6 3f
       0.7167452493312247 0.1736403518386922
000780 4e 85 03 62 22 5a cc 3f 52 cb 69 14 cf c0 da bf
       0.22150068078830504 -0.41801812165720265
000790 be 3f 7f 29 1c c8 d5 3f d0 05 6d f2 68 a1 8f 3f
       0.34033874561736954 0.01544458379578631
0007a0 de c1 59 7e 88 69 de 3f b1 a8 7b 0d c0 16 e5 3f
       0.47519123400618735 0.6590271247234992
0007b0 26 63 b6 62 dc 55 de bf c0 e1 74 12 17 09 c7 3f
       -0.4739905323017858 0.17996490861129466
0007c0 38 d2 7a 3f bd ac b5 bf 24 75 c4 38 e2 76 d8 3f
       -0.0846670417766483 0.38225608390514965
0007d0 5a cc 2d 00 ed a9 e1 3f 0d 9c 67 79 a1 14 e1 3f
       0.5519928935522203 0.5337684031663926
0007e0 f8 74 e0 b9 b8 8b e5 3f 5c 8d d6 fc 3b cd cb 3f
       0.6733058576971009 0.21720075460062105
0007f0 35 11 f3 da c6 a0 e4 3f 6c e7 24 65 ef c1 c2 3f
       0.6446260715825135 0.14654343069724562
