src/experiments/kernel_ABC/vonMises_mean_estimation/results/saved_results/errs_EuclideanKernel_EuclideanOptimization_seed10.npy (npy, 240128 bytes, 1 tensors)

array f8 [100, 50, 6]
00000000: 34ee f3fc 9e60 bd3f 1e66 5aac fae2 d3bf
00000010: 9d45 93f8 8546 ec3f dc7f e093 a77a bc3f
00000020: e0c0 a484 6fe7 c43f ac56 066f f6fc d03f
00000030: 86ee b3b1 0b07 c8bf dcb9 28b4 eb6f e43f
00000040: 0ca8 fa03 99e9 b4bf df14 c021 4b9c d3bf
00000050: 9ef4 3b69 469d e53f e01d 0488 3c7d 803f
00000060: 550e 68b7 3095 e43f 3209 5c67 1dcc dc3f
00000070: 4af8 0d3b 9544 d83f 6f7d c94f 60ad d13f
00000080: 89b9 4d57 3c7b d63f 058d 9655 f1b5 c93f
00000090: 84ea e718 8268 b6bf 3d43 0db0 6fd6 e13f
000000a0: d886 a467 9fb5 aa3f 0e5c 81ca 9512 c5bf
000000b0: a4d1 09bc 1cd2 e93f 70ab 2f8f 54d0 9abf
000000c0: 0051 e7da 1af6 78bf ecd1 bd10 fce7 c53f
000000d0: 0a7f 1047 2478 d53f 9424 9171 be82 e83f
000000e0: ed31 939c 6a62 e03f 685a b123 04a2 b8bf
000000f0: 90f8 734d ed47 bd3f 36d4 fc66 2ef0 cabf
00000100: 9a6c bea5 6144 cd3f 6aee a0b9 32a8 eb3f
00000110: 28b7 2084 f711 d33f 76c6 adeb ebe5 cd3f
00000120: 9891 a27b 1139 cc3f 00d9 ffea 0a84 74bf
00000130: 6074 2099 d691 81bf df46 96bf f7b0 d43f
00000140: d3f7 9c5e a821 e63f d0b3 fcb0 5b6c e33f
00000150: 443c 75f1 b7db cbbf 3047 3d7a c17d 923f
00000160: 94f6 0d47 73ad d2bf 686c 5a44 98ab cbbf
00000170: e4e6 355a 6a04 cc3f 9521 6316 0c20 ec3f
00000180: ab5a 0cea aba7 da3f 2ae1 8689 1897 c53f
00000190: 4323 4a40 0d0c d33f 4a23 0492 1f15 e53f
000001a0: a5e2 fd17 0ef2 d9bf 0061 19b1 6b55 d5bf
000001b0: e0e7 50ee 621e 90bf 4877 5f97 a8d5 dc3f
000001c0: 248e 7dc6 fd7d b13f 4e3c c0fc cc74 cd3f
000001d0: 9cf2 2e60 65d2 e93f 1a07 6119 31fb d23f
000001e0: 707b f797 74fe c83f 3cc0 2657 4a55 e53f
000001f0: 8084 c306 c675 d33f 200c 60cb e6c7 ad3f
00000200: 4bdb b0d2 817f d03f 3d47 bf16 c211 e33f
00000210: 8701 8364 1a8d d43f 6fff 2661 14ef da3f
00000220: 0c55 5d80 54dc e53f d4c8 c8dc 311e d1bf
00000230: 1b6f a769 7b2a d53f 0624 856b 6531 d13f
00000240: 5bea 39f9 1d48 d03f 5688 0da4 13ea c73f
00000250: b046 cc46 8c9d d8bf 6ab8 8faf 9094 d83f
00000260: c640 a026 b242 db3f 86d5 e179 16d3 e43f
00000270: f0c2 29a7 372c e13f 7a5a e665 88d9 a23f
00000280: 9ba2 2efa 6c78 d13f 843d c274 f586 d2bf
00000290: b7df 4a83 672e d13f 972e b2c7 272d e63f
000002a0: 9c23 9a14 c6b7 cbbf 00c8 5afa 5762 673f
000002b0: fc00 c079 0106 ec3f 84c7 971e 6911 d33f
000002c0: 57f6 e3eb ecf6 d33f 0047 40be 1054 823f
000002d0: 3418 9c21 fe8c cf3f 1221 99e3 6cbe e23f
000002e0: d642 ab89 fc87 d4bf f83b 0232 90b4 c33f
000002f0: 104f 5a76 aaed e33f 3498 eec0 ca4a d23f
00000300: 3ae4 44b5 ae9b e73f b6cd 47c7 8201 de3f
00000310: 2ee4 c702 fced c4bf 9e41 f839 c359 d4bf
00000320: a82f 7e2b 1138 d13f e4b7 b554 0c2c c8bf
00000330: 53aa 1e4b 58bd e13f 3ba4 2548 47e3 db3f
00000340: 799b fc85 a4ed c7bf 04ad b5c7 6b0c ca3f
00000350: d852 3817 ccf8 e23f 2850 7448 7085 d1bf
00000360: 91c2 b7c2 b27e e73f e47f a269 98e9 9dbf
00000370: 30d7 4adc d18a e03f 483f beb8 da6c 6d3f
00000380: c8f2 2b0b 6d46 c83f 0ae8 fd2c fd58 d93f
00000390: 4f3d 0d5a d691 d03f cc66 a110 f720 be3f
000003a0: 86b8 42cd 27f5 ea3f 423f 58f6 c5cf da3f
000003b0: 2608 5850 9a43 c6bf c8a6 a5ea 6205 af3f
000003c0: 5be3 0628 ff7e dc3f 3270 d127 bcb5 d93f
000003d0: 9899 97ae 471e c1bf 6089 28c1 4590 dbbf
000003e0: aebb b5a3 60a7 b6bf 9662 6bab adf6 e43f
000003f0: 0ed2 baf9 a54d d23f 311c edf9 1845 d23f
00000400: 9802 76cf 8d09 db3f 24b7 d881 1518 e73f
00000410: b44a afdd 0215 ce3f 3389 ee1a 7f58 d2bf
00000420: f1d4 7e74 f893 d13f c6f7 4bbe fb7a d83f
00000430: 0907 08ee d8c0 943f 3b2f 469b 879a d23f
00000440: 30a5 f501 524e e03f 5a14 d998 e012 e5bf
00000450: 2ca3 dd1a bd50 d43f cfcf 1fc7 ee4a e13f
00000460: f09e 39c4 274c e13f 1ef0 3112 c86b e03f
00000470: a07b 44c9 63bb a43f 6fa3 191d 5fa1 cc3f
00000480: f657 5457 ad20 dc3f 209a a8a9 3c7c 98bf
00000490: 9e57 f297 cf7e df3f f2e3 778f a503 e03f
000004a0: 24e6 9c60 34e8 e13f 70b7 0c28 82cc 96bf
000004b0: 0b18 64d9 1889 e1bf 0046 e4d6 2d58 b13f
000004c0: 9086 4640 2910 a2bf 6c1f 22b9 b9b2 e03f
000004d0: 2502 1e19 a072 e03f 3448 a294 9663 d9bf
000004e0: 44c2 8a18 9633 c73f e799 9876 c306 c23f
000004f0: 040a 30e5 058a df3f 94bb a43c 4dba d4bf
00000500: a87b e344 e6af e63f 55ca 6ee5 80ec d33f
00000510: e3bc 7d6c 1805 e63f 0012 1c13 d8b6 723f
00000520: 2005 37b3 03ba d73f d61f b1b1 79f2 db3f
00000530: c070 34fc 20cb 6e3f ff38 35e1 6580 dcbf
00000540: 5ce2 b5a7 327c debf dabb c92e 7a66 d73f
00000550: d461 77ee 2645 c13f 7e66 060a 1a8a cb3f
00000560: 7eeb 4f95 f69a c33f 800a 6d78 28c3 e73f
00000570: 0803 bcbc c576 ac3f fef1 15f0 c7a4 ee3f
00000580: 6a4c 3501 abaf c03f a065 ee1e fe2a c0bf
00000590: 6f43 76b6 2fa7 c93f 4aa5 a1b1 fc09 b53f
000005a0: c26b 4620 3334 dc3f 19d3 6239 de5d de3f
000005b0: 18a6 8adc 9337 d23f 902d 4f18 f6d2 da3f
000005c0: aba6 0830 cafd db3f 274b b44c 0950 d7bf
000005d0: 9073 1952 f3bf c33f f0b4 218c e3fc e13f
000005e0: 7684 3a98 2ae9 e33f 9443 317b db8f c7bf
000005f0: ba2f 9ba0 1bac de3f 882b 3412 c5eb b83f
00000600: 9eb5 2dd9 1458 d03f 6e91 8418 2f7b c2bf
00000610: cb68 d612 cf29 d33f de49 e403 a089 d6bf
00000620: f31b fa47 72e4 c7bf 0122 4b92 861a ea3f
00000630: 8572 d8d1 72e9 d7bf c67a 08f9 99fb e93f
00000640: 89dd 6985 9f8b d03f f5e8 c2b8 67c0 d53f
00000650: 003a 412d de2e 56bf 7eed e82e 9484 c13f
00000660: c070 3fb9 4157 aabf 6c9e b28d 685b d1bf
00000670: e6ac c3c2 57b6 dd3f 28ce 13d4 a98d d93f
00000680: 5930 d1bd 3f06 e33f cbb8 6b59 f449 dc3f
00000690: 56ba 3f1e b091 bc3f e412 ced6 3a02 c23f
000006a0: 1f8c 964d ab4a d3bf 9a50 2153 1c58 e13f
000006b0: 8531 f914 5315 dcbf dbe2 bf8e a5ff e33f
000006c0: d0d7 988d 61df adbf 1c25 02b8 23ee b63f
000006d0: 3ec8 061d b86b d93f 3287 44fd daa2 e33f
000006e0: f27f 0bdc 7361 c6bf 42b9 fb9e 1fd4 e43f
000006f0: 6aa5 5047 6849 db3f 3e07 4503 94ef dcbf
00000700: 871e 1c81 c14d c63f 82ed d642 731c a73f
00000710: b3fd 57f6 4e08 ca3f dc3e ab96 1b84 e73f
00000720: 7642 646c a9cf d4bf a148 8776 b5e0 c3bf
00000730: 1a61 8bdd 39d2 e7bf 1c45 38da 1585 e1bf
00000740: 727e 1290 7447 c03f a0f9 a8e0 9406 803f
00000750: b7e1 2072 ec4b e83f a6ec e7f5 2588 ca3f
00000760: cdfd 4fe6 d3c0 c4bf 830e e118 63f7 d13f
00000770: 1239 3f18 0dca e03f f4a8 ae51 a276 8bbf
00000780: 3e5c 2af6 1a0d ce3f f0f7 0cb5 846d e33f
00000790: 6037 17b6 7e36 9ebf 249f b1a3 df89 d83f
000007a0: efe1 e446 e9f4 e3bf 2e54 37ad 646e c93f
000007b0: 1a2d bbaa 1053 e13f e8cb 26d7 eca7 d6bf
000007c0: 2d7b 48ae e75c c83f 7f57 71ec 11e6 e43f
000007d0: c730 e421 d1a2 cf3f d4d3 28d6 67c2 ce3f
000007e0: 5bf3 9d4f ed98 dc3f 93fc 7f7d 95f9 e43f
000007f0: 561f dddc d267 c13f 7c3d b43f 4adb cf3f
0.11475557017905019 -0.3107287104736275 0.8836088042245823 0.11124656067158817 0.16331285454498978 0.2654396137453243 -0.18771501709840183 0.6386621969921253
-0.08168941828867576 -0.3064143972008661 0.6754486136775488 0.008051369572526335 0.643211706367263 0.44995818227484385 0.37918596999214016 0.2762070445223434
0.35127171064132107 0.20086495093446657 -0.08753216846518269 0.5574263037216053 0.05216692104501214 -0.16462967288927682 0.8068984673141597 -0.026185342063324624
-0.006094078924850033 0.17114210908370298 0.33545786800276345 0.7659599512200139 0.5120137270073976 -0.09622217055707838 0.11437876835768379 -0.21045475033466382
0.22864933579407848 0.8642820001181921 0.29797161009888606 0.23357914932016727 0.2204915860830965 -0.0050087381823600285 -0.008578945682581274 0.3233012553183538
0.6916086051858151 0.6069773155955946 -0.217642777346983 0.01805784519758119 -0.2918365663425473 -0.21617415750083357 0.21888474850475526 0.878912013745366
0.41648385864520304 0.16867357936076505 0.2976105811908846 0.6588285304907029 -0.4053988680166561 -0.3333386640056375 -0.015740915103584885 0.4505406835795509
0.06832872482259994 0.23012697545388722 0.8069331053335023 0.2965815303651752 0.19526536388635973 0.666661424844285 0.30406332645913636 0.058165752721855535
0.2577824170615954 0.5959177440911173 0.32111224952316103 0.4208422611954949 0.6831457621689494 -0.2674679428192921 0.3307179004457212 0.26863990306861785
0.2544016774988102 0.18683095465081817 -0.38461596406805665 0.38406769890469283 0.425945794792835 0.6507675533782027 0.5366476311592958 0.03681589359182609
0.2729752009568444 -0.2894872322294406 0.26845729657679435 0.6930121326744992 -0.2165458298298092 0.002854511100701451 0.8757331254892331 0.297937660098903
0.3119461349122949 0.008949404531481076 0.2464902557478027 0.5857452817226962 -0.3207999557899205 0.15394785348732376 0.6227619468286054 0.28581494179741473
0.7377542057430511 0.4688422151659454 -0.16351270805151458 -0.3179786745177128 0.269047062371778 -0.18884424339506645 0.5543633906539277 0.43574697538003065
-0.18693977873155257 0.20350405932854454 0.5928707555309201 -0.2737694461404794 0.7342160990793493 -0.02921140808814461 0.5169457724175341 0.0035919448764118213
0.1896492294835268 0.3960564555524121 0.2589012030993744 0.11769050746934367 0.8424262055393832 0.41893147523022745 -0.17393807337799777 0.06058796991676513
0.44525126370313267 0.40171722305763347 -0.13373657250413085 -0.4306806932746863 -0.08849147793601617 0.6551121089970191 0.28598927867577195 0.2854673805890711
0.4224581266389946 0.7216899429383585 0.23501621078920254 -0.2866513979917215 0.27465640427119725 0.38250630935351315 0.020266904381066406 0.2906817451810075
0.5095605886719223 -0.6585543618499614 0.31742789863214926 0.540397061266498 0.540546305896866 0.5131569247600998 0.04049217063788224 0.22367466851144566
0.4394944527460888 -0.023911426406039493 0.4921149238447188 0.5004451562991774 0.5595952879877513 -0.022264512724340546 -0.5479854818265734 0.06775175567988612
-0.03527954969036984 0.5218170753368958 0.5139923563547809 -0.3967033816817349 0.1812617893060794 0.14083140650582424 0.4927992571030304 -0.32387095377173947
0.7089721055489138 0.31131002812904757 0.6881219977348362 0.004568904916372407 0.3707284212251398 0.43667452194904166 0.003758968757791775 -0.4453367900176914
-0.47633043649651596 0.3656297165788921 0.13492285388816916 0.21515202989103338 0.15316660204538474 0.7425730087346238 0.055593661583776266 0.9576148690389912
0.13036096152299886 -0.12631203184427608 0.20041462334895807 0.0821836408300857 0.4406860175310464 0.4744792519007191 0.28464218652024575 0.4191260564227486
0.4373650998191844 -0.36426002970363175 0.15429536350975726 0.5621202218004822 0.6222126935209775 -0.1840776778722356 0.47925463375281263 0.09734756178310822
0.2553760643848707 -0.14438427636299472 0.29942681159594703 -0.35214996700338286 -0.18665913118840613 0.8157379967970543 -0.3736235665581165 0.8119630683830443
0.25852191952386555 0.3398684791860796 -0.001353947610386208 0.13685848513146576 -0.051446966040857856 -0.2712041267172711 0.4642543222423242 0.39927144728355524
0.5945128161779493 0.4420138238191497 0.11159802187442244 0.14069304932140547 -0.3014324433990527 0.5420056937823745 -0.43880154655632736 0.6249568737103702
-0.05834488728980569 0.0895712208022314 0.39719965777033284 0.6136298128733186 -0.17484901661282454 0.6508939843313686 0.42635542835576834 -0.4521226913385482
0.17424792102996298 0.04513893309509866 0.20337855366231636 0.7348764364960192 -0.32517467103119857 -0.15529506957552022 -0.7444123580017135 -0.5474957716088826
0.12718064341332852 0.007825053316193487 0.7592680195876288 0.2072799158775968 -0.16213463540769482 0.2807243102035743 0.5246644471715476 -0.013409870259995384
0.23477494258688297 0.6071189438005131 -0.02950475679772724 0.3834151362011531 -0.6236463913583615 0.19868143518275033 0.5413897833435926 -0.3539993382539124
0.19033523569029268 0.6530847185156147 0.24715627817966476 0.24030778843885392 0.4468339231023514 0.6554667903109411 0.13598094734538319 0.24887970076131782
