src/experiments/kernel_ABC/vonMises_mean_estimation/results/saved_results/errs_EuclideanKernel_EuclideanOptimization_seed8.npy (npy, 240128 bytes, 1 tensors)

array f8 [100, 50, 6]
000000 e4 5c f6 df 1f 35 ca 3f 11 28 6a bf 46 4c e0 3f
       0.20474623141919956 0.509311078888688
000010 cf a2 7e 1c 5a cd e0 bf 18 85 1a 0f cb af d3 bf
       -0.5250673824822004 -0.30760456538162506
000020 d7 ab ec 22 d5 c9 e1 3f 46 c6 f9 a7 90 ce c1 bf
       0.5558877641791423 -0.13911636545121747
000030 1c f0 ec 7f a7 b4 d6 bf a5 31 9d 88 15 67 d7 3f
       -0.3547762631676521 0.36566675511564944
000040 bf 83 65 ed f0 2c df 3f ad 68 98 27 3a 59 e5 3f
       0.48711798842674264 0.6671419881197572
000050 64 3d 8b f9 5a d1 c1 3f d8 61 48 31 e5 27 c9 3f
       0.13920151886712084 0.19653000742324767
000060 48 55 e2 b9 fe 98 d5 3f 1e 34 c8 ba 93 0d d7 3f
       0.33746307518716323 0.3602036785167132
000070 b2 d8 cc cf 20 45 cc 3f c5 f8 45 e1 1b 78 e5 3f
       0.22085962435239065 0.6709117317075416
000080 b9 03 a9 93 68 67 de 3f dc 9a 5e 18 44 d0 c6 3f
       0.47506155414526635 0.1782307738296457
000090 ae e4 ca 51 ec 9d e5 3f 88 00 06 89 c5 db c5 3f
       0.6755277249823359 0.17076939764593058
0000a0 39 92 b1 5c 34 aa d8 3f 96 ba 7a 54 82 b2 e1 3f
       0.38538846065629034 0.5530406618107289
0000b0 fa 5e d2 9d 30 04 b3 3f d6 0d 3e f2 ea e8 cd 3f
       0.07428268292494158 0.23367058590166206
0000c0 3f f4 8b 34 5b 9f d4 3f 88 13 8b eb 61 fa cd bf
       0.3222263348723721 -0.23420356751571725
0000d0 30 77 b3 b9 78 51 c7 bf 97 25 eb f9 30 60 e7 3f
       -0.18217381541665523 0.7304921036931543
0000e0 27 a8 75 9f bc 5d e0 3f a1 56 5e 87 a6 1e bd bf
       0.5114424814648871 -0.11374893956084488
0000f0 dc 70 de 7a 58 9b cb 3f 4e 36 29 19 08 13 bc 3f
       0.21567827224215008 0.109665399687594
000100 a4 31 30 b5 61 75 ed 3f 0e 57 b6 75 bf 8b b9 3f
       0.9205788172562746 0.09978863357386222
000110 1f ff d7 c2 2e 18 d1 3f bc f5 9d de df d3 bc bf
       0.2671009924670091 -0.112607948160039
000120 78 ca c0 f5 d1 be c1 3f ce db 20 de e3 05 d2 3f
       0.1386358690229661 0.28160950367185655
000130 65 c3 1f 9f 3e 6f e5 3f e0 59 2d f0 4e 50 e2 3f
       0.6698296649829955 0.5723032656631482
000140 70 72 70 ce 68 21 d6 3f d0 c7 1a 92 d7 49 b3 bf
       0.3457891479500068 -0.07534549061781992
000150 b4 cf 0d 10 53 a6 c1 3f 26 37 4d c4 7b e5 e3 3f
       0.137888319815486 0.6217631181732244
000160 a5 84 2f 8b 23 1b e0 3f 24 27 11 f0 33 53 bd 3f
       0.5033128469914528 0.11455082522402599
000170 d2 66 0b b3 1f 3c db 3f 5a 6f 2e 9c 0b 86 d8 3f
       0.42554466709917194 0.3831814789971212
000180 ba e6 2c 44 27 0f e5 3f fc 60 15 14 08 31 d7 3f
       0.6580997783232398 0.3623676487091101
000190 4b e2 5f 10 df 69 e1 3f 75 ef a2 47 e4 1b ce 3f
       0.5441737479987493 0.2352261876857217
0001a0 20 ab 37 a6 b1 f4 ad 3f d9 38 2e d7 aa 2e d2 3f
       0.05850749162694613 0.2840983487484557
0001b0 1a e2 03 05 03 8b e9 3f cc 96 8f f8 35 d0 d6 bf
       0.7982192132904544 -0.3564581801750648
0001c0 7a c2 c7 6a e7 63 c0 3f c0 d0 60 3b 75 bb db 3f
       0.12804882730371842 0.43331652449274927
0001d0 c0 b2 24 70 62 3d 9f bf 84 e6 cf 6c 24 6c c6 3f
       -0.03050760087460236 0.17517524064151158
0001e0 78 43 a0 fc e2 fc c7 3f 13 9d 17 8d 00 4d d1 3f
       0.18740498862510058 0.2703248384336387
0001f0 d8 1d c0 68 b0 95 a2 bf 20 4d 17 d2 bb 7b d9 3f
       -0.03629828718845446 0.3981771041555522
000200 3a 78 ed 8a fa c0 d4 bf 6f 67 bd 66 8c 55 e9 3f
       -0.3242784840312002 0.7916929251325494
000210 9b 75 95 78 29 55 d8 bf 38 dd bf 47 31 f3 dd 3f
       -0.38019787574543223 0.46796829230102643
000220 b6 6b 98 04 69 c5 e0 3f 80 0a b4 60 02 b4 8c bf
       0.5240979280236988 -0.014015215469503461
000230 f7 6a b0 72 b8 0a e2 3f ac c4 7d 33 1f bf ca bf
       0.563808654787265 -0.20895757688734784
000240 57 f0 2e e4 18 e0 dd 3f 3c 91 a4 50 8c 98 e1 3f
       0.4668028095582079 0.5498715949111452
000250 4f a3 7b cd f2 b0 e0 bf 65 04 80 e5 7a 12 d4 3f
       -0.521600152334125 0.3136279336177437
000260 ec 5a 8f 90 57 76 d4 3f 2c af a0 33 01 8c b5 3f
       0.3197230254858556 0.08416755209389909
000270 94 ce 6b 6e 4c 7b b6 bf a4 85 0e c4 59 25 b2 bf
       -0.08781888671711108 -0.07088242565671138
000280 22 57 0f 5f 65 81 d7 3f 3a 51 36 d5 37 64 e5 3f
       0.36727270396419176 0.6684836544323283
000290 e2 13 e8 61 4b 76 e1 3f d7 ba 81 b5 0d 01 d5 bf
       0.545690242027032 -0.32818930363911875
0002a0 0a d9 d4 a4 0f 49 db 3f 0a fd b9 ac 96 76 e2 3f
       0.4263342961961746 0.5769761441769401
0002b0 88 60 f1 7e 26 80 c2 3f 98 43 ff 45 9b 52 da 3f
       0.14453583906538747 0.41129190288216355
0002c0 58 71 d4 11 2d 08 a6 bf 05 21 4b b8 7d 55 e1 3f
       -0.043031128336425695 0.5416859244806181
0002d0 54 f8 da ee 27 16 bd 3f ca ba bd a9 c7 3e b0 3f
       0.11361932355336651 0.06345794576712219
0002e0 95 05 7b 66 0a 36 e4 3f c7 43 00 80 7e 93 e7 3f
       0.6315967561314887 0.736754655839939
0002f0 00 68 7a 12 a3 06 83 bf 7a ae c9 8b bb fe c9 bf
       -0.009290002824219101 -0.20308632207467153
000300 4c 83 fe bd aa aa c8 3f 92 ab a3 e9 c6 6d ce 3f
       0.19270834233341316 0.23772512825175035
000310 56 21 a1 a9 4d 80 b8 3f 6f a3 03 69 c0 0a e1 3f
       0.09570775405257356 0.5325624514635886
000320 ce c2 6f 7c ca f2 e7 3f 28 70 29 d7 33 99 cd bf
       0.7483875685121235 -0.23123786931944434
000330 23 a6 81 73 d4 ab d3 bf d8 28 ff 37 86 c1 d2 bf
       -0.3073626640312758 -0.29306178539685623
000340 d0 f9 94 57 25 21 bd 3f 67 66 23 a5 b1 f1 d4 3f
       0.11378701580267792 0.32725182654176027
000350 da ad 02 18 1a 1e e3 3f ae 39 ba dd 50 bb e2 3f
       0.5974245518640899 0.5853657084097017
000360 4c 05 5b 1d a3 87 e1 3f 99 d7 b7 18 c7 a0 c1 3f
       0.5478072713232591 0.13771904665889848
000370 6c ca 0d 39 01 48 c7 3f 12 1c 12 ac b9 46 e9 3f
       0.18188491140206808 0.7898834572559983
000380 48 78 53 98 a6 c9 99 3f 64 ee ff ae 73 8a c3 3f
       0.02518329910969211 0.1526627163401485
000390 66 07 8a c5 34 b0 db 3f 79 90 58 fa 80 54 e3 bf
       0.4326297692388067 -0.6040654077119277
0003a0 a6 79 c2 76 2c f9 de 3f 58 ee d6 3a 4e 67 d0 bf
       0.4839583549272909 -0.2563052725415438
0003b0 7a 77 38 47 e4 5f d2 3f 2c 85 d9 a0 4a 64 d0 3f
       0.28710276560911263 0.25612130840279934
0003c0 35 a8 c6 6e 9a 16 e2 3f 43 24 ba 87 a3 c2 a9 bf
       0.56525918613375 -0.05031310111832756
0003d0 ba 54 7f 73 da 8b c5 bf 81 c6 ea 1f 77 48 b3 bf
       -0.16833048476715878 -0.07532448319650521
0003e0 40 08 ea f8 2d 1a e1 3f 2d b8 e2 54 a5 27 e3 3f
       0.5344457494359247 0.5985895784303971
0003f0 1e 49 09 d6 86 6d d6 3f 7a 46 64 7c ad 3a e1 bf
       0.35043497945766144 -0.5384128026509665
000400 0d 2e 76 d1 2a f0 e7 3f 6f 04 2b 47 fc b4 c3 bf
       0.7480672923133526 -0.15396073794366624
000410 58 94 8e 91 8b 75 a1 3f 32 2f 98 46 cd 40 ab bf
       0.03409992362802744 -0.05322877394436744
000420 99 e6 6a 1d c9 24 da 3f d9 77 12 6e 02 76 d4 3f
       0.4084952151566568 0.31970272778732817
000430 00 a2 dc ad 4c 40 47 3f 4c af f4 ea d5 3b e4 3f
       0.0007095693979169426 0.6323041523914781
000440 e4 20 e4 14 74 03 e2 3f c2 f1 1e 4e 3d 87 be 3f
       0.5629215629606077 0.11925109059570274
000450 d4 ac fd f3 5b 23 ce 3f 20 38 6c 46 4e ad 8d bf
       0.23545407689684927 -0.014490710758334358
000460 b8 f6 49 af c6 5f ea 3f a7 ba a0 4a 68 d0 ce 3f
       0.8241914199458824 0.2407350887674131
000470 52 6a e3 cc ed f8 db 3f a1 34 17 b9 be 38 c0 3f
       0.4370684147703844 0.1267317203295635
000480 26 73 4d 66 c8 10 e6 3f 70 55 71 0d 83 cb c3 3f
       0.6895486829849673 0.15464819103605576
000490 02 79 a2 a5 43 2e dc 3f 76 77 be 0d b8 51 e0 3f
       0.4403237454915968 0.5099754589498235
0004a0 34 51 7b c8 32 77 cb 3f c4 09 55 3a 76 26 99 bf
       0.21457514561792268 -0.024560782728494393
0004b0 3b 4b 5f a9 39 a1 ea 3f 36 cc 95 fa b0 a0 dd 3f
       0.832180815510902 0.4629328200455264
0004c0 64 04 35 e8 8d 27 b0 bf a0 d7 9c c9 6a 9c ca 3f
       -0.06310355109327898 0.2078984722554056
0004d0 24 6c f2 48 0b 19 c9 3f f7 6d f1 76 16 32 b6 3f
       0.19607678472388657 0.0867017784489049
0004e0 66 ce 3d 14 95 52 c8 3f 7c 05 67 3e b8 3e e6 3f
       0.19002021301604372 0.6951562136456881
0004f0 b5 76 3d 03 b8 81 de bf 32 f8 67 e8 0f f8 d3 bf
       -0.47666740719237605 -0.3120155114737627
000500 75 bb 73 d1 4a 6e c8 3f b1 57 2f e3 68 23 d6 3f
       0.19086585261490155 0.3459112375834322
000510 ce 69 ee b4 1a 35 ec 3f 59 5e 06 5e 53 53 b5 3f
       0.8814824613394252 0.08330269856957652
000520 cb 96 49 80 53 67 bc 3f be 49 31 81 75 e3 cc 3f
       0.11095163232820508 0.22569149788121295
000530 2a 4c 73 6c 23 43 c4 3f 06 32 ce e0 d2 df d6 3f
       0.15829890056065327 0.35741111711175255
000540 2d 75 99 1b 2d e7 d1 bf 29 e5 d4 08 db 85 cd 3f
       -0.279734875633795 0.23064744883758095
000550 f7 93 b3 8d 39 41 e8 3f 44 ae 35 1c 74 3d bd bf
       0.7579620139700854 -0.1142189568396868
000560 57 e0 9b 19 86 f8 df 3f 3a 3b f6 16 07 b1 c6 bf
       0.49954369068973875 -0.1772774564855924
000570 e6 15 26 05 a1 d2 e1 3f 26 c8 19 66 79 c1 e2 bf
       0.5569615459978052 -0.5861174577860353
000580 08 cd 5b c6 93 e6 cb bf 60 10 ee 8c e2 1f 98 3f
       -0.21797415910223372 0.02355913148086619
000590 70 b7 58 32 f8 b7 c9 3f 9b 30 19 95 46 3f e0 bf
       0.20092680414512243 -0.5077240860059818
0005a0 8e f3 9d eb e1 39 e2 bf a0 c2 09 40 b9 cd a7 bf
       -0.5695657350439534 -0.04649142176356702
0005b0 77 1e 09 a1 12 fd d0 3f 83 4c b1 c1 ba 0e e2 3f
       0.2654463360417831 0.5642980368669587
0005c0 44 98 5f 3f 7b c2 ca bf 82 84 52 9f ca 67 df 3f
       -0.20906010240941175 0.4907099300272152
0005d0 60 98 03 00 12 9d c8 bf e4 b1 78 30 8c 21 e3 3f
       -0.19229340553937657 0.5978451677997865
0005e0 c6 ce 8d 27 f1 50 c1 3f 48 d8 e9 d2 e3 e7 e5 3f
       0.13528265410751866 0.6845568770793387
0005f0 10 d2 b3 af 73 d4 b5 bf 45 a8 2f ff cb 5b d5 3f
       -0.08527300872430765 0.3337278358509404
000600 de 97 70 30 fb d2 e1 3f 8a 57 c8 38 88 bd b4 3f
       0.5570045419778997 0.08101703058522794
000610 50 5e 0f 15 7a 3b bb 3f 89 44 05 b8 31 d5 e8 3f
       0.1063762952247711 0.7760246843482871
000620 f8 69 1b 60 f2 15 d0 3f 52 83 c0 b7 b7 9a b4 3f
       0.2513395250840911 0.08048580394871621
000630 12 01 d5 5f a2 8e cc bf dc 9e e0 62 fc db 8d 3f
       -0.22310285262393187 0.014579746024608146
000640 ff d1 06 99 2d de e3 3f d9 e8 ab c1 73 e4 e2 bf
       0.6208713520814512 -0.5903872282645138
000650 fa be 18 27 5a e2 c8 3f f7 cb 35 3c e7 03 db bf
       0.1944077196981125 -0.42211323623558833
000660 47 e6 f3 a8 e5 02 dc 3f d1 7d 6f 97 a1 75 d5 3f
       0.4376768255166081 0.3353046397077977
000670 ad 78 a7 1c 64 1f d9 bf 75 01 2c 2e cf 6a e5 bf
       -0.3925409583879496 -0.6692882444186085
000680 67 a0 bf 14 52 17 c1 bf 69 7c 3f 65 a2 a8 d1 3f
       -0.1335241891204106 0.27591762435435513
000690 9f bd 87 0a bf a0 d9 3f cb 3b d3 b5 61 84 c4 bf
       0.40043617275565596 -0.16028996828251105
0006a0 aa b3 e4 91 56 ed be 3f 8c 87 0a 06 e7 7a df 3f
       0.1208089929757096 0.49187636938051393
0006b0 1e 99 d8 a2 c9 1e d1 3f a1 3d f0 5d 18 4e e6 3f
       0.26750412848413585 0.6970331034407772
0006c0 d9 34 aa ac 2a f8 e5 3f 5c 75 fa 9d 81 cb b5 bf
       0.686543786274025 -0.0851365099610652
0006d0 a8 6e 2b bb 20 02 cb 3f 17 78 16 45 51 b9 d9 bf
       0.21100243701117916 -0.401935880154157
0006e0 0c cb fc f3 ec ef e1 bf 90 1d 0e 5f d0 f8 a0 3f
       -0.5605377927189195 0.03314829979268119
0006f0 e8 94 3f 7e 90 67 c2 bf a6 4b 77 67 df d2 c2 3f
       -0.1437855354735469 0.14706032325792967
000700 a6 41 c6 62 bc a5 e7 3f 90 b6 8b e3 d0 cb a8 bf
       0.7389814309299723 -0.04842999246271262
000710 1a e8 4b e9 8b 52 db 3f e0 3d fc fc 7c 7d de 3f
       0.4269132402693018 0.47640919404599735
000720 00 bf 3f ce f0 7d 97 3f 68 6d 8a 29 6d e6 91 3f
       0.02294136294216198 0.017480569515652716
000730 d1 bc cb 7c b8 b3 d7 3f a6 02 98 34 3d b6 de bf
       0.3703442782124969 -0.4798729909526095
000740 3f 66 39 07 db 99 d2 3f 19 6c 17 14 2b ac e7 3f
       0.29064059930314906 0.7397666351711251
000750 4e 71 e6 88 c7 0a e1 3f 38 eb a7 5d 6f 31 a5 3f
       0.5325658487159133 0.041392784292801854
000760 4f 7e 9f 83 e6 ac e3 3f 02 4c a6 83 99 f5 da 3f
       0.6148560114633684 0.42124021393209443
000770 c4 75 6a aa f8 af d6 3f 14 c4 76 3b d0 6d c7 bf
       0.3544904388635042 -0.18303873923790148
000780 72 1d d8 dd 2f b4 d1 3f 64 b3 e8 7f 4f 45 b3 3f
       0.27662274040672863 0.0752763449933816
000790 70 d9 bd b5 72 ad b2 3f 06 2c c6 4a 70 62 c9 bf
       0.07295910775233039 -0.19831660891608766
0007a0 17 ba bd 28 9a 0c e4 3f d6 26 ba 6b 25 2f e6 3f
       0.6265383525586142 0.6932551483198164
0007b0 7c 4a 1e 8c e0 63 dc 3f 2a e0 4c 18 58 2b c6 3f
       0.44359601672582705 0.17319775759256234
0007c0 d0 13 80 06 8f 5d d0 3f b6 59 7c fe ed a4 d7 3f
       0.2557103694419398 0.36944150783656526
0007d0 ea d2 8c 91 d1 aa e6 3f aa 96 a6 76 9c e1 d0 3f
       0.7083518831992397 0.2637702139566992
0007e0 0e a2 0e af 2c 14 c8 3f ca 4d b9 a7 67 a2 bf 3f
       0.18811567828858283 0.12357185215778724
0007f0 92 e2 66 8b db f0 d9 3f 5c 31 c0 07 a8 86 c2 bf
       0.4053257809969547 -0.14473438623862023
