src/experiments/kernel_ABC/vonMises_mean_estimation/results/saved_results/errs_SphereKernel_SphereOptimization_seed10.npy (npy, 240128 bytes, 1 tensors)

array f8 [100, 50, 6]
-0.1853225173933497 0.6624551114386937 0.15936126977372667 0.2326663560065942 0.63203088519926 0.2185569808234053 0.15181948861990913 0.27396966881621165
0.4327615732355064 -0.005197975545952138 0.6641123975921412 -0.5230033413177452 -0.045529569478875764 -0.02847831958262903 0.14606440441221624 0.24254900556640957
0.5541655685432095 0.7809094513910476 0.3229799455632256 -0.16465009004172954 0.6494273192106484 -0.04403611525951498 0.6661697653615943 -0.03306592265528921
0.07758483147532236 0.5788831334005551 -0.17335427923110647 0.1852099809561231 0.23883947871324643 0.7331127929387853 0.38469261215605055 0.08235582220084253
0.48994822871431143 0.455540675900357 0.6191148884860835 0.1197670891301621 -0.4552422073135125 0.26196138669981944 0.1854782889291956 0.3555027214805772
0.555612920673394 0.5045540137541897 0.5285454741688271 0.6721422928203252 -0.2455615364489349 0.1600090312233166 0.42673813740003286 -0.029243078104553788
0.5223033543857741 0.16129441490378993 0.13302520627100617 0.4892219403243169 0.28879953383703433 0.6006127271217969 0.3747744106876674 0.4122749438495019
0.062359988927743915 0.49558264769838645 0.5970597737214071 -0.28913074264035843 0.6643854127428587 0.2616912484207175 0.2633975323752138 0.6268142731835435
0.130413599868422 0.10404701819724589 0.5812349223320968 0.7698423090719971 0.10752686402962112 0.03116944258041559 0.14923183450660935 -0.18629300953588662
0.05433365296701298 0.16195703229269875 0.8773693315530224 0.01567879479200185 0.40794598561213913 0.1853363225892321 0.18800665456564808 -0.04926492666969706
-0.12998510061282662 0.7143599528478861 -0.4490331442420852 0.48310298490771686 0.6009279121571196 -0.10145696122405821 -0.08084576436442896 0.680053963447694
0.3978594037794093 0.03592514795237792 0.026066012335249078 0.09571134077523591 0.49135221119522854 0.7830452490420391 0.1894072413200817 0.31569448264603894
0.15508839280722775 0.40475187024128156 -0.0725310415352437 0.018905670415264864 0.16456669813981697 0.8828414052902274 0.045074510638669296 0.21094466347373775
0.4349235821658885 -0.09273646171217814 0.35888881626810126 0.7917594862339025 0.6759107348296357 -0.38649579441538207 -0.14742300975235686 0.2845353995407417
0.498022402618746 0.20746714707092548 0.09703192716127217 -0.45858920309594337 0.46302382446686075 -0.24157762943025113 0.4471045936132112 -0.5546395857621746
0.43255692385787403 0.41199131705616193 0.22471995393459326 -0.174014248405632 0.5012878522971619 -0.557752311335716 -0.28633164364387403 0.20772411376980826
0.09270490606433107 0.4998259904990639 -0.1685538514494599 0.766811712606394 0.3429114511451107 0.054980072330014396 0.4078137752644952 0.5877409124330354
0.5761380515739277 0.1889032264951517 0.12999753768030498 0.7758891136944512 0.3388373764752547 -0.15286257914061552 0.3764150950376179 0.3181325913203824
0.5491004821024004 -0.18559923119790184 0.23298352205872797 0.5053224534474613 0.11786290511995726 0.583537109525606 0.33001077239712184 0.16931921946089995
-0.4164216614172216 0.13541597763824723 0.3385708711037675 0.7456854025088935 0.4072930014869502 0.2670691960096413 0.5270492086241044 0.03133705531721831
0.4525305138486856 0.5284168669361178 0.16670471192268488 0.39051601639265776 -0.10380678880538977 -0.4677608174678831 -0.36663709524713806 0.6750614192862774
0.016657508853974046 -0.46771192139085305 0.6133093444384892 0.5535736006449561 0.2218099418575726 -0.22174702586917444 0.7011717702961002 0.4657967577394304
-0.22457978829744196 0.24296702529601888 -0.4051128496956121 -0.13339459146555163 0.4572342560200059 0.11694528400141435 0.4104704192356051 0.3871029779876797
-0.22555390891543434 0.6387854077282233 0.1464397914794685 0.2795402850616703 0.006277423029671769 -0.1119225646257328 0.496244850249812 0.800981398864459
0.6793957187325003 -0.12648316595405212 0.4628372723976542 0.18294621241909997 0.4832168951383873 0.2030682988842336 0.554147044795821 0.7563175874131131
-0.3005046661704685 -0.050980212703932985 0.017120353596358065 0.16646035138919218 -0.10640055681708221 -0.40491505146376894 0.812032587121128 0.17417874139236875
0.17394122102346604 0.32359879209011944 0.36014745569309387 0.3841384982958579 0.11931417598828872 0.07388609455159961 0.7556999779417876 0.3632349932124972
-0.2142634167012758 0.49721207934065226 0.7179563869714028 0.37728143533523645 0.21060753623696193 0.06829237197356308 0.22159571654657229 0.8366931121190899
0.1652264745279111 -0.06922966237550304 0.3537638445303381 0.3059113848088446 0.45962455999336427 0.16436409104719157 0.5220357181175561 0.4475882489417078
-0.17277103386012232 0.5089367769469613 0.5823171242826446 0.28339009785758823 0.08948810305254326 0.2816858784085655 0.5857134383677634 0.38752442260760733
0.5322285251491272 -0.026287505811629613 0.3242405774363747 0.4443841110222948 0.6184682165214839 0.17585106416701524 0.38315858191514784 0.6355208251426804
0.0831575201787457 0.11962405624357761 0.5601563977065613 0.33806518757508724 0.2150980819360202 0.5750352450207137 0.07561659611391403 0.6921887693979136
00000000: a05a b5f3 a5b8 c7bf ab4f d60f d532 e53f
00000010: 24ae f638 f365 c43f a6c2 f6da 02c8 cd3f
00000020: a0c4 bfd5 9839 e43f a679 79d6 acf9 cb3f
00000030: 504c 422d d26e c33f 5457 ea13 b888 d13f
00000040: c1c4 0099 5db2 db3f 00b7 9aef 784a 75bf
00000050: 3cd8 90a4 6840 e53f f311 d580 71bc e0bf
00000060: 8051 d3d7 a64f a7bf 807c 02ad 6b29 9dbf
00000070: 34b4 0708 3db2 c23f f4e2 4a87 d80b cf3f
00000080: 6bcb 2e6e b9bb e13f 4994 5bd1 35fd e83f
00000090: 784e dd13 b4ab d43f 9e9f 0110 4113 c5bf
000000a0: 2170 24cd 1bc8 e43f 7cd7 c3d5 e68b a6bf
000000b0: 3efc 7941 4351 e53f c443 d540 04ee a0bf
000000c0: 8828 da79 99dc b33f 1a2a c5eb 3586 e23f
000000d0: 20aa f517 7930 c6bf e5b6 8ced f5b4 c73f
000000e0: 2196 08c3 4a92 ce3f 1271 bef5 a875 e73f
000000f0: 7046 0ec3 cd9e d83f 14e1 fc6a 4515 b53f
00000100: fee8 c3d0 4f5b df3f 5f58 3f14 9427 dd3f
00000110: 1876 d006 cacf e33f 707f f352 0ea9 be3f
00000120: a4e7 0a36 b022 ddbf b531 2cb1 f9c3 d03f
00000130: d4d2 88a8 c0bd c73f 137a 997c 8ec0 d63f
00000140: 64df 70bf 94c7 e13f 1279 8475 4e25 e03f
00000150: 2820 c032 d8e9 e03f ff7e bd8d 3082 e53f
00000160: 6d12 1a78 8f6e cfbf d69a 150a 2d7b c43f
00000170: beb3 057a ad4f db3f b0ac 5fc0 e5f1 9dbf
00000180: 29b2 3586 b5b6 e03f 9405 859e 4ba5 c43f
00000190: d622 3d4f f806 c13f 426e 8b8a 694f df3f
000001a0: e386 3b0a b17b d23f 6c95 912e 3838 e33f
000001b0: 41ff 51cf 4dfc d73f 64ce 3272 b662 da3f
000001c0: f812 0c02 a6ed af3f 2419 1548 a0b7 df3f
000001d0: d37f 3c19 1d1b e33f 6425 fa3a 1e81 d2bf
000001e0: f770 7532 a542 e53f fd72 67a6 8cbf d03f
000001f0: 6483 d952 81db d03f 96a8 7fce dc0e e43f
00000200: 72ba 3191 64b1 c03f fd4a 674c d3a2 ba3f
00000210: ddb3 d6fa 7999 e23f c152 9156 8ca2 e83f
00000220: 7bdb 726c e186 bb3f 6eda 11e2 e1ea 9f3f
00000230: 2b2e 5d5c 071a c33f da0b b707 73d8 c7bf
00000240: b08d 21dd 9ed1 ab3f 2cf5 860e 02bb c43f
00000250: 5a13 31d9 6813 ec3f 8047 7d1b 1a0e 903f
00000260: 9e45 af7a c91b da3f 5e0d 24c2 19b9 c73f
00000270: 1219 6520 9a10 c83f 50ba c5a1 4039 a9bf
00000280: d3b7 0c0e 5aa3 c0bf 82b8 6167 09dc e63f
00000290: 64bf 5583 f5bc dcbf 00d5 31c8 28eb de3f
000002a0: 0cfd 3e2c cd3a e33f b7ab 685a 15f9 b9bf
000002b0: d320 f7d9 4eb2 b4bf 9fbc 9087 00c3 e53f
000002c0: 2edf e849 8776 d93f e46c 1eef c764 a23f
000002d0: a06f 117a 0cb1 9a3f 3067 7cd6 8980 b83f
000002e0: 92a6 798b 5072 df3f 398f fde8 b40e e93f
000002f0: cc33 8c19 7f3e c83f 1a83 9fa1 5634 d43f
00000300: c051 8cbb efd9 c33f cc97 6b63 74e7 d93f
00000310: 58b4 56f3 6491 b2bf 10f0 9110 025c 933f
00000320: 45b7 4285 8510 c53f b2d6 689e 3c40 ec3f
00000330: 500f 279a 0114 a73f c055 7117 3c00 cb3f
00000340: a358 6ab8 c9d5 db3f fc57 33a6 93bd b7bf
00000350: ad62 31cc 08f8 d63f 1584 75fd 1756 e93f
00000360: c379 a38c 0fa1 e53f 0a8f 43db 58bc d8bf
00000370: bb39 c8d6 c1de c2bf de3b e5f6 d335 d23f
00000380: 1e10 fb5a 99df df3f 7fff d491 488e ca3f
00000390: 2755 d399 15d7 b83f 3d21 6687 8659 ddbf
000003a0: 20a8 d6ad 2ea2 dd3f b68f ec08 04ec cebf
000003b0: 7c72 dd95 5c9d dc3f 004c 3d84 9bbf e1bf
000003c0: 0630 683c 03af db3f eb7f 3fd4 105e da3f
000003d0: aa2f 749a 9fc3 cc3f ca58 f850 1946 c6bf
000003e0: cdf2 6fd2 8c0a e03f e791 0e60 1bd9 e1bf
000003f0: d3a9 50f5 4153 d2bf 38af 9d29 b496 ca3f
00000400: 249d b93b 82bb b73f 2598 b826 26fd df3f
00000410: 0c8e cb2f 2c93 c5bf e0b1 7ab7 b889 e83f
00000420: d2e5 05df 42f2 d53f f8a1 2d19 5926 ac3f
00000430: 9fa2 e7f2 9e19 da3f 8b79 ad07 c6ce e23f
00000440: c1b7 2f11 b96f e23f 4de9 f31d fb2d c83f
00000450: 3cdf 7262 c2a3 c03f a67b 1468 15d4 e83f
00000460: 06ea a7f6 82af d53f c877 1841 0091 c3bf
00000470: 3711 ba56 2f17 d83f 52d1 e0cc 485c d43f
00000480: e41f 9b2c 3b92 e13f 8a30 1432 b7c1 c7bf
00000490: 88e3 df6f 67d2 cd3f f7b8 6ffe 992b e03f
000004a0: 3ada e66a 432c be3f 6f46 2d04 56ac e23f
000004b0: 5e7e b180 e51e d53f a29b 158f 40ac c53f
000004c0: 4882 480a a7a6 dabf 2df4 a78d 4f55 c13f
000004d0: de35 b128 25ab d53f 5e2b 1ca2 a7dc e73f
000004e0: 1fac 51aa 1611 da3f da58 a865 a917 d13f
000004f0: ef8a 4d4d 96dd e03f 2015 7b17 690b a03f
00000500: fe04 5b8b 42f6 dc3f 32a7 447d cae8 e03f
00000510: 2c05 e67a 9456 c53f 601f bee3 36fe d83f
00000520: 129d 05eb 1493 babf 74fc 5711 cbef ddbf
00000530: b08f 656f fb76 d7bf 6a07 d467 1a9a e53f
00000540: 90e7 0a7f aa0e 913f a2ac 94fb fdee ddbf
00000550: 6e39 16eb 3aa0 e33f a05e d6fb dfb6 e13f
00000560: 1b5c 1aa7 4464 cc3f 8ef3 0be0 3462 ccbf
00000570: 089b c9c7 ff6f e63f 50b7 4434 9dcf dd3f
00000580: 4441 0acf 07bf ccbf 248f d321 8b19 cf3f
00000590: fa72 2872 5eed d9bf cf66 e7ef 1213 c1bf
000005a0: 52e0 0d78 5343 dd3f 281f 354a 20f0 bd3f
000005b0: cae8 a5b8 2545 da3f ee0a a991 4bc6 d83f
000005c0: a76c 2353 f3de ccbf 125a 6b18 ee70 e43f
000005d0: 5c62 9e01 8abe c23f f247 90ef fce3 d13f
000005e0: c07c d9e9 5ab6 793f 0881 c00a f5a6 bcbf
000005f0: 3468 a8c2 79c2 df3f 4878 1abe a3a1 e93f
00000600: bdf3 1f17 9cbd e53f 6e33 a2b2 9930 c0bf
00000610: 5156 1439 209f dd3f 7230 a20f c86a c73f
00000620: 449e 5f8e 06ed de3f 18f4 475b 24fe c93f
00000630: d256 5295 92bb e13f b186 eaf0 c033 e83f
00000640: 05d8 5fec 773b d3bf a7ef 9c14 141a aabf
00000650: 5454 2b7b ff87 913f 3e0c a6a2 924e c53f
00000660: 0c39 ce1f 113d bbbf 9c7b ecd1 20ea d9bf
00000670: a816 9fc3 2bfc e93f 2f26 f82e 7d4b c63f
00000680: 966d dcb7 b443 c63f b256 43b5 d7b5 d43f
00000690: e71f fce9 a70c d73f 3e2d d4a3 b995 d83f
000006a0: aea2 d1b3 5f8b be3f d470 baf7 32ea b23f
000006b0: fd21 5bb8 b12e e83f bc11 27fc 3d3f d73f
000006c0: 9808 bbcf fb6c cbbf bc6e fc9c 52d2 df3f
000006d0: 4be3 3fac 7ff9 e63f 23c7 8908 6125 d83f
000006e0: c0e5 3610 30f5 ca3f 2056 31e0 9b7b b13f
000006f0: c827 c099 3f5d cc3f e4e0 2aa2 30c6 ea3f
00000700: c9ef 4320 2426 c53f 4cdf d0ff 08b9 b1bf
00000710: 43f6 b01b 11a4 d63f 8498 4e58 0d94 d33f
00000720: 6e08 6721 7d6a dd3f 329c d7ed e109 c53f
00000730: b614 1540 84b4 e03f a0d3 d12e 49a5 dc3f
00000740: f20a 107a 5c1d c6bf c800 97c7 3549 e03f
00000750: 323b 9685 57a2 e23f cbbf 9338 1023 d23f
00000760: 66e3 fd3b b1e8 b63f eaa0 e034 2407 d23f
00000770: 8ec0 d31b 2abe e23f ac0f 603c 33cd d83f
00000780: 2c71 b01d 0408 e13f b876 04a7 1ceb 9abf
00000790: 4e06 088d 5bc0 d43f 80fa ec0d ca70 dc3f
000007a0: 3468 72db 7dca e33f 5835 c8a4 4982 c63f
000007b0: 8e77 a092 ab85 d83f 9b45 fdc4 2f56 e43f
000007c0: 5a8c 95ad cf49 b53f 368b 61a1 ae9f be3f
000007d0: 6a6f 191c cdec e13f 4f45 232b dca2 d53f
000007e0: 087c ac7d 5588 cb3f 7829 6d50 b066 e23f
000007f0: 0817 58f7 9b5b b33f ec1e e70f 6926 e63f
