src/experiments/kernel_ABC/vonMises_mean_estimation/results/saved_results/errs_SphereKernel_EuclideanOptimization_seed10.npy (npy, 240128 bytes, 1 tensors)

array f8 [100, 50, 6]
0	0xbfc24de8d60eb21c	-0.14300260974904766
1	0x3fe820c639f57ab6	0.754000771714195
2	0xbfc475c3960b4cc0	-0.15984387232183472
3	0x3fd7337eb0673454	0.3625179979979454
4	0xbfca071c8e41755c	-0.20334202714995342
5	0x3fdd841c6c831748	0.461188417404959
6	0x3fa25a1eb0b6b270	0.03584381014966176
7	0x3fda98306f70cf8d	0.41553889162900576
8	0x3fe52007270a63de	0.6601596605788662
9	0xbfb17c7dd4b2bec4	-0.06830583994701117
10	0x3fc8348a5a938adc	0.18910340712235196
11	0x3fe2ece4d1fc7304	0.5914177037517168
12	0x3fd663ab593e9585	0.349833333161165
13	0x3fd839892ed56246	0.3785117108687114
14	0x3fe16ad0b51714b7	0.544288972560614
15	0xbfbbea988d397e63	-0.10904839942804183
16	0xbfdf20700235f7b8	-0.4863548299398377
17	0xbfdbdf32e8051a06	-0.4354979768581021
18	0x3fd4c82c6d0ef789	0.3247176232360905
19	0x3fd6a856553ad600	0.35402448962426547
20	0x3fc4e1219ddcd26a	0.16312046249517503
21	0xbfb59756777fdcc8	-0.08434048097102498
22	0x3fe10bf37b2b05bb	0.5327088742853258
23	0x3fe581cbc3028aa8	0.6720942314899121
24	0x3feada7cfa7c49ea	0.839170922498224
25	0x3fc186348b19abaa	0.13690811912542006
26	0x3fc66545e59ac4d2	0.17496560774956166
27	0xbfd85eb265770f99	-0.38077983769130125
28	0xbfb32b35eecee788	-0.07487809257773226
29	0x3fd3cfbcfea5212d	0.309554337193293
30	0xbfa2f6735afd5a20	-0.03703651891435222
31	0x3fcd2ffa078d333c	0.22802663201073325
32	0x3fe7dd7b113fe77c	0.745786222162891
33	0x3fa1668e4d84a780	0.033985564196270523
34	0x3fe2ff0806b7e068	0.5936317568985148
35	0xbfc8930decd0ed44	-0.19198774398123863
36	0x3fd247bceda66de9	0.2856285401155377
37	0x3fbcf97a83284bd7	0.11318174078068864
38	0xbfa2accb86093792	-0.036474571334664266
39	0xbfe541aae4941405	-0.6642660583898993
40	0x3fe145b82f78db51	0.5397606780232796
41	0x3fda84b04f378da3	0.4143486760715069
42	0xbfada4fe680d38ec	-0.057899427606217774
43	0xbfb9b72509ec58a6	-0.10045081608072567
44	0x3fe3d4b2a6bbfa87	0.6197140938309794
45	0x3fafef0ef9d0e508	0.0623707466078916
46	0xbfe05eab8996af40	-0.5115564048078127
47	0x3fe293131676adf2	0.580453437685206
48	0xbfdbba43f7f26c2c	-0.4332437440259038
49	0x3fd761e71add0b42	0.3653505098665627
50	0x3fca962f731314b8	0.20770829314111494
51	0x3fde0be832ae064a	0.469476747028328
52	0x3fe4977e849d4a4e	0.6434929456830305
53	0x3fa13109a01cb970	0.03357725219244656
54	0xbfb1d526ed941c48	-0.0696586923623822
55	0x3fbe773135485728	0.11900622893184887
56	0xbfb98a8ff8a8628c	-0.09977054424997273
57	0x3fb2da30c053e598	0.07364182181836154
58	0x3fe3d960c117c19f	0.6202853938430514
59	0x3fe8634b44cfc428	0.7621208518959337
60	0x3fe344d646f87a74	0.6021529565949337
61	0x3fdb8ec45a618215	0.43058880640276814
62	0x3fe28d3f02c55697	0.5797419599645818
63	0x3fd0beda6320277f	0.2616487472556556
64	0x3fc8db4ff5c1db26	0.194192881582887
65	0xbfb940d0a0d53938	-0.09864524771294192
66	0x3fe76011feed7932	0.7304773310714039
67	0x3fd461b79df8c355	0.3184641878788644
68	0xbfd30a8b770a507e	-0.29751860260990515
69	0x3fdb21c0efdc9f8c	0.42393515991215547
70	0x3fd23f26263e8e55	0.28510431036759104
71	0x3fbfd4afde6c82eb	0.12433909588117913
72	0x3fe39ca2da2ce9da	0.61287062275306
73	0x3fd72764fd04040a	0.36177944859088085
74	0x3fcfe13e0dbc4c84	0.24906135245018757
75	0x3fd3a48e924fdcd4	0.3069187573268668
76	0x3fe0f972c4ba68fa	0.5304502336832961
77	0x3fce42bdc745436c	0.2364117835045606
78	0x3fbcfda3c3076478	0.1132452345986098
79	0x3fd664b22786ad7c	0.349895990943615
80	0x3fbb49e56e0e4d6c	0.10659631668959485
81	0x3fe38148eb68a9bb	0.6095318410710243
82	0xbfe1d5f4fd02fa7d	-0.5573677960999955
83	0x3fda7aee72e4637d	0.41375313968597266
84	0xbfc496585951bd40	-0.16083816872876788
85	0x3fc5f38d7b7d30de	0.1714951374982609
86	0x3fdbb08a0a614c4e	0.43265009893111006
87	0x3fdd9094bfde2839	0.4619495271405217
88	0x3fe5d311f8229da9	0.68201540435705
89	0x3fd1fb43d6a1e093	0.28096099815548675
90	0x3fb0278fd644ec78	0.06310366612608387
91	0xbfbe2d69b944600c	-0.11788044713136986
92	0xbfd99075523b1033	-0.39944203405707696
93	0x3fe38b7efde5fd9f	0.610778327842059
94	0x3fe00290df0be4f8	0.5003132206321927
95	0x3fdc9064ddd88686	0.44631311096791426
96	0x3fbe3ef431eb2eb8	0.11814810007779897
97	0x3fe35cd15f242e0d	0.605080304930597
98	0x3fd78e652b32c40e	0.368066112695545
99	0x3fe0481ee8233cb2	0.5088038000048043
100	0x3fd082e860279224	0.2579899729737767
101	0x3fd98463716ea27c	0.3987053497062687
102	0x3fd609ba2704d2ec	0.3443436986010926
103	0x3fdc793b2c0b2ae6	0.44489936162123767
104	0x3fd57a71542ba26c	0.335598308751776
105	0x3fca5edd69d44ee4	0.2060200468773622
106	0x3fa3dbd12c5bab08	0.03878644625168276
107	0x3fe73a675a478f8d	0.7258793605110313
108	0x3fec63f752211450	0.8872028926931623
109	0xbfb30b0f8b6ea924	-0.07438752321346392
110	0x3fd067d0dd3c8f5f	0.25633641820080827
111	0x3fbf31ddcb3f6fb4	0.12185465061287354
112	0xbfc29e276c6d9cce	-0.14545147699684552
113	0x3fd4cc9e58e76041	0.32498892480862557
114	0xbfcf59ed10339080	-0.24493182459912433
115	0x3fe299a66c0c9d46	0.5812561140382193
116	0x3fd3c555db0ee5f7	0.3089193953743172
117	0xbfb79253bf2631c8	-0.09207652489403195
118	0xbfdbbc892da0f641	-0.43338231521542886
119	0x3fe1d414304c2467	0.5571385329541386
120	0x3fdaea4bab53d0f0	0.4205502675170143
121	0xbfb6fc7a3f464c9d	-0.08979000134267996
122	0x3fe71b6622fba23a	0.7220946009884479
123	0x3fc84a55607acb76	0.18976847849770778
124	0xbfd94e956dd37e59	-0.3954213688393558
125	0xbfd45e2db608bc42	-0.3182482030560473
126	0xbfd2d90bf01e11cc	-0.2944974751374303
127	0x3fd7d9ae4d6f34a3	0.3726611858554156
128	0x3fe8c301e2a8ac73	0.7738046099597241
129	0x3fd43f46b45a25b0	0.3163620721103042
130	0x3fcd93f9b90aca64	0.23107835326443926
131	0xbfc3072f94ff41c4	-0.148656795265664
132	0x3fe49e0baafe1dc7	0.6442926730823552
133	0xbfc78432868ee6bc	-0.183721843435526
134	0x3fdc55dc932c1aa0	0.44274057743352024
135	0x3fe0d425d70d0426	0.525896949788266
136	0xbfd0b18ab512a6fe	-0.26083629305740874
137	0x3fba3e989ad07ed4	0.10251764087342546
138	0x3f9d7f8e8be1b520	0.028806903159808717
139	0x3fd50909a463bedc	0.3286766152732363
140	0x3fd888726e859b82	0.38332806389956187
141	0x3fe9c97ee5051995	0.8058466408772796
142	0x3fd025f1aed853ff	0.25231592249593854
143	0x3fc693c9ca035e8c	0.1763851391212835
144	0x3fdc54e845d8bb48	0.44268233128507406
145	0x3fe1b5d763e750c8	0.5534474326364256
146	0x3fd356a9b0d0e4a4	0.30216448085009007
147	0xbfc2e82b0f2894ce	-0.1477102111831869
148	0x3fd46d2c2305c161	0.31916335506595855
149	0x3fe103e680d7d62d	0.531726123472884
150	0xbfc3f64cf5cc2112	-0.15595399858308007
151	0xbfcfd166ec9f9902	-0.24857794336202949
152	0x3f9ae5374b5df210	0.0262650146246291
153	0x3fd105d75d1706c5	0.265981522472526
154	0x3fed53bc0fb02fbc	0.9164715105448447
155	0x3fa9add478500090	0.05015434235247185
156	0xbfd1bebc6dc02b16	-0.27726660459363595
157	0x3fde1fd394c4069b	0.4706925347128192
158	0x3fda19dda5f02769	0.4078287239541312
159	0x3fc1a0b4d74e2618	0.13771687043144776
160	0x3fe4ffd263f6a721	0.6562282516872281
161	0x3fd2b935cb0a466a	0.29255432918680546
162	0x3fbfd9f26b849bd8	0.12441935658408398
163	0x3fde69cef8800aac	0.47520803706735637
164	0x3fe54817d8013f21	0.6650504320950611
165	0x3f972cb25e1f7b30	0.022631442065058127
166	0x3f9eac2b9ea8ec50	0.029953652914837925
167	0x3fe1f587baefc095	0.5612219477752826
168	0x3fdbe2de272d5db0	0.4357219107236814
169	0xbf9c3570c4b3615c	-0.027547609334619735
170	0xbfa62648aa94858a	-0.043260832617543946
171	0xbfe33d587544a470	-0.601238469161343
172	0x3fe3d4eb9ab5ef73	0.6197412511532846
173	0x3fcfdbb1311f7b96	0.24889197252829537
174	0x3fd1527fa79221b0	0.2706603180345395
175	0x3fe0a8d583bc7db6	0.5206096241926648
176	0x3f5e973b088c2f00	0.0018671108720721974
177	0x3fdf0a36fc3e7df8	0.4849984610864051
178	0x3fe4be3df6b74864	0.6482229059859148
179	0x3f90e16ac1c3b310	0.016484897686427635
180	0x3fa54961febc3860	0.041575491281137245
181	0x3fc7c61b7d79d35b	0.18573325754882827
182	0xbfcac4553d7140ac	-0.20911660671345567
183	0x3fd20441dad15338	0.28150984162248305
184	0x3fe962e9ac14d29b	0.7933243142093319
185	0x3fdd6d499d9eb00f	0.4597953833824712
186	0xbfdf63e68fc89241	-0.4904724506507457
187	0xbfb71ac5b66c4e90	-0.09025226310432743
188	0x3fe69c5939f17d16	0.7065855151849145
189	0x3fc77ff351796340	0.18359223821860304
190	0xbfdb4ed2b05f39e8	-0.42668597434831534
191	0x3fc85e59a65e405a	0.19037933944173596
192	0x3fcf3dc789cd8b80	0.244072859083726
193	0x3fd5e42806bf30fb	0.3420505586516495
194	0xbfc4149905ef18f6	-0.15687859334702353
195	0x3fda4f5cb727c8f4	0.4110938824297954
196	0x3fe965285675b7d0	0.7935983360928223
197	0xbf6bc080290b2f80	-0.003387689889086276
198	0x3fe9f790cfc22234	0.811470418718335
199	0x3fcfbb07f39bc92a	0.24789523501346739
200	0xbfb94abcbb0d55d7	-0.09879664961530153
201	0xbfc99107c5b4c4de	-0.19973847535724237
202	0x3fd36426bfc99761	0.3029877541470026
203	0x3fd7d3a9c8dda37f	0.3722938977794498
204	0x3fcc23ca84d65088	0.21984225736799012
205	0x3fbb11b2fda36fb8	0.1057388180956299
206	0x3fcc4664c8ea6995	0.22089824495635627
207	0x3fe4db98506b654e	0.6518060274785655
208	0x3fe0e3a2745abe56	0.5277874252842121
209	0x3fdbc4beaed7f879	0.43388335299085373
210	0x3fe0efd4b477b214	0.5292762303120662
211	0x3fdfcee95a2fac99	0.49700387770890014
212	0x3fd990bc26e65dc4	0.39945892142119654
213	0x3fdb3814b534ec20	0.4252979058834985
214	0x3fd074e6295b40b1	0.2571349529143943
215	0x3fd079fa11e89194	0.25744487522958903
216	0x3fd6834c93bb1871	0.35176386286582956
217	0x3fdc17228244e514	0.4389120361480121
218	0x3fcaecfa28f35baa	0.21035696982900493
219	0x3fd512190602b734	0.3292295988747924
220	0x3fe656fe80135452	0.6981194020724024
221	0xbfcab9d86fe284e6	-0.20879655326010677
222	0x3fe248c9f266b0cc	0.5713853582760975
223	0xbfcc9f1523091905	-0.2236048146316493
224	0x3fcedfb9cf2e14bb	0.24120257011614918
225	0x3fdf61a6b305a563	0.4903351543676619
226	0x3fe0e0b54bddaa69	0.5274301988368509
227	0xbfcbab7b72c3a3f9	-0.21617072204324453
228	0x3fe37d7f1ce2cf68	0.6090694011859172
229	0x3fe50e5186e00d8a	0.6579978594094638
230	0xbfce4d40d273bf71	-0.23673258090957064
231	0xbfcb43f4e47a1c15	-0.21301137119391514
232	0x3fd3033a3122f763	0.2970719795083509
233	0x3fb47cb20567a7de	0.08002770072894758
234	0x3fe08ea61e0ed88c	0.5174131953306342
235	0x3fe27a4a5c6a5182	0.5774280362116289
236	0x3fd73c0a4bb36992	0.36303956406268256
237	0xbfaea57ad7cf9128	-0.05985626110467229
238	0x3fccff3654a9d83f	0.2265384591480046
239	0x3fdd7a7ce7696264	0.4606010684852093
240	0x3fdabc810438bbeb	0.4177553693033917
241	0xbfccbddd459b8339	-0.2245441999321203
242	0x3fd9b1d19448838f	0.4014781902388273
243	0x3fe016bc761663a0	0.5027754122157724
244	0x3fbf61a0ee6da572	0.12258344479564245
245	0x3fe2d317a72d1361	0.5882681145818475
246	0x3feb627c57143da2	0.855772180630016
247	0x3fca3ae0b8869e58	0.20492180833865592
248	0x3fa9b30b3ec3af50	0.05019412175337712
249	0x3fc62ca46d325952	0.17323737460965077
250	0x3fdc1d7e4a7884d6	0.4393001296285325
251	0x3f889dbd89909d98	0.012019615898750044
252	0xbf902cd4b6bb4c40	-0.015796016362241483
253	0x3fdc8564e5a9c4c8	0.4456417315296446
254	0x3fd332e272ed2736	0.29998074744490866
255	0x3fd4db0b02124613	0.3258693237522447
