src/experiments/kernel_ABC/vonMises_mean_estimation/results/saved_results/errs_EuclideanKernel_EuclideanOptimization_seed9.npy (npy, 240128 bytes, 1 tensors)

array f8 [100, 50, 6]
000000 84 53 f1 0f 52 72 cd 3f 64 9e b4 e6 bb 3e e4 3f
       0.23005128649188233 0.6326579576461424
000010 c0 a9 42 2c 72 51 d0 3f 7d ca 53 87 1a 0e e2 3f
       0.25497106859497976 0.564221634207868
000020 80 52 1c 75 31 37 86 bf 84 4c 5c 9a 4c dd d9 3f
       -0.010847460161621969 0.4041320331027196
000030 18 a8 e9 96 ff cb b6 3f d4 4b 5d d1 e8 69 cb 3f
       0.08905026850121123 0.21416959975121463
000040 fa b1 3b c4 6c 21 db 3f 30 fb 98 9c 04 51 e0 bf
       0.42391509211918754 -0.5098898943468608
000050 a3 95 8a df 64 76 bd 3f 68 67 58 10 6e 79 e6 3f
       0.11508779962112796 0.702322990345448
000060 40 56 5e 3c 37 e9 da 3f 40 41 7d 74 fb 1d da 3f
       0.42048436065065076 0.40807997108369776
000070 ef 9f 78 5e 08 2a e2 3f b0 ef 80 36 e8 f9 d4 3f
       0.5676309437885702 0.32775311777708804
000080 ca 1e 6e d3 16 13 d3 3f ca 8a 27 fd e5 ca d7 bf
       0.2980401100871687 -0.3717589351855791
000090 b0 96 00 f1 f9 45 ae bf b6 d4 d9 2a 48 36 e5 3f
       -0.05912762705729102 0.6628762089664153
0000a0 96 1d 3f e2 a4 8d e0 3f d0 f8 74 3c 39 52 ce 3f
       0.5172905367734753 0.23688426448820232
0000b0 1a e0 6f a3 8e 55 de 3f 28 36 85 90 0c e4 b7 bf
       0.4739719959320624 -0.09332350281075519
0000c0 8d a1 c7 d4 f9 5b d5 3f 6a 96 1f eb 02 ed c8 3f
       0.33373876361158566 0.19473301392206405
0000d0 7f a6 82 20 17 25 e6 3f 4e ab 3d 3d 47 91 d1 3f
       0.69202762937239 0.27449208241039436
0000e0 6e 98 0a fb 3f 5e d9 bf bc ba 74 a3 a3 e3 d7 3f
       -0.39637755885849557 0.3732689949273824
0000f0 40 cd 0b 1a 3a 17 c7 bf bc 98 70 78 1a 35 dd 3f
       -0.1803963305643297 0.4563661743326397
000100 4d 95 62 14 23 2d e3 3f ae 47 8d 6e c3 d7 c4 3f
       0.5992598913332273 0.16283457658806583
000110 7d 47 3f e7 d2 2d e2 3f a2 f5 d0 25 c1 d7 cc 3f
       0.5680937305971693 0.22533430429932105
000120 ab 4d 7d c4 e7 db d1 3f 79 8d d4 48 84 d8 d7 3f
       0.27904695690559816 0.37259013283092873
000130 a3 19 33 6e b2 d2 d7 3f a1 63 4a fb 39 b0 d4 3f
       0.3722349239509645 0.32325601139160126
000140 ba 26 8c ea 6b 4f e4 3f 26 b2 27 2d 59 b9 d7 bf
       0.6346950131421274 -0.3706877652137187
000150 62 a0 27 64 cd 5d e1 3f 40 93 31 62 67 48 d2 3f
       0.5427004772327673 0.2856691798136133
000160 b1 3b 04 73 d1 e7 e7 3f 5e a6 98 36 52 e9 cd 3f
       0.747048115388557 0.23368289628824618
000170 b3 6e d9 13 76 bc ba bf 58 1b 92 1e f4 e1 90 3f
       -0.10443819031336936 0.016486944547547594
000180 4a 2d 47 15 10 4c d4 3f 35 35 5b dc 24 c0 e0 3f
       0.3171425063889798 0.5234550765832525
000190 f0 23 cf cc 51 51 d5 3f 49 61 e2 9d 9b d2 df 3f
       0.33308835030453476 0.4972294847334707
0001a0 26 37 32 12 0f b5 df 3f 34 d9 51 5f 97 e1 c2 3f
       0.4954259565064255 0.14750950006755092
0001b0 c4 09 f1 b0 85 b9 e9 3f f2 f1 16 86 e0 a0 c6 3f
       0.8038967567338706 0.17678457782120877
0001c0 4c ca a2 b9 4c 22 e0 bf de d8 5e bd ec 95 ce 3f
       -0.5041869760228308 0.23895034071546822
0001d0 40 bc a3 a7 e3 18 7d 3f 50 ff 52 12 70 02 bb 3f
       0.007103814388968621 0.10550594756477705
0001e0 58 18 41 d0 2b e3 ba 3f ea 34 33 16 11 69 df bf
       0.10502885660489036 -0.49078776519748024
0001f0 a4 ed 1a 6f 5d e1 ea 3f c7 97 e6 c5 d8 aa c6 3f
       0.8400103731177535 0.17708882964251257
000200 93 59 9b a7 a0 6f b4 3f fa 67 12 7a 6a a1 b1 3f
       0.07982830135310896 0.06886926155348752
000210 40 fc 66 f5 4e 8e 87 bf 2a dd 90 b5 ed 70 e5 3f
       -0.011501900543292476 0.6700352235992899
000220 5a 0a 49 c7 a7 45 d2 3f e4 cf c8 71 54 5b d7 3f
       0.28550142728287187 0.3649493323493955
000230 75 0a 2e c0 f1 29 e2 3f 90 46 2f 7f 25 49 be bf
       0.5676201585304869 -0.11830362658590787
000240 fa 03 18 58 02 f7 c6 3f fd 54 e1 1e d1 16 d4 bf
       0.17941312123733139 -0.31389263167996245
000250 5a 74 9c 16 33 3d e3 3f c2 42 6a 0f 2c 1d e3 bf
       0.6012206498741179 -0.597311048610287
000260 b2 4b 7c 46 a8 b3 d8 3f 9e 66 72 c6 45 45 a7 bf
       0.38596541293480435 -0.045450382685158205
000270 a5 7b a5 6d c4 34 d8 3f e2 74 1e aa b7 10 b4 3f
       0.37822066028268814 0.07838008788390341
000280 ae 7c ac 31 27 ea cb 3f 9a c1 27 53 49 ac ea 3f
       0.21808328557469764 0.833531057751361
000290 97 12 ed 0d 50 f5 d1 3f 76 98 65 01 87 11 c6 3f
       0.28059769973723675 0.17240989273267687
0002a0 b0 96 b5 b9 0d 2c aa 3f ac 67 a8 02 ce 2b e2 3f
       0.05111735240897752 0.5678472568426876
0002b0 b0 1e 35 3b 9f 73 e2 3f a5 03 04 af c2 e5 d5 3f
       0.576614013328216 0.34214846698164997
0002c0 0f dd e6 bf 82 94 d3 bf fc 32 60 a2 52 3b d7 3f
       -0.3059393762627715 0.3629957757664639
0002d0 8e a6 38 28 55 43 d0 3f 1e 5f 0c c1 17 7b d5 3f
       0.2541096585069703 0.3356379876363337
0002e0 29 b4 3c e0 99 35 e2 3f ba 57 51 72 4d 1e ca 3f
       0.5690431003218964 0.20404975969239364
0002f0 2e d3 c0 bf de b2 e2 3f ea 41 b3 c8 a8 c8 d5 3f
       0.5843347306423305 0.3403722724879389
000300 36 ae 63 70 77 21 ce 3f 38 af e2 d5 2a 1a d2 3f
       0.23539631831896352 0.2828471268392039
000310 d2 ee 75 0a 6e d2 c9 bf 10 51 5f 56 57 14 e8 3f
       -0.20173430929923214 0.7524830519637664
000320 10 38 c4 d1 2b c2 de 3f b3 ab 67 1e 18 e7 c4 3f
       0.48060126767166 0.16330243572823874
000330 d4 4d 4d d2 ad 78 b8 3f 80 ba 6f 81 3a 0b 60 bf
       0.0955914152557889 -0.0019584791839329374
000340 5e 99 4f 51 10 86 e0 3f 8b 27 ff 3b ca 79 d9 bf
       0.516365202722948 -0.39805847033550695
000350 2e af 6b 23 c6 20 e6 3f b2 5f 33 d2 ff f0 d2 3f
       0.6915007297334108 0.2959594300023084
000360 da 8f f4 c9 26 89 dd 3f 7b 4e 51 4f 1f c8 aa bf
       0.46149606439780444 -0.05230806201202839
000370 90 33 be 02 bb 6a c2 3f d9 8b 2a ea 6b 24 e0 bf
       0.14388215669569293 -0.5044459889944576
000380 ff 18 e2 0a 5d 1e d7 3f 9b 94 e9 2c c9 b0 e3 3f
       0.3612282377511206 0.6153303029247071
000390 44 9c c9 a9 ae 70 e0 3f dc 01 10 8f ac 2f b1 bf
       0.5137551609194664 -0.06713369839417943
0003a0 be c8 54 d7 6b a5 e0 3f 65 ef f9 cf 6d 4a bc 3f
       0.5201930242240207 0.11051069572016343
0003b0 72 74 02 aa 51 45 ac 3f 04 ad 74 b4 f0 5c e5 3f
       0.05521636200249071 0.6675952457930241
0003c0 c6 4d a7 87 ec 08 c3 3f 5d 66 26 77 71 75 d0 bf
       0.14870983718593161 -0.2571681655477727
0003d0 b0 cf 7b 93 5e e1 ec 3f 00 40 51 9b cd 36 17 bf
       0.9025109177150537 -8.855466769941422e-05
0003e0 52 ee 5d cf 38 f4 d3 3f c0 dc 60 85 78 17 6b bf
       0.3117811226909214 -0.0033070901800119346
0003f0 b8 fd da a0 05 e8 b6 bf aa db af c9 37 1f e2 3f
       -0.0894778745377981 0.566310781402412
000400 9a e3 74 42 87 7d e5 3f 1a 9a a6 98 0a aa da 3f
       0.6715732858639172 0.41662850291541675
000410 40 f0 b5 d7 04 71 bc 3f 94 97 8b 0f 6b b5 c7 3f
       0.11109953180670207 0.1852239442734428
000420 18 98 25 e9 7d 31 ba bf 78 ac 78 22 0c a3 d3 3f
       -0.10231768552839104 0.30682662359567514
000430 87 1e 4d d1 45 a0 df 3f fa bd b3 31 6c 62 d6 bf
       0.4941572708089343 -0.34975724080774706
000440 f6 24 25 86 8e 23 d2 3f db 64 25 2b 49 6e e5 3f
       0.2834202108393379 0.6697126238533672
000450 70 88 84 11 eb 0d c8 bf cc 87 44 fc 7e f0 b7 bf
       -0.18792475085598737 -0.09351342829589199
000460 3e 4e 23 12 7d 24 c0 bf 63 41 54 25 48 39 d0 3f
       -0.1261135424198176 0.2534962048094
000470 52 11 73 5a 79 83 ec 3f 80 65 7c 69 75 4d d2 3f
       0.8910490767089334 0.285977700246427
000480 50 fd f5 80 73 e0 bd 3f d8 11 7f 49 32 5f a3 bf
       0.1167061033101977 -0.03783566615269124
000490 e2 2d b6 8f d6 d5 c0 3f e4 6d e8 f8 9e 1a bf 3f
       0.13152582184953504 0.12149995400289232
0004a0 98 d1 18 06 93 94 e0 3f 4a f1 40 6f 1f 79 ea 3f
       0.5181365126687068 0.827285496990535
0004b0 88 4d 83 8a ea 47 cc bf 42 da 00 19 ab a2 e6 3f
       -0.22094470752072604 0.7073569763513847
0004c0 fa fe f6 27 a1 ed dd 3f bd 27 db 15 7e c0 dd 3f
       0.467628754642632 0.46487381109602294
0004d0 c4 5d 1c 19 eb f7 bf 3f 40 9e 0b 76 64 9c 94 3f
       0.12487668383652478 0.020127839760702537
0004e0 bb e2 11 13 d3 f2 d8 3f 5c 40 16 97 db 72 e1 3f
       0.389820831892887 0.5452707243839643
0004f0 7e 28 29 6e df 60 b7 3f 29 33 e4 1c d6 c5 c0 3f
       0.09132191123458885 0.131037487132198
000500 fa 68 a8 24 e8 dc c7 3f 40 7b 4b bf fa 68 e6 3f
       0.18642904081281825 0.7003148781039741
000510 9d fc cf 32 16 2f d1 3f b5 36 8c ab dc 03 e0 3f
       0.26849894487527043 0.5004714346448141
000520 45 14 a4 d3 98 c2 e1 3f 82 b1 61 cf 70 0f e3 3f
       0.5550045140850065 0.5956348467275776
000530 54 50 89 cd 8c 38 b9 bf 5c 4e f1 57 fd ee b1 bf
       -0.09851913469293666 -0.07005294224773578
000540 36 c5 bc e0 92 c4 d6 3f f7 e2 d3 5b bc 8b dd 3f
       0.3557479090405481 0.4616537949328143
000550 60 b0 53 b1 87 07 b0 3f b2 22 4f c4 e6 1b dc 3f
       0.06261489943762077 0.43920296831906136
000560 bf 11 5f 84 22 a4 df 3f 43 66 f1 26 90 f4 dd bf
       0.4943929951371295 -0.4680519466688546
000570 f8 c8 11 29 67 68 b5 3f f2 90 e0 7c 22 95 c7 bf
       0.08362431290314365 -0.18423873040695288
000580 c4 e9 75 72 9a e4 e9 3f c3 43 fa 30 94 8e ce 3f
       0.8091556773718414 0.23872616187557413
000590 dc b1 15 ca f6 1c b7 3f 7a c4 f2 63 9a 4c df 3f
       0.09028570588788604 0.4890504814202995
0005a0 c4 a6 78 3e 70 91 a9 bf e3 4e f3 c3 30 b4 db bf
       -0.04993773233975454 -0.4328729547098488
0005b0 e9 23 33 b4 01 e7 d7 bf f0 69 98 74 58 3a e5 3f
       -0.37347452733643977 0.6633722569707157
0005c0 a3 bb e0 51 fc 9e de 3f 56 c7 33 dc 2c de a4 3f
       0.47845371242413587 0.04075756252303957
0005d0 ee 47 53 d6 30 7f e5 3f 5a bf 91 b0 dd 90 e5 3f
       0.6717762170831045 0.6739338348979615
0005e0 77 48 e2 f7 ea c0 c1 3f 04 5f eb 2d 47 20 c1 3f
       0.13869988540369935 0.13379754774245367
0005f0 00 18 23 90 a9 e5 62 bf 26 16 74 93 97 a9 ce bf
       -0.0023067771699940565 -0.23955053996921655
000600 24 e6 0f 56 47 87 df 3f 0e df 5b 72 87 79 b8 3f
       0.4926317539644478 0.09560438672985702
000610 8a 73 fd 56 54 fa e7 3f 5e 9d 5b 6f 71 3f d3 3f
       0.749307794477873 0.30074725985328665
000620 e5 8c 9f ae ed 80 d2 3f 2a a2 d5 78 7f d0 bc bf
       0.2891191678338159 -0.11255642604886221
000630 44 a7 f1 14 7e fc d0 3f f4 18 91 68 3e 09 b9 3f
       0.26541091962154817 0.0977972989358909
000640 fd 3a 57 48 e0 4a d5 3f 38 fc 7f 2f f1 b6 bb 3f
       0.33269507469678655 0.10826022538820801
000650 b3 45 8a 21 0a 9e c8 3f 21 c7 ea ba 5b e8 eb 3f
       0.19232298505498377 0.8721140528416279
000660 4a 66 45 40 5e 03 e4 3f 37 11 2d 70 5a 91 d1 3f
       0.625411153344609 0.2744966598004512
000670 10 4c 26 41 16 36 d4 3f bd 0c d0 b7 d3 a2 e4 3f
       0.3158012043215317 0.6448763456432044
000680 3e 4c a1 16 36 3f a5 bf f5 ef cb eb be 49 c0 3f
       -0.04149788881536452 0.127250542769502
000690 c4 4c 79 67 24 ed dc 3f bb a2 84 9f a5 7b c8 3f
       0.4519740114676092 0.19127340592355843
0006a0 36 94 de e6 72 8c eb 3f f8 14 cb 4d ef 37 9c bf
       0.8608946332138945 -0.027557124255300075
0006b0 55 cd 7e ee 5b 1d c0 3f 0c df b6 af 3f 09 a3 3f
       0.12589596886901214 0.03717993755293322
0006c0 00 34 58 c2 71 35 a9 3f 94 b7 ca 9a 3c 43 cb 3f
       0.04923587319726863 0.21298940237232655
0006d0 b9 1b c8 1a 9d f1 e0 3f c8 c8 25 a6 9b 29 ea 3f
       0.5294938586310912 0.8175791020460332
0006e0 58 3c 3c 98 d3 69 a9 3f 30 d9 33 72 2d 24 9f bf
       0.049635517438326004 -0.030411443801278526
0006f0 ec 68 b0 f8 79 fe cd 3f a8 d1 78 8a fd 8b a3 bf
       0.23432850497267255 -0.038177416947664355
000700 67 b4 a5 a6 65 b9 e2 3f 10 2d 6a e7 d2 e6 bc bf
       0.5851314787702336 -0.11289709234022305
000710 c3 44 c6 78 e3 4a d8 3f 19 63 42 cc 2f 55 e5 3f
       0.379570835059962 0.6666487683715757
000720 f4 18 6f bb f5 36 df 3f e1 e3 35 1c 4f ac c3 3f
       0.4877294855508716 0.15369595410791617
000730 d7 89 df fe 23 a1 d6 3f 39 23 04 29 e8 1a d9 3f
       0.3535852421756806 0.3922672653721296
000740 40 22 b5 71 d0 83 e3 3f c8 7a ca 9b cc f3 d2 bf
       0.6098406048632299 -0.29613032545050233
000750 50 26 26 3f 56 34 93 bf 1c 97 a3 80 5d 92 b7 bf
       -0.018754336933432036 -0.09207710638619598
000760 ca df 2b de bd 22 eb 3f 7c f9 7f a1 4f 0a d6 3f
       0.8479909266743502 0.34437933703875223
000770 1b 60 84 14 0e 45 d8 bf 4e a2 4c 8d 98 2d b9 3f
       -0.37921478274938786 0.09835198831263733
000780 45 9c ae 0e e4 54 e4 3f 1a 41 a2 5b 08 ea ac 3f
       0.6353626524695605 0.0564730274064706
000790 7a eb b0 4f d0 07 c2 3f 81 ec 63 05 79 ed e6 3f
       0.14086345568815856 0.71648837139891
0007a0 80 d6 02 55 0f fa be bf 30 da e1 b0 21 3d cb 3f
       -0.12100311112848239 0.21280308853938967
0007b0 e7 22 8c 38 ec d4 ec 3f 84 27 40 83 a5 d4 b6 3f
       0.9009915451470903 0.0891822286068003
0007c0 b6 f2 04 7e 4d bb c1 bf 82 8d 71 70 9f f7 c4 bf
       -0.13852852490699313 -0.16380684843452903
0007d0 02 93 df 6d be b0 c3 3f ff 6e 2a 99 d7 47 d5 3f
       0.15383129467877416 0.3325098987349832
0007e0 fc fd 41 bc b1 51 b3 3f e2 64 6c 13 97 ae c0 3f
       0.07546530576836824 0.1303280682412043
0007f0 36 f7 ed d8 8a 3f c7 bf da 03 5b 08 46 53 ed 3f
       -0.1816266593195281 0.916415230101957
