src/experiments/kernel_ABC/vonMises_mean_estimation/results/saved_results/errs_SphereKernel_EuclideanOptimization_seed2000.npy (npy, 240128 bytes, 1 tensors)

array f8 [100, 50, 6]
0.18147707906649502 -0.16112712625514702 0.6271762262260652 0.25167543650032886 0.6794206939117051 0.15094380042533687 0.6126423274403349 0.31166491424660925
-0.2844353682463931 0.6651354342461753 -0.0020303841934830452 -0.06496816704484171 -0.24468392965357422 0.4773908550094356 0.6404149217476272 0.5055504178935952
0.08459517720682991 -0.19830025642551208 0.41773040112719473 -0.3241971342496413 0.08835313382727174 0.3863500677811807 -0.19294983781102268 0.7253242014171158
0.29585270338129555 0.25736692641342085 0.7868398201496443 0.3646300030690753 -0.0949468865307787 0.2917742491801664 0.3844961165023126 0.060948882218816294
-0.28822313596315896 0.27767803915719425 0.8237368228423886 -0.09862805856405024 0.5034734499033702 -0.16134849187254827 0.16898663479904583 -0.3166377237316801
-0.09680719062020891 0.7630806616617655 0.53866690729156 0.09643845529676862 0.47126834995689026 0.688282799901567 -0.06290897323488281 0.02740379750018085
-0.2436507402261735 0.22909128123447428 0.6580629301356352 0.22382785157400337 -0.3374958593630377 0.5395123594577238 -0.1685456691284878 0.6996709867885887
0.49245765290214827 0.00675441420467951 -0.483214039070889 -0.0773882031772907 0.493449013995749 -0.6479372376819437 -0.2390837342942271 -0.1676406039448779
0.3490322543985907 0.35998012629346926 -0.36770050604060556 -0.09370339307479081 0.5146525833617382 0.6490015091015715 0.41081243078193563 0.033696060618821355
0.10953257105680947 0.7750132341208906 0.47382980053455825 -0.2931239116412253 0.2771700640163322 -0.009265904533014457 0.6502038648902411 -0.051083652193911824
0.276810250659238 0.5284658376306751 0.4647878701376151 0.05192705066474965 0.4687205847056717 -0.04997262971037594 0.5095759812905504 0.4778606883336911
0.5295501004364705 0.09671505388595647 0.07337479337863673 0.07313311224994212 -0.08000169285402986 0.3315414253040089 0.6656642221301196 0.6556022598307897
0.3985653343327471 0.08495325269265783 0.17548435280315616 0.05169099172986502 0.5895907346228788 0.6729297117595502 0.5965301801985703 0.4899794453368397
0.4255910665106244 0.40523119276027375 -0.21085559943633486 -0.11946367983004008 0.28315912011291255 0.14173448589704774 -0.06712324468343472 0.3554630814276768
0.3819534810715616 0.7892842032507295 -0.41591717634707137 0.5531301949470201 0.46381173812579957 0.285052034626782 0.4738879489238341 0.007427234944922145
0.5356907575319084 0.45184463010201703 0.4444713166087909 0.4533124550805754 0.2883789352488781 -0.15052331293661025 0.3220771927119536 0.7723390723530017
-0.00907640837062601 0.09677787016824207 0.537436200631275 -0.038267872299965644 -0.18977147068465317 0.3807666580924575 0.4970872976200847 -0.3562290186285217
0.23662510071668938 0.6236896781869444 0.25731092835502295 0.2829770965406512 -0.13943809584569958 0.6543476027151117 0.6019785359606038 -0.20908428527949943
0.6631940996780945 0.2126252047400538 -0.13509872503566753 0.10385947509832688 0.6967085179338091 -0.022864806975794696 0.8305883330307158 -0.14541508042318455
-0.04429936531466214 0.18651021919457322 -0.0660763895322041 0.4978521498013504 0.6513482724894414 0.11450517420181278 0.43951846301674247 0.1381548801174765
0.4746024092384954 0.3537228465717023 0.6170840710961283 0.24994294351972537 0.43022968718486443 0.503584095360016 -0.34181909321579507 0.03465542736530368
0.3188778434946889 0.2822375711424574 -0.24559710935817228 0.5994844582384783 0.03650668821239822 0.6305705256101924 0.10229029533721745 0.05761334459901965
0.4536739849435141 0.20102134621846918 -0.28953138103417825 0.8100290849575948 0.03042743524462105 -0.02391477705493733 0.0044554153189121926 0.6480008372272437
-0.3643580995668523 0.6676917642060918 0.15172026830029306 0.4598261146132878 0.6688425035419948 0.15871582598583378 0.12051337485670582 0.5276797668635052
-0.2939943510663068 0.3763185683834297 0.49241469714557407 0.6553981219339508 0.3063653136144427 0.07756678608566803 0.32133337136899887 0.3495433050182146
0.09789970426461131 0.5769409612509021 0.527050639596548 0.3928283282944256 0.42440720680001687 -0.2645443305547854 -0.16992671531871822 -0.3791166122260714
0.6777371265820671 -0.34343900630883034 -0.23840456712753166 0.39938344425299444 -0.2465568502271997 0.3935797913734081 0.7335661709132517 -0.17268349814177736
0.6524306575756785 0.5332995204410972 0.1745335361435207 0.09060928946293595 0.3004408751998009 -0.40123372818085823 0.3384122533142472 0.6071644319567228
0.06574444110056016 0.1332356338342068 -0.7033740956980907 0.004217791706532442 0.298202810279032 0.3703379760327746 0.7870336109262985 0.27009828290085436
0.24500753304723996 -0.14665866698152613 0.34730212396783144 0.5968789285557272 0.20217771771289775 0.36144691122258704 0.5223332875859321 0.2806117139150877
0.15551598295831537 0.15638009222175067 0.5351965358598686 -0.394895351208726 0.6736894963176219 -0.23478122820100675 0.3867618966128789 0.47918979193701755
0.5467538441070625 -0.34450264980815387 0.4499340775878058 0.026947229167645415 0.19476201183494796 0.5713529908050847 0.1051274403008772 -0.34451836926981355
00000000: c837 c813 a43a c73f 38d5 e14c d09f c4bf
00000010: 5a07 8fe0 d311 e43f 906d 3e4a 731b d03f
00000020: de71 9277 d0bd e53f cd2d 2e5f 2052 c33f
00000030: cb0c 1015 c49a e33f 3cfd 7f65 51f2 d33f
00000040: 176a 1c67 3034 d2bf 48f0 2f1b ca48 e53f
00000050: 60ca b236 06a2 60bf d418 bdf8 c0a1 b0bf
00000060: cc03 dc91 cd51 cfbf 4333 6b5f 928d de3f
00000070: bed8 186f 477e e43f c4a0 ea11 782d e03f
00000080: 44ae 808f 07a8 b53f 1068 111e e761 c9bf
00000090: 88b8 d84a 18bc da3f cdc8 4356 a5bf d4bf
000000a0: c988 499c 4f9e b63f 0d5d 7ba2 f5b9 d83f
000000b0: 3b5b 958d 94b2 c8bf bbae 8219 db35 e73f
000000c0: b22c 5d2d 40ef d23f b021 0121 b378 d03f
000000d0: bc76 d7b3 ca2d e93f 999c 9414 1956 d73f
000000e0: 3cb8 816c 704e b8bf 1fcd 82e6 6dac d23f
000000f0: 8740 7499 959b d83f aa13 b71f b134 af3f
00000100: 9a63 ba73 3f72 d2bf f8d7 3f1c 7ac5 d13f
00000110: e3ce 5353 0d5c ea3f 4225 003e b03f b9bf
00000120: 18a8 375a 741c e03f 7ffe ec3f 11a7 c4bf
00000130: c724 f6a2 5aa1 c53f 72e0 06df ca43 d4bf
00000140: 573f bb25 5bc8 b8bf ad83 c122 286b e83f
00000150: 9e26 c861 c23c e13f 968d 93cb 30b0 b83f
00000160: 3e1a adb9 4229 de3f d63f 7fa6 6906 e63f
00000170: ec33 ab6e cd1a b0bf c0ab 32b8 bd0f 9c3f
00000180: 2474 758c f22f cfbf ffb3 59f4 dc52 cd3f
00000190: 3f8f 74fd d90e e53f 62de 381b 64a6 cc3f
000001a0: 78fa 9f3b 8899 d5bf 3c14 756c af43 e13f
000001b0: 8507 658c e792 c5bf f7f1 c668 b463 e63f
000001c0: 204c 781a 6d84 df3f a0c4 cd41 84aa 7b3f
000001d0: 20c3 b193 faec debf 6a1f be99 b6cf b3bf
000001e0: 67bb 562c ab94 df3f 7c8b b6df e6bb e4bf
000001f0: 1f4e e6b9 4b9a cebf 6864 b64f 3f75 c5bf
00000200: c507 7961 8b56 d63f 51fc 6815 ea09 d73f
00000210: f8b0 0ab4 6788 d7bf 30cc c710 f2fc b7bf
00000220: 07e6 cab1 0878 e03f 2eab 14d0 9ec4 e43f
00000230: 54ea bf38 c04a da3f 3047 b92c 9c40 a13f
00000240: b829 899a 530a bc3f 7c86 d08d e8cc e83f
00000250: e4a1 4a3a 3a53 de3f 922d 8bcb 8ac2 d2bf
00000260: 0958 1882 27bd d13f 404b 7fa7 00fa 82bf
00000270: e4f6 ed55 78ce e43f 2af1 10ef a227 aabf
00000280: f7da 7157 42b7 d13f f3a9 3530 31e9 e03f
00000290: 2763 749f 15bf dd3f ec02 c4b0 2e96 aa3f
000002a0: 8076 919f 84ff dd3f 9c34 9a34 0396 a9bf
000002b0: 6b0a cf49 724e e03f f0fb 1bff 4495 de3f
000002c0: 23fb 5e0d 13f2 e03f 7097 7859 51c2 b83f
000002d0: f878 e9c1 b0c8 b23f 4042 5e05 dab8 b23f
000002e0: 1cc5 6eae fd7a b4bf e6cb bc86 f937 d53f
000002f0: 0b51 050e 1f4d e53f 9f05 2597 b1fa e43f
00000300: 34d2 112d 1882 d93f 56f8 0012 7fbf b53f
00000310: 76e8 1f72 4576 c63f f084 f4dd 3d77 aa3f
00000320: 2c5b 6763 eddd e23f 7b72 10e4 a388 e53f
00000330: 80f4 e075 c616 e33f c6c5 5bbf d25b df3f
00000340: 5081 0850 e23c db3f 5a5d 0ed0 4eef d93f
00000350: e2f6 e0f7 50fd cabf cc09 eef5 2b95 bebf
00000360: fabd 1c6e 471f d23f 2854 d20a 5b24 c23f
00000370: 747d b72c fd2e b1bf 56b4 6a39 e8bf d63f
00000380: f2ec 7203 ed71 d83f f8c2 06f2 d041 e93f
00000390: 6e57 9013 639e dabf 2348 3718 3eb3 e13f
000003a0: 1414 b06d 17af dd3f a556 98e3 4a3e d23f
000003b0: 302b a61e 2e54 de3f 80a8 0233 056c 7e3f
000003c0: f3ce 8bf1 6024 e13f 0e54 4abd 05eb dc3f
000003d0: 8211 36d2 3772 dc3f d031 5c3e 1203 dd3f
000003e0: 6ff3 efeb cc74 d23f 9495 2c11 5944 c3bf
000003f0: a70f 5fa8 e99c d43f 5abb 256e 00b7 e83f
00000400: e092 efe8 a696 82bf d460 593b 6fc6 b83f
00000410: f2ba 2c67 ad32 e13f 601e 08b8 d897 a3bf
00000420: d8f6 267a 6e4a c8bf 3384 fa1d 7b5e d83f
00000430: 1142 a23d 47d0 df3f bf52 39cc 74cc d6bf
00000440: 63d5 7e36 bb49 ce3f 574d 550e 44f5 e33f
00000450: d70b 8c41 c877 d03f 362f caf7 4b1c d23f
00000460: 41a5 bc86 1bd9 c1bf b513 3c62 6af0 e43f
00000470: 3808 9b7d 6843 e33f a105 b11b 46c3 cabf
00000480: 0490 20d5 e238 e53f 8ef8 547e 4d37 cb3f
00000490: eb36 e13e ea4a c1bf 8452 edd8 8896 ba3f
000004a0: d2d9 6ba9 6f4b e63f d4f5 c238 df69 97bf
000004b0: 6acb d9fb 2d94 ea3f 05a3 611b f69c c2bf
000004c0: bc22 850a 68ae a6bf ecbd e71d 91df c73f
000004d0: 621d 14dc 61ea b0bf 48f7 6843 cfdc df3f
000004e0: 71be 1455 d8d7 e43f dc68 6b0a 3650 bd3f
000004f0: 3a49 290c 1221 dc3f 1695 f121 0faf c13f
00000500: ae0e 92c8 e25f de3f 36e7 7726 65a3 d63f
00000510: 70b1 0718 27bf e33f c13f 2460 21fe cf3f
00000520: 228c 0e19 e288 db3f a96c 8b64 5c1d e03f
00000530: 5ea7 a030 5de0 d5bf 5e65 532e 5bbe a13f
00000540: f1a2 4e9d 7e68 d43f d498 702c 2e10 d23f
00000550: fdbd 57e0 b96f cfbf 7d06 d307 fa2e e33f
00000560: f03f ea2f 01b1 a23f 6127 2a3d a22d e43f
00000570: 68e9 2b61 b22f ba3f 1c60 bb0d 7f7f ad3f
00000580: 8837 189c fe08 dd3f 2a32 e745 11bb c93f
00000590: d947 2da1 ae87 d2bf 2074 961d c2eb e93f
000005a0: d072 1b9d 5e28 9f3f 104c 5e85 1d7d 98bf
000005b0: c071 5b71 d73f 723f 007e 7540 6cbc e43f
000005c0: a807 6ba2 a451 d7bf d05b 621e bb5d e53f
000005d0: bcbb 3edb 916b c33f a817 0783 ca6d dd3f
000005e0: 7b67 dc64 2867 e53f 8cbf fbd8 cc50 c43f
000005f0: d479 bdeb f6d9 be3f b011 aead c0e2 e03f
00000600: 4877 c2ae cdd0 d2bf 5266 057a 9a15 d83f
00000610: ccd6 13ef b883 df3f cf1d 727b 05f9 e43f
00000620: 8594 a642 7d9b d33f d867 7eb9 6adb b33f
00000630: 622b 49d8 b990 d43f ecb1 e5e1 ea5e d63f
00000640: 94c5 1a7c f40f b93f 2574 09e4 4c76 e23f
00000650: d6e5 8c4d 99dd e03f d8e1 bd6d 1924 d93f
00000660: 5423 59d8 7c29 db3f 13cd 0458 4bee d0bf
00000670: 3e5b 819a 28c0 c5bf 1067 b852 7243 d8bf
00000680: 488f 3ec5 05b0 e53f 3719 1199 e7fa d5bf
00000690: 00d0 8375 0a84 cebf 4c59 e893 7f8f d93f
000006a0: de50 2ac4 2c8f cfbf b92d 144b 6930 d93f
000006b0: 94c7 30c3 5f79 e73f b2f5 892c 7e1a c6bf
000006c0: 0340 2642 b6e0 e43f 3b8b e827 ca10 e13f
000006d0: f754 e56a 1d57 c63f fc04 f59e 2b32 b73f
000006e0: 4458 575d 6c3a d33f 30b1 253b d0ad d9bf
000006f0: 1639 23de 8ba8 d53f a78d 511a e46d e33f
00000700: 44b3 6bb0 a0d4 b03f 6d68 fd80 dd0d c13f
00000710: 5a0f 3c64 0a82 e6bf e0e9 0dd7 ac46 713f
00000720: ad51 6e3d c115 d33f 2dc4 e10d 9eb3 d73f
00000730: ecff 781c 612f e93f 8af4 f04e 4a49 d13f
00000740: 9313 db26 685c cf3f 7628 2e11 b6c5 c2bf
00000750: ae7b 11b0 323a d63f 1430 bad6 a119 e33f
00000760: bd45 c79e f5e0 c93f 0f3d bc39 f221 d73f
00000770: 5466 794c f4b6 e03f a5f2 88d5 8af5 d13f
00000780: 4cd7 679e f2e7 c33f c13f eb4a 4304 c43f
00000790: 896b 4e7c 5420 e13f 9e2b b226 f745 d9bf
000007a0: 06f9 4a46 dd8e e53f cb44 6bb0 4f0d cebf
000007b0: cfa3 52f8 b4c0 d83f 0794 3ca9 0bab de3f
000007c0: 22de ecea 017f e13f 59ed 93d7 540c d6bf
000007d0: 881d 264d b8cb dc3f d0ae f8ef 0d98 9b3f
000007e0: 3ec9 aa2b f6ed c83f 1c59 3f11 8648 e23f
000007f0: 4a24 01c6 a1e9 ba3f 7da5 38c6 960c d6bf
