src/experiments/kernel_ABC/vonMises_mean_estimation/results/saved_results/errs_EuclideanKernel_EuclideanOptimization_seed7.npy (npy, 240128 bytes, 1 tensors)

array f8 [100, 50, 6]
0	0x3fd7bab2a155c3f3	0.3707701278245274
1	0xbfb608357e2a45c4	-0.08606275873378083
2	0x3fcf145f7885af04	0.24280923256753095
3	0x3fdfe44c523f8da2	0.4983092120366682
4	0x3fc0929fcb1099a3	0.12947461524272538
5	0x3fe751f18c2b142e	0.7287528741513876
6	0x3fdb1fb17d1d86ce	0.4238094064549899
7	0x3fc3ec85dd12ef51	0.155655606218597
8	0x3fd524e42a44035d	0.33037666442401364
9	0x3fdf45956773ab6a	0.4886220464965648
10	0x3fe522ce0f5ba3ee	0.6604986476860384
11	0xbfbc0802063f8624	-0.10949719097654814
12	0x3fc7cb38a478b818	0.18588932066762776
13	0xbfc5dcc0b641380a	-0.17079934024008053
14	0xbfc2c3dd4a081678	-0.14660230746101255
15	0x3fdeb6b7fab421bb	0.47990226252343476
16	0x3fdd62faef1e7d32	0.4591662726542892
17	0x3fe605cb7d7dde32	0.6882073832520688
18	0x3fcc7e89a2afcf48	0.22261162227334297
19	0x3fe7783fd4d590e0	0.733428874675635
20	0x3fd1838bf526b987	0.2736539739661556
21	0x3fc0c5eee9cd1d68	0.1310404435737198
22	0x3fdf46b2c8d7ac5e	0.48869008649370993
23	0xbfd2495544dcd1c6	-0.2857258961187451
24	0x3fb46664591c165c	0.07968737769632511
25	0xbfd7eb0dda564d0c	-0.37372156450256067
26	0x3fc215d81682d116	0.14129162882967056
27	0x3feb1e0ea5485c8b	0.8474190929581636
28	0xbfd5a1a75da143bc	-0.33799156325863655
29	0xbfa4de4ea9ac864a	-0.04075856991972822
30	0x3fe76694957f19fb	0.7312720222333263
31	0x3fd4b13f2c769ec5	0.32331828443646443
32	0x3fd2aa7423e64f42	0.29165366655182734
33	0x3fe04261357460de	0.5081029933963028
34	0xbfc0d887aa3faa5f	-0.1316079694073151
35	0xbf898488f99bbc0d	-0.012459821813051187
36	0xbfa94d42cf0e46a6	-0.049417579436647416
37	0x3fe3efad5b9e1789	0.6230074681668479
38	0xbfc57d3b98193456	-0.16788430144007077
39	0xbfdf9555895ecc07	-0.49348963179653577
40	0x3fd9c5c317c286a0	0.40269543953227505
41	0xbfdad076159ebd53	-0.41897346602759916
42	0x3fe915f2b79b6660	0.7839292131495306
43	0xbfcf29a63dc7f0b0	-0.24345853821421803
44	0x3fd9f66cc67c7f8b	0.4056655824988346
45	0x3fd3210b5fb7fc08	0.2988918719055964
46	0x3fca116136fe57b2	0.20365538773756736
47	0x3fc67746b6d3a006	0.17551502158244164
48	0x3fcee8564cba54a2	0.24146536585309258
49	0x3fee7798d38fcbb8	0.9520992404999253
50	0x3facbd389a5f79d4	0.05613114246783693
51	0x3fc1b80ddf8a69f8	0.13842938819000472
52	0xbfbb827417cf32c8	-0.10745931226046956
53	0x3fa2b562a9702114	0.036540110762930095
54	0xbf8eddabcf672680	-0.015071241633353383
55	0xbfc4f54068e66910	-0.1637344848830442
56	0x3fe99cd2ad0d4132	0.8003934268872739
57	0x3fd5cc8e5e6e9261	0.3406101152598123
58	0x3fd8b4ae0a8e209c	0.3860278227880458
59	0x3fd0998a5545feee	0.25937136008722816
60	0x3fd6cfabfdf7bf88	0.35642528344669033
61	0x3fcf88786799418a	0.24635224398162975
62	0x3fdf42309e59fb2a	0.48841491188061303
63	0x3fd7227b1dd76096	0.36147954858962217
64	0x3fe357f15ef2925e	0.6044852117962127
65	0x3fd1d4f335467752	0.2786224384561723
66	0x3fc33abdb077a2e4	0.1502301322609788
67	0x3f89423bc95df540	0.012333361704572554
68	0x3fc87406cd33d1d4	0.19104084987306058
69	0x3fc600df8428c419	0.17190164521301268
70	0x3fd3259c72b23725	0.29917060089870723
71	0x3fed01e6a3c2ee34	0.906482047888352
72	0x3fcd52f5cdcf8f98	0.22909424352030494
73	0x3fde31706ef72251	0.471767528881661
74	0x3fe566248260157a	0.668718580855667
75	0xbf9e348e1ac6f200	-0.029497356781336137
76	0x3fc75d98897d8df1	0.1825438186016153
77	0x3fdf95ac348b6a38	0.49351029521281786
78	0x3fbd175eae84f908	0.11363784561851642
79	0x3fd3f0b95e9119e8	0.3115676330093309
80	0x3fe10c31d021697d	0.5327385964440478
81	0x3fcd77084e31b3f8	0.23019508188318105
82	0x3fe3e4c693005e30	0.6216767188188381
83	0xbfda21bf32d6a9dc	-0.40830974545192844
84	0x3fbe51650cd24ee0	0.11842948496842665
85	0x3fde9830daa36123	0.4780389914644891
86	0x3fe777af4763a4e8	0.7333599466629979
87	0xbfae65e90b510d00	-0.05937126410619875
88	0x3fd79ac9e3f40e8b	0.36882254849499735
89	0x3fd21ba713f6bdfe	0.2829377837142316
90	0x3fdfddfc03fe2e33	0.49792385473185446
91	0xbfcbedb344a720a2	-0.21819153644742523
92	0x3fcc7a6b0889ca93	0.22248590390116316
93	0x3fd1a917aec120bf	0.2759455877862926
94	0x3fe5b28ef3e7a276	0.6780466808095997
95	0x3fd6157dc1a9f552	0.3450617209671992
96	0xbfc44f09d75b9eb4	-0.15866206183931342
97	0x3fea862e41e585dc	0.8288794791262108
98	0x3fd06148a46600d0	0.25593772940193293
99	0x3fc83d252a763636	0.1893660027821384
100	0x3fdba0e64cebc01c	0.4316955329113641
101	0xbf732a2903ebde80	-0.0046788789902546535
102	0x3fd1d33d59a452e4	0.2785180449875908
103	0x3fd55093787edd57	0.33304297225136764
104	0x3fe1d4ee860c1e78	0.5572426431762798
105	0x3fe54b82e1c2f742	0.6654676827817883
106	0xbfc04756bd071588	-0.12717708806864558
107	0xbfca387296e020a8	-0.20484764449088755
108	0xbfb775fa419814ac	-0.09164394475381482
109	0x3fe44f816c0e8081	0.6347052679521
110	0xbfd2770127d3447d	-0.2885134591024963
111	0x3fdf32767aad6546	0.4874550054569976
112	0xbfda6214c9c550a9	-0.4122364015977476
113	0x3fd407bc2fb342ff	0.3129721132109324
114	0x3fbde9638f7a2d00	0.11684248211729553
115	0x3fd401a8096cd2c6	0.3126010982553392
116	0x3fe91120376016f2	0.7833405572461898
117	0x3fc52cfcab4bfdde	0.16543539394477497
118	0xbfc8ae8b7fb59aa0	-0.1928266881543168
119	0x3fdd5be139be7894	0.4587328971773641
120	0x3fd3450116b86494	0.30108668535974314
121	0x3fca247fccaa3e9e	0.20423886769684868
122	0x3fca6f745313b071	0.20652631813516423
123	0x3fd14a718f4b7998	0.270168676315643
124	0x3fe5cdf44d3e3ce8	0.6813909062056185
125	0x3fe129cb77381f87	0.5363519028187377
126	0x3fb9be03a895d7d0	0.10055563798763889
127	0xbfb07b3339efedc4	-0.06437988438113168
128	0x3fcb9cc4227d2de5	0.2157216232684355
129	0x3fe065719295e5de	0.5123832571982196
130	0x3fa9003dbf2a6170	0.04882996519626459
131	0x3fea46c2742c9d42	0.8211376446751404
132	0xbf9996d3c87c9390	-0.024989422904713232
133	0x3fdce08b7f3f11ee	0.45120513368990955
134	0x3fd9002491b0e18c	0.39063371875411046
135	0x3fb477f18d8af470	0.07995519357332781
136	0x3fe540f8356183c6	0.6641808550449404
137	0xbfdc4f0cb1843ac7	-0.4423248036918434
138	0x3fe9d396ddfafa2f	0.8070787749819085
139	0x3fb3bcaf4977edf8	0.07709785026229798
140	0x3fe07abf06906e42	0.5149836662489593
141	0x3fb30cd8c8a37950	0.07441477678682884
142	0xbfb6a20ae7fa1242	-0.08841007388588998
143	0xbfd0346e20e2b224	-0.2532000847957383
144	0x3fd427bedd3f807d	0.3149258766770869
145	0x3fc51252a93b8826	0.1646216703730385
146	0x3fde8acedf80e36b	0.47722217394362215
147	0xbfb64faaf97daf45	-0.0871531352146891
148	0x3fe0a965521aa0bb	0.5206781962961239
149	0xbfe364a46a9bf792	-0.6060354311191409
150	0xbf812e7d56d4d1c0	-0.008389453136808167
151	0x3fc52741cac73fc4	0.1652605285767078
152	0x3fd03f2b91ee5182	0.25385560275142194
153	0x3fd170eb20a93c9f	0.27251699628409115
154	0x3fd744238906f2cb	0.36353386289173945
155	0x3feace507f42fc60	0.8376848683909763
156	0xbfca222d7c4baa90	-0.20416801995391554
157	0x3fc9d62a4734f864	0.2018483016672149
158	0x3fc84e0aafa1a638	0.18988164497140914
159	0x3fdbb74bc9ff82ec	0.4330625031125652
160	0x3f936f68c3fe0400	0.01897968002549888
161	0x3feaa6630553d592	0.8328108886768624
162	0x3fcca924af3cc5b8	0.22391184383881835
163	0x3fe71a07e0718a02	0.7219275840437265
164	0x3fc12f47966e4d53	0.13425536008126446
165	0x3fdb2ae5f50bb6c7	0.42449330263376023
166	0x3fde09d5616274ff	0.4693501902600729
167	0xbfb9ccec69ea64f0	-0.10078313432531494
168	0x3fe299b995505902	0.5812652508055012
169	0x3fdb5ba3d7a4861d	0.4274682622800315
170	0x3fd412087ce4e199	0.31360065647779717
171	0xbfca8e2f71e3b068	-0.2074641519642484
172	0x3fe064001baaf564	0.5122070827853062
173	0x3fd19a88be56e8b6	0.2750570162567202
174	0xbfb0eb8aec3648e0	-0.06609409586807002
175	0x3fc09f78f4e78475	0.1298667140791029
176	0x3fe6d71700c7ee40	0.7137560858968257
177	0x3fde04dafb539a4d	0.46904634994135536
178	0x3f937096204c7cc8	0.018984170647965454
179	0xbfdfeeb0787269a7	-0.4989434410323618
180	0xbfba5fa2f8cc9010	-0.10302179884143947
181	0x3fe460e8d8b10a35	0.63682977984019
182	0x3fe63f43cd6dd83a	0.6952227604185801
183	0xbfd229334cf8ee6b	-0.2837646724399067
184	0x3fb907c04413ba50	0.09777452146566046
185	0x3fba1a7ba6526cdc	0.10196659861178453
186	0x3fe9ef1e1475e1f2	0.8104391479128579
187	0xbfca09462622bf00	-0.20340802061172525
188	0xbfc75cdd88caab10	-0.18252152613907713
189	0x3fc7bff66d741304	0.1855457338753227
190	0x3fd0c6ed7e908992	0.2621415840132154
191	0x3fda063e314c518b	0.40663103880185564
192	0xbf9028036eb36ca0	-0.01577763903774765
193	0x3fde1f3e94afecde	0.4706570102714077
194	0x3fccd8d7c552d835	0.2253675187582204
195	0x3fd625d5a81b967d	0.34605924050115516
196	0x3fdd180377f80734	0.4545906707354448
197	0xbfe443b51fbb5dda	-0.6332650775684059
198	0x3fe87fbd73ad4693	0.7655932673753391
199	0x3fb416f5e24cc498	0.07847534918689048
200	0x3fd50a37f452df84	0.3287486921285494
201	0x3fdd82456915daa1	0.4610761190628328
202	0x3fc14d90f7873c22	0.13517963491764912
203	0x3fd0c87ae5f782a6	0.26223633248995737
204	0xbfe267eee615c362	-0.5751871579978849
205	0x3fdc4fa31b01cb1a	0.4423606647243773
206	0x3fde03f397bcaa9c	0.46899118249954497
207	0x3fce2c9330ccb8d4	0.23573531992719288
208	0xbfd008367f04eb94	-0.25050127414913814
209	0x3fd7875a6457e85e	0.3676362972179329
210	0xbfa5f7cac1915400	-0.04290612805258576
211	0x3fd4fada6254c9dd	0.3278108558908153
212	0x3fe237c32fa57844	0.5693069391816228
213	0x3fdbdea0188a018e	0.4354629745139612
214	0x3fe1fe72a91fbaba	0.5623105338289272
215	0x3fcf8a52b0401f30	0.24640878301601665
216	0x3f851f6627533280	0.010313795161345896
217	0x3faee2be73c17200	0.060323669081046916
218	0x3fdbf14f3fdc7123	0.43660336719928433
219	0x3fea7cd594f10c2a	0.8277385624900309
220	0x3fd283aabb4f45d8	0.2892863110729116
221	0x3fc88aafad290e42	0.19173236804100396
222	0x3fc0c9cfb45b0096	0.13115879351062593
223	0x3fcec73800331a1c	0.24045467386004382
224	0xbfd43322f0ca71d4	-0.3156211234543467
225	0x3fd442dd9b248c1b	0.31658115530643877
226	0x3feaca369cd999e5	0.837184244487443
227	0x3fc3eebf635d0335	0.15572349883771044
228	0xbfe18279fd7f8c6e	-0.5471773100984032
229	0x3fe33b5b986867bf	0.6009958245006074
230	0x3fe00bca4cdf1fe8	0.5014392377279338
231	0x3fb315ae6709eef0	0.07454957976909404
232	0x3fc7a79d610c5118	0.18480269659688342
233	0x3fcc196db053433c	0.21952601537352645
234	0xbfc8b3151c107a9c	-0.19296516294794663
235	0xbf70ea4cb4250400	-0.004129695533550581
236	0x3f919eea9878bc80	0.017207780414704832
237	0x3fe90c013f53843c	0.7827154385414654
238	0x3fcf82271ead89ae	0.24615944860404454
239	0x3fe13544653e5499	0.5377523400699317
240	0x3fe004701f60ad1e	0.5005417454571306
241	0xbfddca4119863961	-0.46546962254151053
242	0x3fc16251b6dfbf44	0.13581296376605156
243	0x3fd0e55bb8e6d66a	0.2639989190750841
244	0xbfe2ce4ae574c3cf	-0.5876821977200225
245	0xbfd429c025a62f50	-0.3150482528369496
246	0xbfe0f219b7a27068	-0.5295532785999173
247	0x3fe42ac6a292c902	0.6302216696988412
248	0x3fb6ed9e4d29a838	0.08956326850753349
249	0x3fc607c9c751be6a	0.172112676929362
250	0x3fe0abd595ea2c7c	0.5209758689901629
251	0x3fbd80161abdc668	0.11523569252838117
252	0xbfca5cc919ae6ae0	-0.20595659021349544
253	0xbfa29745775283c0	-0.036310358825410116
254	0x3fd5f9b4270ae690	0.34336570561172497
255	0x3fe73e26ddd7c3e8	0.7263368924014886
