src/experiments/kernel_ABC/vonMises_mean_estimation/results/saved_results/errs_SphereKernel_SphereOptimization_seed6.npy (npy, 240128 bytes, 1 tensors)

array f8 [100, 50, 6]
00000000: 1ef2 032a 646f e33f 8dd5 2224 7641 cd3f
00000010: 73f9 ba12 4ddc d53f 752c 069a 729f dc3f
00000020: aceb ce97 a662 e03f 402a 67d5 2539 6abf
00000030: c0aa b72e 80b1 9a3f 17d2 a132 4a52 e53f
00000040: f22a 9a99 7e22 e23f c0f1 a065 c298 adbf
00000050: c0f4 51d0 230b adbf ead8 976f d488 de3f
00000060: 76a7 70ef 2555 db3f b169 fcb0 f45c d13f
00000070: 9f44 88d0 aef9 e53f 1248 0edc ad11 d93f
00000080: eb59 e1ec 32ee d33f fec2 e559 52fb c2bf
00000090: 24fb 8287 a979 d23f d0a1 4997 8891 c63f
000000a0: fbc1 03e8 eaab d33f 89af 2691 2c69 bebf
000000b0: a354 dcee 340d e93f 6932 534d 66ed d9bf
000000c0: 23a2 fce0 0022 e03f 864a 55f5 3f8b a4bf
000000d0: 8eb5 6289 c57c d6bf f84d 4ece d027 933f
000000e0: 14a6 11af 97bd e83f 7b53 0cee f844 c33f
000000f0: 0092 7b81 24dc d53f 7158 12d2 e123 e53f
00000100: 2878 4347 825f b43f 1d70 0b27 837c d53f
00000110: 008e 9110 755f a33f dc87 ce7d 4c48 e23f
00000120: d8e9 f347 6e02 b3bf ad27 860e e0f3 de3f
00000130: f90c 75e5 3750 d33f d636 4543 f0fc d1bf
00000140: 44cd 6eb6 36cd e33f 76c8 0a86 a928 dd3f
00000150: a005 d230 6879 98bf 48ca bc40 9519 c33f
00000160: 0b80 7bb9 0d13 e43f ada1 6f4e 5fb0 dc3f
00000170: a043 e6d5 ec6c a4bf a4c1 9229 e8c0 e33f
00000180: c751 a059 22ed e63f afb1 79a0 68d2 cabf
00000190: 3847 3315 9bec 933f 4bd3 3a82 38f6 e43f
000001a0: 348b 3f7f f7e7 96bf b467 3be8 96fa bc3f
000001b0: 5a2b 42d5 846b d13f 5611 83d9 e11a d3bf
000001c0: 784f f119 e1e4 c33f 6236 ce78 a780 e93f
000001d0: f4f3 2840 5e99 da3f 1480 046e abaf b1bf
000001e0: 1306 5d86 913e e43f b370 d651 b42f c63f
000001f0: 0884 7bf1 7d4f e03f 3790 18af c651 b8bf
00000200: 79ab 97ae 95ef d53f d768 ddbb f768 db3f
00000210: 2817 39f3 b88f c4bf 2b8a 3259 c417 db3f
00000220: 484f 9ac2 027d e03f ffeb 2c18 df14 e13f
00000230: 3ef4 81ba 5832 d3bf 1155 fb68 2529 d93f
00000240: 3e3e d7cb b7f3 e03f eaaf 5dff 55ce c83f
00000250: 2a54 f1f2 7a6d e63f 3440 d987 0aaa da3f
00000260: 3043 a4c7 96bd b23f 1032 5d58 33a3 bbbf
00000270: 4c0c 2643 c205 c03f 7c67 0d30 e7f8 cdbf
00000280: 784f e802 dd7f e33f c82c 5e64 5ef1 dd3f
00000290: e8a1 a84c ad6f cbbf 538b 12fc d954 e13f
000002a0: 6833 f66c e263 b0bf 1074 eae0 41da a9bf
000002b0: 9810 b6a6 1a61 c73f 7a3a d1ca bdb2 eb3f
000002c0: 47b2 3b8c af0b dc3f d41d cfb9 6e83 c13f
000002d0: 719f 23f0 e205 de3f 699c 0933 3037 be3f
000002e0: 1e5d 60a7 da3d e73f 7088 7cbe 910d 923f
000002f0: d69f 6b9f fb21 df3f dcc1 a4ac ba1e a43f
00000300: 9a3d 22b2 0f40 ed3f f665 bd2a 5c18 b83f
00000310: 2c80 cdc6 fc04 a83f 794c a991 ca8c cc3f
00000320: f7f1 bfea 4316 cf3f fb24 8554 580e cb3f
00000330: f62e f285 4ecc e43f 900c b7a2 d6b5 b13f
00000340: 6fea 2f7e 23f4 c8bf b0a3 b954 f0a8 e53f
00000350: 7ca9 cf67 726d ba3f 9d82 daeb 2c70 d0bf
00000360: 1010 27cd 7ff8 c33f 7428 0828 0e12 d33f
00000370: 9af9 9dcb 76d2 ea3f 608b b388 470d 92bf
00000380: 5dd7 fa65 c4e8 da3f a45e d784 bfb5 b5bf
00000390: 880e ba5b c295 c33f e353 79e4 78bc d13f
000003a0: 1744 9ca4 af66 d23f 6aa2 74da 6ba2 d53f
000003b0: ecda 4d9b 25f5 bb3f a437 48d2 3699 ea3f
000003c0: d889 f987 8cf2 df3f a439 1f4d 572b cfbf
000003d0: 80b1 65ff 2f07 47bf 3288 c81c 49c0 d03f
000003e0: 4f15 a19b afc5 e03f 2d74 ee13 ade2 e23f
000003f0: 00c9 fd27 b552 e03f 3149 cb46 8b84 d03f
00000400: ff42 8110 88d9 cd3f 39b0 daa2 317e e13f
00000410: eca3 b209 62fe d93f b725 ee8a 8432 d93f
00000420: 2474 78fd 940a c13f 0afc 0a98 b4b7 d93f
00000430: 6934 913b 5124 e63f 935b 6285 5eaf db3f
00000440: 02c8 784d 764e d03f f115 d5b3 de31 d33f
00000450: 65d9 f4ce 966c d9bf b635 dee2 e04f ea3f
00000460: fa87 841b 5189 c83f bea9 17d8 bf5d cf3f
00000470: 47b1 e544 3bd1 d03f 406b 16b4 a659 8d3f
00000480: 426f c0c6 4e66 e63f a0e9 3dc7 45e4 d43f
00000490: f3b6 7949 9ae7 cbbf c0fe 843d 1af6 e1bf
000004a0: 2049 eb32 8788 bb3f 882a e51a 1de8 c5bf
000004b0: 90d2 8ed4 1694 d5bf 40e4 8378 6028 e63f
000004c0: 605d ab58 6919 be3f c044 f917 d3be 8e3f
000004d0: 026b 7e0c 8506 dc3f 7da4 b771 9bb1 dc3f
000004e0: 40c4 fed7 8e66 e23f b238 980c 49cd d2bf
000004f0: 1fb2 73b5 c0a6 d23f 2dd6 0173 1080 e43f
00000500: 664f f3bc 5d53 d13f 3f53 298f cebd bebf
00000510: 30ab 6646 8bfa d03f 40e4 72e4 06f6 883f
00000520: a788 358b feb2 d63f be28 d5a3 4ecf e13f
00000530: 13c3 3a4e b08a dc3f 1959 2ab9 7f61 e13f
00000540: 346c b813 a154 c0bf 610d 4cb2 47fb dd3f
00000550: a8a0 db65 1049 d33f 64eb d2ba 5c14 da3f
00000560: 30a0 e60f 2596 aabf 313c d72e a2bb e63f
00000570: 0611 74d0 5316 d53f b32e 97ab 7804 d43f
00000580: 343c 7b98 d3cd dc3f 10ca 8acd dc15 b73f
00000590: acb8 da03 f103 e53f d32e f04b 5feb d83f
000005a0: 00d3 47b8 b83e 8f3f c21c 870e e7f7 c93f
000005b0: 2ee6 a981 53c7 c0bf e377 03b1 82ee c83f
000005c0: 189c 401d fbb9 d83f cc8a a3e1 4bca eb3f
000005d0: 18d9 2374 ac8c d33f cefc d9d9 e2db d53f
000005e0: 48db 197c 4ddb d2bf 3f29 d1b5 d13f e63f
000005f0: 00d3 bbf3 57f4 78bf a876 a87a 8d00 de3f
00000600: e60f 5d00 20bb ea3f e8ac 4cb3 082d c63f
00000610: 3bac ae2f d5fc ca3f 53cc a2c3 33d0 c93f
00000620: f9a3 81ad 1add d63f 70d9 f0eb f834 cf3f
00000630: 605f 1db5 4706 ce3f 5a06 3f59 121e c23f
00000640: 36b0 85ce 357a e53f 87b9 f538 d8d7 e13f
00000650: 70a3 05e8 504e a73f ef1a 300d 93b7 d93f
00000660: 9bbf d004 71c0 e63f 696b 2e00 7811 c23f
00000670: 28b5 0772 81a7 da3f bc5b 13cf 1fc7 aa3f
00000680: a4be 96de 0685 dabf 14cd a9e1 50c7 d63f
00000690: 3844 4808 5526 e33f e2c4 9723 0d18 dcbf
000006a0: 5baa c791 adfa e03f c027 f1cf 5557 943f
000006b0: 10c0 28c3 1cde aabf 33fa 8f4d e7f4 d9bf
000006c0: 54e1 48fc 2d80 b8bf b1bb 4620 5738 e83f
000006d0: b93c 8361 eed8 dd3f 4624 50d5 ca9c c1bf
000006e0: 8e85 b4ae f929 c6bf 61a5 95a2 0aea d83f
000006f0: 7039 a168 47f8 ca3f 2433 f098 87f3 d63f
00000700: a850 8b83 9083 de3f 33f4 9761 27df e13f
00000710: 9cca efdb 9237 cfbf 5ae9 4b3d ee93 de3f
00000720: c00f 7996 c875 bb3f 2729 e5da 0001 e0bf
00000730: 085b 9470 651d e2bf 373b 6474 f388 ba3f
00000740: bfc4 17ac 1312 e33f caac 4d50 b430 cd3f
00000750: bc20 136b 7576 dcbf 8024 e988 a07e da3f
00000760: 72c9 14f7 ba05 d63f 0d7a ac13 93e6 dabf
00000770: 86dd 5604 666a e23f e861 1177 0743 b13f
00000780: c083 a4b6 13a7 91bf 5cb5 bce9 014d e53f
00000790: 30d7 698e da29 dc3f eb3e c335 da3f e33f
000007a0: 40b8 c503 2a28 81bf 209e fb0f 3943 a0bf
000007b0: 1fc3 92d2 28a3 e03f 1ae4 3185 19b5 cd3f
000007c0: 9301 5dfe 00b7 de3f 3e6f 0597 6930 e33f
000007d0: a832 0bda cbe6 a03f fe15 5156 55a3 d23f
000007e0: 8758 aa14 11a0 db3f e88b 3050 aaee e23f
000007f0: df3c dd7b 79fc d43f 3f89 3832 81ce db3f
0.6073475666631258 0.22856022610146134 0.3415711100496061 0.4472319130079037 0.5120423283582247 -0.0032010783135991983 0.02606773648396188 0.6662951458843648
0.5667107582133595 -0.05780608645042973 -0.05672561567278356 0.47710142991799265 0.4270720327646055 0.27129857333934654 0.686728865899699 0.39170404901335687
0.31141350872840573 -0.1482947291329068 0.2886756728511719 0.17631633174029426 0.30736801774676764 -0.11879232925156037 0.7828621545073883 -0.4051147227408252
0.504150809695663 -0.04012489194669393 -0.3513654557853777 0.01870657214347024 0.7731436175647013 0.150542370066116 0.34156143803400596 0.6606301405870579
0.07958235015709703 0.3357246285720537 0.03783765628102387 0.5713255364573757 -0.07425584084186398 0.4836349622570378 0.30177113922054805 -0.2810631424843967
0.6188005030766495 0.45560682382632167 -0.023900630931625977 0.14921823178299776 0.6273258803084912 0.44826491031428867 -0.03989353285863406 0.6172982036569477
0.7164470434677747 -0.2095461638995295 0.019457266968692738 0.6550562423277396 -0.02236925806199537 0.11319869203307925 0.27218743158362246 -0.2985157608166181
0.15542234198312221 0.7969548568232308 0.41561085000631626 -0.0690867560956579 0.6326377510342261 0.17333082195262292 0.5097036091284517 -0.0949978044014309
0.3427480893139357 0.4282817206018427 -0.1606360614406921 0.4233256217068255 0.5152601052127261 0.5337977859666124 -0.29994791234623 0.39313636066556606
0.5297507268205164 0.19379687279740604 0.7008642907118248 0.41662848726719237 0.07320539831222272 -0.10795899302792855 0.12517574576131307 -0.23415841909701018
0.609358316115034 0.4678569774775494 -0.21434561007596575 0.5416078494348348 -0.06402411613653458 -0.05049329634241684 0.182650882150601 0.8655690156245577
0.43821324057242744 0.13682350228030649 0.4691092820271399 0.11802960630449068 0.7263005513258667 0.017629887820597323 0.486449151691429 0.039296945166259895
0.914069984357343 0.0941217045159631 0.04691305090705131 0.2230466090428285 0.24286698305503737 0.21137527586896696 0.6499397865422611 0.06918088409934087
-0.19495052014811473 0.6768724112308657 0.10323252710774072 -0.256846647573221 0.15602109448639156 0.2979770079551891 0.8381914116760527 -0.01762878200396345
0.42045698126763914 -0.08480450623698715 0.15300778845641028 0.27712843238742674 0.2875174624942373 0.3380384095530987 0.10920939485172781 0.8312028986999747
0.4991790130499374 -0.24351016298028327 -0.0007027611125472316 0.2617361813628377 0.5241315879472185 0.5901704205786068 0.5100961476403256 0.25808984673962515
0.23320103460221017 0.5466545277354334 0.4061513037400448 0.3937083584538316 0.13313543678751316 0.4018374905389811 0.6919332660123817 0.43257868791391124
0.25478894773107197 0.2999188190627527 -0.3972527524050718 0.8222507887855304 0.19169057696950614 0.2450485043658101 0.2627704785179685 0.014331152315937623
0.6999887353772254 0.3264326520653871 -0.21800545299213744 -0.5612918092301342 0.10755200379506791 -0.17114604771844122 -0.3371636462937113 0.6924288133442431
0.11757524885921589 0.01501240651046698 0.4378979322442974 0.4483402834435493 0.5750192850738429 -0.2937796233171738 0.2914277812949723 0.6406328436120866
0.27071326687040764 -0.1200837230220033 0.2652919948110819 0.012188009115890464 0.3546749457801845 0.5565560531479361 0.44596488608935764 0.5431517235290669
-0.12758267844114501 0.468461917989961 0.3013344759660961 0.4074928116275969 -0.05192676371672211 0.7104044833048474 0.3294877563169084 0.3127729106606509
0.4500626553607987 0.09017734544867317 0.6567311358719699 0.38936598220673807 0.015256350635334481 0.20287788590778716 -0.1310829527972585 0.19477876322974827
0.386351374213008 0.8684443861969497 0.30546103803443847 0.3415457847076596 -0.2946351730274057 0.6952904273141839 -0.006092399180251062 0.46878373125387407
0.8353424079036784 0.1732493281827836 0.21084084346998275 0.2016663270238462 0.3572451300047415 0.24380408783481355 0.23456665366642948 0.14154271466945795
0.6711682351719961 0.5575982201096829 0.04551937897014724 0.40182949340707713 0.7109913915683025 0.1411581040273078 0.41647373328926784 0.05230044749048754
-0.41436931359474216 0.35591527974539017 0.5984292184604163 -0.4389679763399511 0.5306003424896731 0.019864407364629022 -0.05247583277048318 -0.4055727250523972
-0.09570586594862124 0.75687748245206 0.46636542818755405 -0.13759742179562034 -0.1731559851696542 0.3892847621669571 0.2107018719565974 0.3586138719118017
0.47678006025422315 0.5584904581188596 -0.24388347376914943 0.47777896867741776 0.10726598428396894 -0.5001224780365064 -0.5660884093111642 0.10365220634069493
0.5959566460789104 0.22804883881631205 -0.44473014313235715 0.41397870416819416 0.3440997517492611 -0.42032315179122365 0.5754880985977457 0.06742903382235677
-0.017238910696622645 0.6656503262690125 0.4400545492893455 0.6015444803287812 -0.008377388229487193 -0.03176287002662215 0.519916926647145 0.23208922389656622
0.47991967048803835 0.5996597242005703 0.033010835997264565 0.29121907643670386 0.43164469736201067 0.5916339460567288 0.3279098233806063 0.43447904495601003
