src/experiments/kernel_ABC/vonMises_mean_estimation/results/saved_results/errs_EuclideanKernel_EuclideanOptimization_seed5.npy (npy, 240128 bytes, 1 tensors)

array f8 [100, 50, 6]
0	0x3fc196f983c58f96	0.13741988119283793
1	0x3fae2e4ee5fbfc00	0.058947053503281666
2	0x3fe0b189ffaefb46	0.5216722482508451
3	0xbfd67c357125b743	-0.35133110093635284
4	0x3fe2601658468644	0.5742294048433867
5	0x3fe012e87a99e9ca	0.5023081202082775
6	0x3fdf58d7d1b9af8c	0.4897975490664457
7	0xbfe73b88a90923d3	-0.7260173131445476
8	0x3fb830f9a824a264	0.09449730258041594
9	0x3fc50a80f72a524e	0.16438304966563283
10	0x3fdc059ea7769c44	0.4378430018791202
11	0x3fb2b2a3369b3278	0.07303829272422913
12	0xbfbad9983a8a6654	-0.1048827307626195
13	0x3fe2d6f492b11302	0.5887396683761781
14	0x3fe2d1ffc91cd5ba	0.5881346633893181
15	0xbfe0ef80056a9dda	-0.5292358499327137
16	0x3f942b3fab3c8828	0.019696230722850455
17	0xbfc030c3e16f9120	-0.12648819453819105
18	0x3fe0bc769113c071	0.5230057557619273
19	0xbfc375d52b3c014e	-0.1520334683518833
20	0xbfc57e168d0e6f20	-0.16791040313261707
21	0x3fd49e63111a6dea	0.32216717405546424
22	0xbfd269e0a7d538eb	-0.28771225347453705
23	0x3fe65e1e3e64dc58	0.6989890307076037
24	0x3fe3f346c6550496	0.6234468339609005
25	0x3fc45dac1f394512	0.1591086533031008
26	0x3fd2f8bd04b74354	0.2964317842534474
27	0x3fe5b5fbde286f88	0.6784648264906403
28	0x3fb8a7e482dc24eb	0.09631183810064996
29	0x3fc59f23d8cbe1b2	0.16891906820070585
30	0x3fe78e684ebc6ed7	0.736133722096805
31	0x3fd53aac8fc87d2d	0.33170618096660826
32	0xbfbb99ba0b32a4e6	-0.10781443379768837
33	0x3fdea00cac9d5b00	0.4785186467828879
34	0x3fc6adf16c01a26a	0.17718332074879878
35	0xbfd1a7130197efb8	-0.2758224025308169
36	0x3fd7b373829bda21	0.3703278327442679
37	0xbfc44f489a07f289	-0.15866954346701714
38	0x3fd4bb04d81dcad6	0.3239147291671264
39	0xbfde922e9af8fe72	-0.4776722443966498
40	0x3fe6a007e1b57940	0.7070350082756605
41	0x3fb188bb9a75f594	0.06849262734427547
42	0x3fe2e52bff28b192	0.590475080830901
43	0x3fe0de191af44cd1	0.5271115805102459
44	0x3fcd2a8861e85e45	0.22786049633644914
45	0x3fce8b2537284473	0.23862137978770512
46	0x3fe04ba2e816a2cd	0.5092329533555017
47	0x3fb2a6e643fab75a	0.07285918388035154
48	0x3fa4dd3f3c7ae9d0	0.040750480778530496
49	0x3fe68043e90b7509	0.7031573821692813
50	0x3fd152546a171745	0.27065000877734163
51	0x3fe36352f5dfbc84	0.6058745195604307
52	0x3fc494ee8ccc4e90	0.16079503893762537
53	0x3fc8d8e5f80fff4a	0.19411921131540516
54	0xbfb9dabf9ced12e4	-0.10099408703997487
55	0x3fe1f862a65facae	0.5615704774367225
56	0x3fe7a8d68cd96ea4	0.7393601180042038
57	0x3fc217f61f06217c	0.14135624422875626
58	0xbfd2462a7cd4bd2e	-0.28553259077576143
59	0x3fc4bd4b1560f132	0.16202677291756512
60	0x3fdbc1361a9aeee2	0.4336676845375519
61	0xbfdb0fa7b2960deb	-0.42283050956777285
62	0x3fe2253f46698d4c	0.5670467734566187
63	0x3fd5001a62281bbe	0.32813129029858235
64	0x3fc03e464ef007e1	0.1269004712522124
65	0x3fdbbcb3c3cb0f99	0.4333924686472926
66	0x3fdaecb799afca92	0.4206980706068545
67	0x3fe7797f624585ee	0.733581249176664
68	0x3fd440a5861360ee	0.3164457139332758
69	0x3fd8026684b61962	0.37514651260462106
70	0xbfb57443d12920dc	-0.0838053117414605
71	0x3fc89c36e006d701	0.19226728380970573
72	0x3fe78ede33770ebb	0.7361899380852813
73	0x3fcc44b2aea57735	0.2208464958920843
74	0x3fd9d7dd07cef414	0.40380025637188166
75	0x3fc1333b46718844	0.13437596263526264
76	0x3fdc14abb7baa2cb	0.438761643813035
77	0xbfc82911da717727	-0.18875334898160043
78	0x3faada2d95b3a410	0.05244581653989411
79	0x3fcab8b36e912107	0.20876162432455933
80	0xbfcb8b7d37df35ea	-0.21519437053795737
81	0x3fe36091b86d759c	0.605538234911069
82	0x3fe6f6bb758a9494	0.7176186843613714
83	0x3fc483ab8c1de085	0.1602682527698144
84	0x3f9ab5a0922367a0	0.02608347789723775
85	0xbfba6668f6795440	-0.10312515275411815
86	0x3fc530c38ef14e2c	0.1655506561242971
87	0x3fd19378002b7379	0.27462577835631624
88	0x3fe9ebc21507d437	0.8100290690187028
89	0x3fdeac1cfe3acb27	0.47925495936503854
90	0x3fcee5a07c9b709c	0.24138265690169625
91	0x3fca966d8d327953	0.20771569628136408
92	0x3fd9c9683a1ebdf4	0.40291791606702465
93	0x3fa0b4cc236db750	0.03262937481382144
94	0x3fcb194436b0e535	0.21170857115229472
95	0x3fea96790126c380	0.8308682463158306
96	0x3fd18b16a2d38109	0.27411428357119455
97	0x3fb0e97e547ed9e2	0.06606282770994867
98	0xbfc9bbd12b720718	-0.20104422208174166
99	0xbfa9e72a4bc1df04	-0.050591775653570564
100	0x3feb6578302033b8	0.8561364116627521
101	0x3fd8550a8fd4da99	0.38019050642052715
102	0x3fe1144246cc19f4	0.5337230093726348
103	0x3fae3e1664348bb4	0.05906743977745724
104	0x3fde4b619396e469	0.47335090077428404
105	0x3fe314b8120735b7	0.5962791778671804
106	0x3fc204a94c8c26fa	0.14076725232762738
107	0x3fd57079960753de	0.33498992587311516
108	0x3fc5e040d9c0e54c	0.1709061682939058
109	0x3fdcc945d3c04eb0	0.4497847144968814
110	0x3fe571f26e322675	0.6701595451606425
111	0x3fe1c1484c2c73a5	0.5548440444723509
112	0x3fba0b277dfb2c60	0.10173270059310502
113	0xbfa155dd17e9dba0	-0.0338582126323026
114	0x3fc38cb8baa710cc	0.15273198236366736
115	0x3fc07ee517f8d1f8	0.12887252493386803
116	0x3fc8a0922637a7ea	0.19240023485264085
117	0x3fe3f6fa571e1002	0.6238986684334125
118	0x3fe2cb282d2280bb	0.5872994309939011
119	0x3fdbcfe27686c02b	0.4345632703289108
120	0xbfc816c51e538a2c	-0.188194885070588
121	0x3fd2aa5f9fd57b72	0.29164877518444776
122	0x3fc18f5246ec2832	0.13718632185947538
123	0x3fc693186d7ee6a0	0.1763639959952359
124	0xbfa7fae6cbebdc60	-0.04683610190652909
125	0x3fed1b73f8e761f6	0.9096011983302208
126	0xbfad3599a44be750	-0.05704956179211129
127	0x3fc6aaa82e0c6eae	0.17708303688492805
128	0x3fbe52ca9d0998a8	0.11845079740450848
129	0x3fd8cf1a23918242	0.38764050935245475
130	0x3fe8614ebe7298be	0.7618783683472186
131	0x3fde0f18a565d7ca	0.46967140342837566
132	0x3fec3ab0724b5a2c	0.8821642143546504
133	0x3fc6bd56a3e8dcfe	0.17765315059089198
134	0x3fcc18b9d5b9506e	0.21950457511650562
135	0xbfd35fad4aff4bd4	-0.30271465610456727
136	0xbfc985e3f976e730	-0.199398514565297
137	0xbfba632ae872465c	-0.10307567763290976
138	0x3fe28979aa2264a3	0.5792816470085608
139	0xbf5b8c39040e4d48	-0.001681380919966129
140	0x3fd6e9a4d34a75ae	0.35801048883316866
141	0x3fd5ae85a1ad5b61	0.3387769774321239
142	0x3fe010f5f426fb2f	0.5020704048728016
143	0xbfda57a422fc3b5f	-0.41159919182330457
144	0x3faa08cc4803aa80	0.05084837321358737
145	0x3fe2547d11c44c1d	0.5728135439879939
146	0x3fdc69e888a6e602	0.4439641317836448
147	0x3fda093481ac683c	0.406811834940189
148	0x3fd36d4ad03817d7	0.30354566892526463
149	0x3fdda45591bee346	0.4631551669404427
150	0xbf97333e40ca94e0	-0.022656414703892902
151	0x3fd771b0dfdfdc7c	0.36631414282550856
152	0xbfc1bc9a9838ca8c	-0.13856823380190908
153	0x3fe5db0f498c299c	0.6829906879877856
154	0x3fd6a431fdadd6c0	0.35377168439240947
155	0x3fe0242c5a19b5c3	0.5044156799100893
156	0x3fcf947bbcc82490	0.24671885221349443
157	0x3fc9b5e5be9bc5af	0.2008635693269247
158	0x3fe64b66e739c14e	0.6967043415188898
159	0x3fe42d07f34db6ab	0.6304969551108192
160	0x3fb31deb04d41d04	0.07467526309857325
161	0x3fb9efe8bb9c6960	0.1013169725451113
162	0x3f7894439ad8b280	0.0060007706465908806
163	0x3fad0c2ba5b24ea0	0.05673347852385047
164	0x3fe1e22e3469b130	0.5588599227608366
165	0x3fea4fc1c2b433c3	0.8222359469233357
166	0x3fa57e16303da988	0.04197758997800621
167	0x3fb4bcc2c0629c34	0.08100526043800543
168	0x3fe8e03a0e47a983	0.7773714331536187
169	0x3fbef7b2d80611dc	0.12096708082214697
170	0x3fdce94df17804c7	0.45173977452220665
171	0x3fca4382252f0761	0.20518519225702916
172	0x3fccaa5e1821ecb2	0.22394920519204714
173	0x3fd2a1540b654b10	0.2910966979299454
174	0xbfc78b741ddd9172	-0.18394328554417033
175	0x3fe354c465293267	0.6040975547599147
176	0xbfdc4e168deb8dbc	-0.44226611956966244
177	0xbfc2552804e40be9	-0.1432237647896664
178	0x3fe0757771d89e98	0.5143391822393424
179	0xbfd6391748c7f680	-0.34723455531625547
180	0x3fd9476bc14926af	0.39498418689309295
181	0x3fea3eddc085ce6c	0.8201740989884008
182	0x3fd26e130d80c94b	0.28796840971621823
183	0xbfa9551030dc1b94	-0.04947710606034331
184	0x3fd22c7a8de0966f	0.28396476607517845
185	0x3fb29c3f433878c0	0.07269664183738467
186	0x3fd6a521fa7a72c7	0.3538289018704685
187	0x3fdda8564464f7c1	0.4633994739450565
188	0x3fe07fb17d841661	0.5155875636562081
189	0x3f907dc4f4cde448	0.01610477203528074
190	0xbfc460a16bfaac10	-0.15919893047734535
191	0x3fe36db7a95ee110	0.6071432407398181
192	0xbfad0e4a29775920	-0.05674964672259564
193	0xbfc5c45d12122fec	-0.1700550401914137
194	0x3f9bb620ceb557b0	0.02706195127151262
195	0x3fc1d48d73694a78	0.13929908881489772
196	0x3fe7c4f6045e30ce	0.7427930913268257
197	0x3fe422d9a8e01c53	0.6292541788433347
198	0x3fe4a3fb4841aba1	0.645017281652475
199	0xbfb515ea674fc889	-0.08236565611130876
200	0x3fe0c733a4e0eb90	0.5243166179928824
201	0x3fe034f62b4ae558	0.5064650388295986
202	0x3fc962f75dd97e9f	0.19833271105288916
203	0x3fb481e059ea6172	0.08010675616458743
204	0x3fe7f17b7c3026f1	0.7482278276013102
205	0xbfd9a60067089244	-0.4007569318949076
206	0x3fd784de60e64b50	0.3674846597943331
207	0x3fc4661dc4be2c94	0.15936634165368402
208	0xbfceb7e64b042a2d	-0.23998716986564386
209	0xbfcfbd9983d13367	-0.24797362266908893
210	0x3fc3a7401e654214	0.1535415790954323
211	0x3fe753c0fbe31010	0.7289738578479064
212	0x3fd132fded0b4540	0.26873729847746475
213	0x3fe07239fae2ef86	0.513943662655479
214	0x3fd3a953b8ac64f9	0.3072099021388364
215	0x3fbe90dc9f2b6560	0.11939791570639136
216	0x3fe7f4320b09dcfa	0.748559018668771
217	0x3f86c5af1c2af8a5	0.011119239852061044
218	0x3fda789bd72ea05a	0.41361137403374004
219	0x3fb78f45b559e00a	0.09202991178051448
220	0x3fc04a5215dd665f	0.12726808612460425
221	0x3fdf99b16bb899ad	0.4937556793178384
222	0x3fcd4166924beac0	0.22855837005029933
223	0xbf9454c372cfbad8	-0.019854596979650946
224	0x3fc6cdf2dacbb4b5	0.17816005404839577
225	0xbfdc99bd9e2dea99	-0.44688358733370986
226	0x3fe6313687793a86	0.6935074468581923
227	0x3fdf05d94bce971c	0.48473198321367916
228	0x3fd531e4391e0516	0.33117013528688355
229	0x3fe821bc2d0c8c4f	0.7541180496085732
230	0xbfe0425ddddde198	-0.5081013997396893
231	0x3fb5c4df439f5da6	0.0850352802366304
232	0x3fc7dd72f85dd04b	0.18644559027927907
233	0x3fc2c19899a1a6b1	0.14653308393035538
234	0xbfd7c23b722344c6	-0.3712299933077471
235	0x3fe2a257e2eb858f	0.5823172981292134
236	0xbfa4634368c86528	-0.039819819012516355
237	0x3fd626c6eae8a45c	0.34611676159199134
238	0x3fd93fd3fd87575f	0.39452075728092056
239	0xbfdfbefc5e58bbb1	-0.496031849036565
240	0x3fdb9f939171447e	0.4316147728287162
241	0xbfcc2491cf522954	-0.21986601470082212
242	0x3fb756c75b50715d	0.0911678884444362
243	0x3fd209b0cd76acf9	0.28184146942903926
244	0xbfdc973926bd5a66	-0.44672993453187926
245	0x3fe6200ffafcc765	0.6914138700578688
246	0x3fc1f9836f35a694	0.1404270451560491
247	0x3fc37bddba60e284	0.15221759415159763
248	0x3fe7db95088978a9	0.745554463075469
249	0x3fdfb3aa9704f6ba	0.49534096477496414
250	0xbfb1d71315dc46f4	-0.06968802722647266
251	0x3fd8def29ef3ddbc	0.38860765001978925
252	0x3fc785336633adaa	0.1837524651558458
253	0xbfd1dcca1c7aa277	-0.2791009214511528
254	0x3fec7ad0cf6f9d20	0.8899921466335492
255	0x3f649ecaa7f10680	0.0025171239972515136
